node {
  name: "placeholders/label"
  op: "Placeholder"
  attr {
    key: "dtype"
    value {
      type: DT_FLOAT
    }
  }
  attr {
    key: "shape"
    value {
      shape {
        dim {
          size: 1
        }
        dim {
          size: 1
        }
      }
    }
  }
}
node {
  name: "placeholders/initial_states_1"
  op: "Placeholder"
  attr {
    key: "dtype"
    value {
      type: DT_FLOAT
    }
  }
  attr {
    key: "shape"
    value {
      shape {
        dim {
          size: 2
        }
        dim {
          size: 1
        }
        dim {
          size: 25
        }
      }
    }
  }
}
node {
  name: "placeholders/initial_states_2"
  op: "Placeholder"
  attr {
    key: "dtype"
    value {
      type: DT_FLOAT
    }
  }
  attr {
    key: "shape"
    value {
      shape {
        dim {
          size: 2
        }
        dim {
          size: 1
        }
        dim {
          size: 25
        }
      }
    }
  }
}
node {
  name: "placeholders/input_data"
  op: "Placeholder"
  attr {
    key: "dtype"
    value {
      type: DT_FLOAT
    }
  }
  attr {
    key: "shape"
    value {
      shape {
        dim {
          size: 9
        }
        dim {
          size: 1
        }
        dim {
          size: 1
        }
      }
    }
  }
}
node {
  name: "aux_weights_and_biases/random_normal/shape"
  op: "Const"
  attr {
    key: "dtype"
    value {
      type: DT_INT32
    }
  }
  attr {
    key: "value"
    value {
      tensor {
        dtype: DT_INT32
        tensor_shape {
          dim {
            size: 2
          }
        }
        tensor_content: "\031\000\000\000\001\000\000\000"
      }
    }
  }
}
node {
  name: "aux_weights_and_biases/random_normal/mean"
  op: "Const"
  attr {
    key: "dtype"
    value {
      type: DT_FLOAT
    }
  }
  attr {
    key: "value"
    value {
      tensor {
        dtype: DT_FLOAT
        tensor_shape {
        }
        float_val: 0.0
      }
    }
  }
}
node {
  name: "aux_weights_and_biases/random_normal/stddev"
  op: "Const"
  attr {
    key: "dtype"
    value {
      type: DT_FLOAT
    }
  }
  attr {
    key: "value"
    value {
      tensor {
        dtype: DT_FLOAT
        tensor_shape {
        }
        float_val: 1.0
      }
    }
  }
}
node {
  name: "aux_weights_and_biases/random_normal/RandomStandardNormal"
  op: "RandomStandardNormal"
  input: "aux_weights_and_biases/random_normal/shape"
  attr {
    key: "T"
    value {
      type: DT_INT32
    }
  }
  attr {
    key: "dtype"
    value {
      type: DT_FLOAT
    }
  }
  attr {
    key: "seed"
    value {
      i: 0
    }
  }
  attr {
    key: "seed2"
    value {
      i: 0
    }
  }
}
node {
  name: "aux_weights_and_biases/random_normal/mul"
  op: "Mul"
  input: "aux_weights_and_biases/random_normal/RandomStandardNormal"
  input: "aux_weights_and_biases/random_normal/stddev"
  attr {
    key: "T"
    value {
      type: DT_FLOAT
    }
  }
}
node {
  name: "aux_weights_and_biases/random_normal"
  op: "Add"
  input: "aux_weights_and_biases/random_normal/mul"
  input: "aux_weights_and_biases/random_normal/mean"
  attr {
    key: "T"
    value {
      type: DT_FLOAT
    }
  }
}
node {
  name: "aux_weights_and_biases/outwards_propagating_weight_1"
  op: "VariableV2"
  attr {
    key: "container"
    value {
      s: ""
    }
  }
  attr {
    key: "dtype"
    value {
      type: DT_FLOAT
    }
  }
  attr {
    key: "shape"
    value {
      shape {
        dim {
          size: 25
        }
        dim {
          size: 1
        }
      }
    }
  }
  attr {
    key: "shared_name"
    value {
      s: ""
    }
  }
}
node {
  name: "aux_weights_and_biases/outwards_propagating_weight_1/Assign"
  op: "Assign"
  input: "aux_weights_and_biases/outwards_propagating_weight_1"
  input: "aux_weights_and_biases/random_normal"
  attr {
    key: "T"
    value {
      type: DT_FLOAT
    }
  }
  attr {
    key: "_class"
    value {
      list {
        s: "loc:@aux_weights_and_biases/outwards_propagating_weight_1"
      }
    }
  }
  attr {
    key: "use_locking"
    value {
      b: true
    }
  }
  attr {
    key: "validate_shape"
    value {
      b: true
    }
  }
}
node {
  name: "aux_weights_and_biases/outwards_propagating_weight_1/read"
  op: "Identity"
  input: "aux_weights_and_biases/outwards_propagating_weight_1"
  attr {
    key: "T"
    value {
      type: DT_FLOAT
    }
  }
  attr {
    key: "_class"
    value {
      list {
        s: "loc:@aux_weights_and_biases/outwards_propagating_weight_1"
      }
    }
  }
}
node {
  name: "aux_weights_and_biases/random_normal_1/shape"
  op: "Const"
  attr {
    key: "dtype"
    value {
      type: DT_INT32
    }
  }
  attr {
    key: "value"
    value {
      tensor {
        dtype: DT_INT32
        tensor_shape {
          dim {
            size: 2
          }
        }
        tensor_content: "\031\000\000\000\001\000\000\000"
      }
    }
  }
}
node {
  name: "aux_weights_and_biases/random_normal_1/mean"
  op: "Const"
  attr {
    key: "dtype"
    value {
      type: DT_FLOAT
    }
  }
  attr {
    key: "value"
    value {
      tensor {
        dtype: DT_FLOAT
        tensor_shape {
        }
        float_val: 0.0
      }
    }
  }
}
node {
  name: "aux_weights_and_biases/random_normal_1/stddev"
  op: "Const"
  attr {
    key: "dtype"
    value {
      type: DT_FLOAT
    }
  }
  attr {
    key: "value"
    value {
      tensor {
        dtype: DT_FLOAT
        tensor_shape {
        }
        float_val: 1.0
      }
    }
  }
}
node {
  name: "aux_weights_and_biases/random_normal_1/RandomStandardNormal"
  op: "RandomStandardNormal"
  input: "aux_weights_and_biases/random_normal_1/shape"
  attr {
    key: "T"
    value {
      type: DT_INT32
    }
  }
  attr {
    key: "dtype"
    value {
      type: DT_FLOAT
    }
  }
  attr {
    key: "seed"
    value {
      i: 0
    }
  }
  attr {
    key: "seed2"
    value {
      i: 0
    }
  }
}
node {
  name: "aux_weights_and_biases/random_normal_1/mul"
  op: "Mul"
  input: "aux_weights_and_biases/random_normal_1/RandomStandardNormal"
  input: "aux_weights_and_biases/random_normal_1/stddev"
  attr {
    key: "T"
    value {
      type: DT_FLOAT
    }
  }
}
node {
  name: "aux_weights_and_biases/random_normal_1"
  op: "Add"
  input: "aux_weights_and_biases/random_normal_1/mul"
  input: "aux_weights_and_biases/random_normal_1/mean"
  attr {
    key: "T"
    value {
      type: DT_FLOAT
    }
  }
}
node {
  name: "aux_weights_and_biases/outwards_propagating_weight_2"
  op: "VariableV2"
  attr {
    key: "container"
    value {
      s: ""
    }
  }
  attr {
    key: "dtype"
    value {
      type: DT_FLOAT
    }
  }
  attr {
    key: "shape"
    value {
      shape {
        dim {
          size: 25
        }
        dim {
          size: 1
        }
      }
    }
  }
  attr {
    key: "shared_name"
    value {
      s: ""
    }
  }
}
node {
  name: "aux_weights_and_biases/outwards_propagating_weight_2/Assign"
  op: "Assign"
  input: "aux_weights_and_biases/outwards_propagating_weight_2"
  input: "aux_weights_and_biases/random_normal_1"
  attr {
    key: "T"
    value {
      type: DT_FLOAT
    }
  }
  attr {
    key: "_class"
    value {
      list {
        s: "loc:@aux_weights_and_biases/outwards_propagating_weight_2"
      }
    }
  }
  attr {
    key: "use_locking"
    value {
      b: true
    }
  }
  attr {
    key: "validate_shape"
    value {
      b: true
    }
  }
}
node {
  name: "aux_weights_and_biases/outwards_propagating_weight_2/read"
  op: "Identity"
  input: "aux_weights_and_biases/outwards_propagating_weight_2"
  attr {
    key: "T"
    value {
      type: DT_FLOAT
    }
  }
  attr {
    key: "_class"
    value {
      list {
        s: "loc:@aux_weights_and_biases/outwards_propagating_weight_2"
      }
    }
  }
}
node {
  name: "aux_weights_and_biases/zeros"
  op: "Const"
  attr {
    key: "dtype"
    value {
      type: DT_FLOAT
    }
  }
  attr {
    key: "value"
    value {
      tensor {
        dtype: DT_FLOAT
        tensor_shape {
          dim {
            size: 1
          }
          dim {
            size: 1
          }
        }
        float_val: 0.0
      }
    }
  }
}
node {
  name: "aux_weights_and_biases/outwards_propagating_bias_1"
  op: "VariableV2"
  attr {
    key: "container"
    value {
      s: ""
    }
  }
  attr {
    key: "dtype"
    value {
      type: DT_FLOAT
    }
  }
  attr {
    key: "shape"
    value {
      shape {
        dim {
          size: 1
        }
        dim {
          size: 1
        }
      }
    }
  }
  attr {
    key: "shared_name"
    value {
      s: ""
    }
  }
}
node {
  name: "aux_weights_and_biases/outwards_propagating_bias_1/Assign"
  op: "Assign"
  input: "aux_weights_and_biases/outwards_propagating_bias_1"
  input: "aux_weights_and_biases/zeros"
  attr {
    key: "T"
    value {
      type: DT_FLOAT
    }
  }
  attr {
    key: "_class"
    value {
      list {
        s: "loc:@aux_weights_and_biases/outwards_propagating_bias_1"
      }
    }
  }
  attr {
    key: "use_locking"
    value {
      b: true
    }
  }
  attr {
    key: "validate_shape"
    value {
      b: true
    }
  }
}
node {
  name: "aux_weights_and_biases/outwards_propagating_bias_1/read"
  op: "Identity"
  input: "aux_weights_and_biases/outwards_propagating_bias_1"
  attr {
    key: "T"
    value {
      type: DT_FLOAT
    }
  }
  attr {
    key: "_class"
    value {
      list {
        s: "loc:@aux_weights_and_biases/outwards_propagating_bias_1"
      }
    }
  }
}
node {
  name: "aux_weights_and_biases/zeros_1"
  op: "Const"
  attr {
    key: "dtype"
    value {
      type: DT_FLOAT
    }
  }
  attr {
    key: "value"
    value {
      tensor {
        dtype: DT_FLOAT
        tensor_shape {
          dim {
            size: 1
          }
          dim {
            size: 1
          }
        }
        float_val: 0.0
      }
    }
  }
}
node {
  name: "aux_weights_and_biases/outwards_propagating_bias_2"
  op: "VariableV2"
  attr {
    key: "container"
    value {
      s: ""
    }
  }
  attr {
    key: "dtype"
    value {
      type: DT_FLOAT
    }
  }
  attr {
    key: "shape"
    value {
      shape {
        dim {
          size: 1
        }
        dim {
          size: 1
        }
      }
    }
  }
  attr {
    key: "shared_name"
    value {
      s: ""
    }
  }
}
node {
  name: "aux_weights_and_biases/outwards_propagating_bias_2/Assign"
  op: "Assign"
  input: "aux_weights_and_biases/outwards_propagating_bias_2"
  input: "aux_weights_and_biases/zeros_1"
  attr {
    key: "T"
    value {
      type: DT_FLOAT
    }
  }
  attr {
    key: "_class"
    value {
      list {
        s: "loc:@aux_weights_and_biases/outwards_propagating_bias_2"
      }
    }
  }
  attr {
    key: "use_locking"
    value {
      b: true
    }
  }
  attr {
    key: "validate_shape"
    value {
      b: true
    }
  }
}
node {
  name: "aux_weights_and_biases/outwards_propagating_bias_2/read"
  op: "Identity"
  input: "aux_weights_and_biases/outwards_propagating_bias_2"
  attr {
    key: "T"
    value {
      type: DT_FLOAT
    }
  }
  attr {
    key: "_class"
    value {
      list {
        s: "loc:@aux_weights_and_biases/outwards_propagating_bias_2"
      }
    }
  }
}
node {
  name: "layer_1_propagation/layer_1/weights_and_biases/random_normal/shape"
  op: "Const"
  attr {
    key: "dtype"
    value {
      type: DT_INT32
    }
  }
  attr {
    key: "value"
    value {
      tensor {
        dtype: DT_INT32
        tensor_shape {
          dim {
            size: 2
          }
        }
        tensor_content: "\032\000\000\000\031\000\000\000"
      }
    }
  }
}
node {
  name: "layer_1_propagation/layer_1/weights_and_biases/random_normal/mean"
  op: "Const"
  attr {
    key: "dtype"
    value {
      type: DT_FLOAT
    }
  }
  attr {
    key: "value"
    value {
      tensor {
        dtype: DT_FLOAT
        tensor_shape {
        }
        float_val: 0.0
      }
    }
  }
}
node {
  name: "layer_1_propagation/layer_1/weights_and_biases/random_normal/stddev"
  op: "Const"
  attr {
    key: "dtype"
    value {
      type: DT_FLOAT
    }
  }
  attr {
    key: "value"
    value {
      tensor {
        dtype: DT_FLOAT
        tensor_shape {
        }
        float_val: 1.0
      }
    }
  }
}
node {
  name: "layer_1_propagation/layer_1/weights_and_biases/random_normal/RandomStandardNormal"
  op: "RandomStandardNormal"
  input: "layer_1_propagation/layer_1/weights_and_biases/random_normal/shape"
  attr {
    key: "T"
    value {
      type: DT_INT32
    }
  }
  attr {
    key: "dtype"
    value {
      type: DT_FLOAT
    }
  }
  attr {
    key: "seed"
    value {
      i: 0
    }
  }
  attr {
    key: "seed2"
    value {
      i: 0
    }
  }
}
node {
  name: "layer_1_propagation/layer_1/weights_and_biases/random_normal/mul"
  op: "Mul"
  input: "layer_1_propagation/layer_1/weights_and_biases/random_normal/RandomStandardNormal"
  input: "layer_1_propagation/layer_1/weights_and_biases/random_normal/stddev"
  attr {
    key: "T"
    value {
      type: DT_FLOAT
    }
  }
}
node {
  name: "layer_1_propagation/layer_1/weights_and_biases/random_normal"
  op: "Add"
  input: "layer_1_propagation/layer_1/weights_and_biases/random_normal/mul"
  input: "layer_1_propagation/layer_1/weights_and_biases/random_normal/mean"
  attr {
    key: "T"
    value {
      type: DT_FLOAT
    }
  }
}
node {
  name: "layer_1_propagation/layer_1/weights_and_biases/forget_weight"
  op: "VariableV2"
  attr {
    key: "container"
    value {
      s: ""
    }
  }
  attr {
    key: "dtype"
    value {
      type: DT_FLOAT
    }
  }
  attr {
    key: "shape"
    value {
      shape {
        dim {
          size: 26
        }
        dim {
          size: 25
        }
      }
    }
  }
  attr {
    key: "shared_name"
    value {
      s: ""
    }
  }
}
node {
  name: "layer_1_propagation/layer_1/weights_and_biases/forget_weight/Assign"
  op: "Assign"
  input: "layer_1_propagation/layer_1/weights_and_biases/forget_weight"
  input: "layer_1_propagation/layer_1/weights_and_biases/random_normal"
  attr {
    key: "T"
    value {
      type: DT_FLOAT
    }
  }
  attr {
    key: "_class"
    value {
      list {
        s: "loc:@layer_1_propagation/layer_1/weights_and_biases/forget_weight"
      }
    }
  }
  attr {
    key: "use_locking"
    value {
      b: true
    }
  }
  attr {
    key: "validate_shape"
    value {
      b: true
    }
  }
}
node {
  name: "layer_1_propagation/layer_1/weights_and_biases/forget_weight/read"
  op: "Identity"
  input: "layer_1_propagation/layer_1/weights_and_biases/forget_weight"
  attr {
    key: "T"
    value {
      type: DT_FLOAT
    }
  }
  attr {
    key: "_class"
    value {
      list {
        s: "loc:@layer_1_propagation/layer_1/weights_and_biases/forget_weight"
      }
    }
  }
}
node {
  name: "layer_1_propagation/layer_1/weights_and_biases/random_normal_1/shape"
  op: "Const"
  attr {
    key: "dtype"
    value {
      type: DT_INT32
    }
  }
  attr {
    key: "value"
    value {
      tensor {
        dtype: DT_INT32
        tensor_shape {
          dim {
            size: 2
          }
        }
        tensor_content: "\032\000\000\000\031\000\000\000"
      }
    }
  }
}
node {
  name: "layer_1_propagation/layer_1/weights_and_biases/random_normal_1/mean"
  op: "Const"
  attr {
    key: "dtype"
    value {
      type: DT_FLOAT
    }
  }
  attr {
    key: "value"
    value {
      tensor {
        dtype: DT_FLOAT
        tensor_shape {
        }
        float_val: 0.0
      }
    }
  }
}
node {
  name: "layer_1_propagation/layer_1/weights_and_biases/random_normal_1/stddev"
  op: "Const"
  attr {
    key: "dtype"
    value {
      type: DT_FLOAT
    }
  }
  attr {
    key: "value"
    value {
      tensor {
        dtype: DT_FLOAT
        tensor_shape {
        }
        float_val: 1.0
      }
    }
  }
}
node {
  name: "layer_1_propagation/layer_1/weights_and_biases/random_normal_1/RandomStandardNormal"
  op: "RandomStandardNormal"
  input: "layer_1_propagation/layer_1/weights_and_biases/random_normal_1/shape"
  attr {
    key: "T"
    value {
      type: DT_INT32
    }
  }
  attr {
    key: "dtype"
    value {
      type: DT_FLOAT
    }
  }
  attr {
    key: "seed"
    value {
      i: 0
    }
  }
  attr {
    key: "seed2"
    value {
      i: 0
    }
  }
}
node {
  name: "layer_1_propagation/layer_1/weights_and_biases/random_normal_1/mul"
  op: "Mul"
  input: "layer_1_propagation/layer_1/weights_and_biases/random_normal_1/RandomStandardNormal"
  input: "layer_1_propagation/layer_1/weights_and_biases/random_normal_1/stddev"
  attr {
    key: "T"
    value {
      type: DT_FLOAT
    }
  }
}
node {
  name: "layer_1_propagation/layer_1/weights_and_biases/random_normal_1"
  op: "Add"
  input: "layer_1_propagation/layer_1/weights_and_biases/random_normal_1/mul"
  input: "layer_1_propagation/layer_1/weights_and_biases/random_normal_1/mean"
  attr {
    key: "T"
    value {
      type: DT_FLOAT
    }
  }
}
node {
  name: "layer_1_propagation/layer_1/weights_and_biases/output_weight"
  op: "VariableV2"
  attr {
    key: "container"
    value {
      s: ""
    }
  }
  attr {
    key: "dtype"
    value {
      type: DT_FLOAT
    }
  }
  attr {
    key: "shape"
    value {
      shape {
        dim {
          size: 26
        }
        dim {
          size: 25
        }
      }
    }
  }
  attr {
    key: "shared_name"
    value {
      s: ""
    }
  }
}
node {
  name: "layer_1_propagation/layer_1/weights_and_biases/output_weight/Assign"
  op: "Assign"
  input: "layer_1_propagation/layer_1/weights_and_biases/output_weight"
  input: "layer_1_propagation/layer_1/weights_and_biases/random_normal_1"
  attr {
    key: "T"
    value {
      type: DT_FLOAT
    }
  }
  attr {
    key: "_class"
    value {
      list {
        s: "loc:@layer_1_propagation/layer_1/weights_and_biases/output_weight"
      }
    }
  }
  attr {
    key: "use_locking"
    value {
      b: true
    }
  }
  attr {
    key: "validate_shape"
    value {
      b: true
    }
  }
}
node {
  name: "layer_1_propagation/layer_1/weights_and_biases/output_weight/read"
  op: "Identity"
  input: "layer_1_propagation/layer_1/weights_and_biases/output_weight"
  attr {
    key: "T"
    value {
      type: DT_FLOAT
    }
  }
  attr {
    key: "_class"
    value {
      list {
        s: "loc:@layer_1_propagation/layer_1/weights_and_biases/output_weight"
      }
    }
  }
}
node {
  name: "layer_1_propagation/layer_1/weights_and_biases/random_normal_2/shape"
  op: "Const"
  attr {
    key: "dtype"
    value {
      type: DT_INT32
    }
  }
  attr {
    key: "value"
    value {
      tensor {
        dtype: DT_INT32
        tensor_shape {
          dim {
            size: 2
          }
        }
        tensor_content: "\032\000\000\000\031\000\000\000"
      }
    }
  }
}
node {
  name: "layer_1_propagation/layer_1/weights_and_biases/random_normal_2/mean"
  op: "Const"
  attr {
    key: "dtype"
    value {
      type: DT_FLOAT
    }
  }
  attr {
    key: "value"
    value {
      tensor {
        dtype: DT_FLOAT
        tensor_shape {
        }
        float_val: 0.0
      }
    }
  }
}
node {
  name: "layer_1_propagation/layer_1/weights_and_biases/random_normal_2/stddev"
  op: "Const"
  attr {
    key: "dtype"
    value {
      type: DT_FLOAT
    }
  }
  attr {
    key: "value"
    value {
      tensor {
        dtype: DT_FLOAT
        tensor_shape {
        }
        float_val: 1.0
      }
    }
  }
}
node {
  name: "layer_1_propagation/layer_1/weights_and_biases/random_normal_2/RandomStandardNormal"
  op: "RandomStandardNormal"
  input: "layer_1_propagation/layer_1/weights_and_biases/random_normal_2/shape"
  attr {
    key: "T"
    value {
      type: DT_INT32
    }
  }
  attr {
    key: "dtype"
    value {
      type: DT_FLOAT
    }
  }
  attr {
    key: "seed"
    value {
      i: 0
    }
  }
  attr {
    key: "seed2"
    value {
      i: 0
    }
  }
}
node {
  name: "layer_1_propagation/layer_1/weights_and_biases/random_normal_2/mul"
  op: "Mul"
  input: "layer_1_propagation/layer_1/weights_and_biases/random_normal_2/RandomStandardNormal"
  input: "layer_1_propagation/layer_1/weights_and_biases/random_normal_2/stddev"
  attr {
    key: "T"
    value {
      type: DT_FLOAT
    }
  }
}
node {
  name: "layer_1_propagation/layer_1/weights_and_biases/random_normal_2"
  op: "Add"
  input: "layer_1_propagation/layer_1/weights_and_biases/random_normal_2/mul"
  input: "layer_1_propagation/layer_1/weights_and_biases/random_normal_2/mean"
  attr {
    key: "T"
    value {
      type: DT_FLOAT
    }
  }
}
node {
  name: "layer_1_propagation/layer_1/weights_and_biases/gate_weight"
  op: "VariableV2"
  attr {
    key: "container"
    value {
      s: ""
    }
  }
  attr {
    key: "dtype"
    value {
      type: DT_FLOAT
    }
  }
  attr {
    key: "shape"
    value {
      shape {
        dim {
          size: 26
        }
        dim {
          size: 25
        }
      }
    }
  }
  attr {
    key: "shared_name"
    value {
      s: ""
    }
  }
}
node {
  name: "layer_1_propagation/layer_1/weights_and_biases/gate_weight/Assign"
  op: "Assign"
  input: "layer_1_propagation/layer_1/weights_and_biases/gate_weight"
  input: "layer_1_propagation/layer_1/weights_and_biases/random_normal_2"
  attr {
    key: "T"
    value {
      type: DT_FLOAT
    }
  }
  attr {
    key: "_class"
    value {
      list {
        s: "loc:@layer_1_propagation/layer_1/weights_and_biases/gate_weight"
      }
    }
  }
  attr {
    key: "use_locking"
    value {
      b: true
    }
  }
  attr {
    key: "validate_shape"
    value {
      b: true
    }
  }
}
node {
  name: "layer_1_propagation/layer_1/weights_and_biases/gate_weight/read"
  op: "Identity"
  input: "layer_1_propagation/layer_1/weights_and_biases/gate_weight"
  attr {
    key: "T"
    value {
      type: DT_FLOAT
    }
  }
  attr {
    key: "_class"
    value {
      list {
        s: "loc:@layer_1_propagation/layer_1/weights_and_biases/gate_weight"
      }
    }
  }
}
node {
  name: "layer_1_propagation/layer_1/weights_and_biases/random_normal_3/shape"
  op: "Const"
  attr {
    key: "dtype"
    value {
      type: DT_INT32
    }
  }
  attr {
    key: "value"
    value {
      tensor {
        dtype: DT_INT32
        tensor_shape {
          dim {
            size: 2
          }
        }
        tensor_content: "\032\000\000\000\031\000\000\000"
      }
    }
  }
}
node {
  name: "layer_1_propagation/layer_1/weights_and_biases/random_normal_3/mean"
  op: "Const"
  attr {
    key: "dtype"
    value {
      type: DT_FLOAT
    }
  }
  attr {
    key: "value"
    value {
      tensor {
        dtype: DT_FLOAT
        tensor_shape {
        }
        float_val: 0.0
      }
    }
  }
}
node {
  name: "layer_1_propagation/layer_1/weights_and_biases/random_normal_3/stddev"
  op: "Const"
  attr {
    key: "dtype"
    value {
      type: DT_FLOAT
    }
  }
  attr {
    key: "value"
    value {
      tensor {
        dtype: DT_FLOAT
        tensor_shape {
        }
        float_val: 1.0
      }
    }
  }
}
node {
  name: "layer_1_propagation/layer_1/weights_and_biases/random_normal_3/RandomStandardNormal"
  op: "RandomStandardNormal"
  input: "layer_1_propagation/layer_1/weights_and_biases/random_normal_3/shape"
  attr {
    key: "T"
    value {
      type: DT_INT32
    }
  }
  attr {
    key: "dtype"
    value {
      type: DT_FLOAT
    }
  }
  attr {
    key: "seed"
    value {
      i: 0
    }
  }
  attr {
    key: "seed2"
    value {
      i: 0
    }
  }
}
node {
  name: "layer_1_propagation/layer_1/weights_and_biases/random_normal_3/mul"
  op: "Mul"
  input: "layer_1_propagation/layer_1/weights_and_biases/random_normal_3/RandomStandardNormal"
  input: "layer_1_propagation/layer_1/weights_and_biases/random_normal_3/stddev"
  attr {
    key: "T"
    value {
      type: DT_FLOAT
    }
  }
}
node {
  name: "layer_1_propagation/layer_1/weights_and_biases/random_normal_3"
  op: "Add"
  input: "layer_1_propagation/layer_1/weights_and_biases/random_normal_3/mul"
  input: "layer_1_propagation/layer_1/weights_and_biases/random_normal_3/mean"
  attr {
    key: "T"
    value {
      type: DT_FLOAT
    }
  }
}
node {
  name: "layer_1_propagation/layer_1/weights_and_biases/input_weight"
  op: "VariableV2"
  attr {
    key: "container"
    value {
      s: ""
    }
  }
  attr {
    key: "dtype"
    value {
      type: DT_FLOAT
    }
  }
  attr {
    key: "shape"
    value {
      shape {
        dim {
          size: 26
        }
        dim {
          size: 25
        }
      }
    }
  }
  attr {
    key: "shared_name"
    value {
      s: ""
    }
  }
}
node {
  name: "layer_1_propagation/layer_1/weights_and_biases/input_weight/Assign"
  op: "Assign"
  input: "layer_1_propagation/layer_1/weights_and_biases/input_weight"
  input: "layer_1_propagation/layer_1/weights_and_biases/random_normal_3"
  attr {
    key: "T"
    value {
      type: DT_FLOAT
    }
  }
  attr {
    key: "_class"
    value {
      list {
        s: "loc:@layer_1_propagation/layer_1/weights_and_biases/input_weight"
      }
    }
  }
  attr {
    key: "use_locking"
    value {
      b: true
    }
  }
  attr {
    key: "validate_shape"
    value {
      b: true
    }
  }
}
node {
  name: "layer_1_propagation/layer_1/weights_and_biases/input_weight/read"
  op: "Identity"
  input: "layer_1_propagation/layer_1/weights_and_biases/input_weight"
  attr {
    key: "T"
    value {
      type: DT_FLOAT
    }
  }
  attr {
    key: "_class"
    value {
      list {
        s: "loc:@layer_1_propagation/layer_1/weights_and_biases/input_weight"
      }
    }
  }
}
node {
  name: "layer_1_propagation/layer_1/weights_and_biases/random_normal_4/shape"
  op: "Const"
  attr {
    key: "dtype"
    value {
      type: DT_INT32
    }
  }
  attr {
    key: "value"
    value {
      tensor {
        dtype: DT_INT32
        tensor_shape {
          dim {
            size: 2
          }
        }
        tensor_content: "\031\000\000\000\001\000\000\000"
      }
    }
  }
}
node {
  name: "layer_1_propagation/layer_1/weights_and_biases/random_normal_4/mean"
  op: "Const"
  attr {
    key: "dtype"
    value {
      type: DT_FLOAT
    }
  }
  attr {
    key: "value"
    value {
      tensor {
        dtype: DT_FLOAT
        tensor_shape {
        }
        float_val: 0.0
      }
    }
  }
}
node {
  name: "layer_1_propagation/layer_1/weights_and_biases/random_normal_4/stddev"
  op: "Const"
  attr {
    key: "dtype"
    value {
      type: DT_FLOAT
    }
  }
  attr {
    key: "value"
    value {
      tensor {
        dtype: DT_FLOAT
        tensor_shape {
        }
        float_val: 1.0
      }
    }
  }
}
node {
  name: "layer_1_propagation/layer_1/weights_and_biases/random_normal_4/RandomStandardNormal"
  op: "RandomStandardNormal"
  input: "layer_1_propagation/layer_1/weights_and_biases/random_normal_4/shape"
  attr {
    key: "T"
    value {
      type: DT_INT32
    }
  }
  attr {
    key: "dtype"
    value {
      type: DT_FLOAT
    }
  }
  attr {
    key: "seed"
    value {
      i: 0
    }
  }
  attr {
    key: "seed2"
    value {
      i: 0
    }
  }
}
node {
  name: "layer_1_propagation/layer_1/weights_and_biases/random_normal_4/mul"
  op: "Mul"
  input: "layer_1_propagation/layer_1/weights_and_biases/random_normal_4/RandomStandardNormal"
  input: "layer_1_propagation/layer_1/weights_and_biases/random_normal_4/stddev"
  attr {
    key: "T"
    value {
      type: DT_FLOAT
    }
  }
}
node {
  name: "layer_1_propagation/layer_1/weights_and_biases/random_normal_4"
  op: "Add"
  input: "layer_1_propagation/layer_1/weights_and_biases/random_normal_4/mul"
  input: "layer_1_propagation/layer_1/weights_and_biases/random_normal_4/mean"
  attr {
    key: "T"
    value {
      type: DT_FLOAT
    }
  }
}
node {
  name: "layer_1_propagation/layer_1/weights_and_biases/outwards_propagating_weight"
  op: "VariableV2"
  attr {
    key: "container"
    value {
      s: ""
    }
  }
  attr {
    key: "dtype"
    value {
      type: DT_FLOAT
    }
  }
  attr {
    key: "shape"
    value {
      shape {
        dim {
          size: 25
        }
        dim {
          size: 1
        }
      }
    }
  }
  attr {
    key: "shared_name"
    value {
      s: ""
    }
  }
}
node {
  name: "layer_1_propagation/layer_1/weights_and_biases/outwards_propagating_weight/Assign"
  op: "Assign"
  input: "layer_1_propagation/layer_1/weights_and_biases/outwards_propagating_weight"
  input: "layer_1_propagation/layer_1/weights_and_biases/random_normal_4"
  attr {
    key: "T"
    value {
      type: DT_FLOAT
    }
  }
  attr {
    key: "_class"
    value {
      list {
        s: "loc:@layer_1_propagation/layer_1/weights_and_biases/outwards_propagating_weight"
      }
    }
  }
  attr {
    key: "use_locking"
    value {
      b: true
    }
  }
  attr {
    key: "validate_shape"
    value {
      b: true
    }
  }
}
node {
  name: "layer_1_propagation/layer_1/weights_and_biases/outwards_propagating_weight/read"
  op: "Identity"
  input: "layer_1_propagation/layer_1/weights_and_biases/outwards_propagating_weight"
  attr {
    key: "T"
    value {
      type: DT_FLOAT
    }
  }
  attr {
    key: "_class"
    value {
      list {
        s: "loc:@layer_1_propagation/layer_1/weights_and_biases/outwards_propagating_weight"
      }
    }
  }
}
node {
  name: "layer_1_propagation/layer_1/weights_and_biases/zeros"
  op: "Const"
  attr {
    key: "dtype"
    value {
      type: DT_FLOAT
    }
  }
  attr {
    key: "value"
    value {
      tensor {
        dtype: DT_FLOAT
        tensor_shape {
          dim {
            size: 1
          }
          dim {
            size: 25
          }
        }
        float_val: 0.0
      }
    }
  }
}
node {
  name: "layer_1_propagation/layer_1/weights_and_biases/forget_bias"
  op: "VariableV2"
  attr {
    key: "container"
    value {
      s: ""
    }
  }
  attr {
    key: "dtype"
    value {
      type: DT_FLOAT
    }
  }
  attr {
    key: "shape"
    value {
      shape {
        dim {
          size: 1
        }
        dim {
          size: 25
        }
      }
    }
  }
  attr {
    key: "shared_name"
    value {
      s: ""
    }
  }
}
node {
  name: "layer_1_propagation/layer_1/weights_and_biases/forget_bias/Assign"
  op: "Assign"
  input: "layer_1_propagation/layer_1/weights_and_biases/forget_bias"
  input: "layer_1_propagation/layer_1/weights_and_biases/zeros"
  attr {
    key: "T"
    value {
      type: DT_FLOAT
    }
  }
  attr {
    key: "_class"
    value {
      list {
        s: "loc:@layer_1_propagation/layer_1/weights_and_biases/forget_bias"
      }
    }
  }
  attr {
    key: "use_locking"
    value {
      b: true
    }
  }
  attr {
    key: "validate_shape"
    value {
      b: true
    }
  }
}
node {
  name: "layer_1_propagation/layer_1/weights_and_biases/forget_bias/read"
  op: "Identity"
  input: "layer_1_propagation/layer_1/weights_and_biases/forget_bias"
  attr {
    key: "T"
    value {
      type: DT_FLOAT
    }
  }
  attr {
    key: "_class"
    value {
      list {
        s: "loc:@layer_1_propagation/layer_1/weights_and_biases/forget_bias"
      }
    }
  }
}
node {
  name: "layer_1_propagation/layer_1/weights_and_biases/zeros_1"
  op: "Const"
  attr {
    key: "dtype"
    value {
      type: DT_FLOAT
    }
  }
  attr {
    key: "value"
    value {
      tensor {
        dtype: DT_FLOAT
        tensor_shape {
          dim {
            size: 1
          }
          dim {
            size: 25
          }
        }
        float_val: 0.0
      }
    }
  }
}
node {
  name: "layer_1_propagation/layer_1/weights_and_biases/output_bias"
  op: "VariableV2"
  attr {
    key: "container"
    value {
      s: ""
    }
  }
  attr {
    key: "dtype"
    value {
      type: DT_FLOAT
    }
  }
  attr {
    key: "shape"
    value {
      shape {
        dim {
          size: 1
        }
        dim {
          size: 25
        }
      }
    }
  }
  attr {
    key: "shared_name"
    value {
      s: ""
    }
  }
}
node {
  name: "layer_1_propagation/layer_1/weights_and_biases/output_bias/Assign"
  op: "Assign"
  input: "layer_1_propagation/layer_1/weights_and_biases/output_bias"
  input: "layer_1_propagation/layer_1/weights_and_biases/zeros_1"
  attr {
    key: "T"
    value {
      type: DT_FLOAT
    }
  }
  attr {
    key: "_class"
    value {
      list {
        s: "loc:@layer_1_propagation/layer_1/weights_and_biases/output_bias"
      }
    }
  }
  attr {
    key: "use_locking"
    value {
      b: true
    }
  }
  attr {
    key: "validate_shape"
    value {
      b: true
    }
  }
}
node {
  name: "layer_1_propagation/layer_1/weights_and_biases/output_bias/read"
  op: "Identity"
  input: "layer_1_propagation/layer_1/weights_and_biases/output_bias"
  attr {
    key: "T"
    value {
      type: DT_FLOAT
    }
  }
  attr {
    key: "_class"
    value {
      list {
        s: "loc:@layer_1_propagation/layer_1/weights_and_biases/output_bias"
      }
    }
  }
}
node {
  name: "layer_1_propagation/layer_1/weights_and_biases/zeros_2"
  op: "Const"
  attr {
    key: "dtype"
    value {
      type: DT_FLOAT
    }
  }
  attr {
    key: "value"
    value {
      tensor {
        dtype: DT_FLOAT
        tensor_shape {
          dim {
            size: 1
          }
          dim {
            size: 25
          }
        }
        float_val: 0.0
      }
    }
  }
}
node {
  name: "layer_1_propagation/layer_1/weights_and_biases/gate_bias"
  op: "VariableV2"
  attr {
    key: "container"
    value {
      s: ""
    }
  }
  attr {
    key: "dtype"
    value {
      type: DT_FLOAT
    }
  }
  attr {
    key: "shape"
    value {
      shape {
        dim {
          size: 1
        }
        dim {
          size: 25
        }
      }
    }
  }
  attr {
    key: "shared_name"
    value {
      s: ""
    }
  }
}
node {
  name: "layer_1_propagation/layer_1/weights_and_biases/gate_bias/Assign"
  op: "Assign"
  input: "layer_1_propagation/layer_1/weights_and_biases/gate_bias"
  input: "layer_1_propagation/layer_1/weights_and_biases/zeros_2"
  attr {
    key: "T"
    value {
      type: DT_FLOAT
    }
  }
  attr {
    key: "_class"
    value {
      list {
        s: "loc:@layer_1_propagation/layer_1/weights_and_biases/gate_bias"
      }
    }
  }
  attr {
    key: "use_locking"
    value {
      b: true
    }
  }
  attr {
    key: "validate_shape"
    value {
      b: true
    }
  }
}
node {
  name: "layer_1_propagation/layer_1/weights_and_biases/gate_bias/read"
  op: "Identity"
  input: "layer_1_propagation/layer_1/weights_and_biases/gate_bias"
  attr {
    key: "T"
    value {
      type: DT_FLOAT
    }
  }
  attr {
    key: "_class"
    value {
      list {
        s: "loc:@layer_1_propagation/layer_1/weights_and_biases/gate_bias"
      }
    }
  }
}
node {
  name: "layer_1_propagation/layer_1/weights_and_biases/zeros_3"
  op: "Const"
  attr {
    key: "dtype"
    value {
      type: DT_FLOAT
    }
  }
  attr {
    key: "value"
    value {
      tensor {
        dtype: DT_FLOAT
        tensor_shape {
          dim {
            size: 1
          }
          dim {
            size: 25
          }
        }
        float_val: 0.0
      }
    }
  }
}
node {
  name: "layer_1_propagation/layer_1/weights_and_biases/input_bias"
  op: "VariableV2"
  attr {
    key: "container"
    value {
      s: ""
    }
  }
  attr {
    key: "dtype"
    value {
      type: DT_FLOAT
    }
  }
  attr {
    key: "shape"
    value {
      shape {
        dim {
          size: 1
        }
        dim {
          size: 25
        }
      }
    }
  }
  attr {
    key: "shared_name"
    value {
      s: ""
    }
  }
}
node {
  name: "layer_1_propagation/layer_1/weights_and_biases/input_bias/Assign"
  op: "Assign"
  input: "layer_1_propagation/layer_1/weights_and_biases/input_bias"
  input: "layer_1_propagation/layer_1/weights_and_biases/zeros_3"
  attr {
    key: "T"
    value {
      type: DT_FLOAT
    }
  }
  attr {
    key: "_class"
    value {
      list {
        s: "loc:@layer_1_propagation/layer_1/weights_and_biases/input_bias"
      }
    }
  }
  attr {
    key: "use_locking"
    value {
      b: true
    }
  }
  attr {
    key: "validate_shape"
    value {
      b: true
    }
  }
}
node {
  name: "layer_1_propagation/layer_1/weights_and_biases/input_bias/read"
  op: "Identity"
  input: "layer_1_propagation/layer_1/weights_and_biases/input_bias"
  attr {
    key: "T"
    value {
      type: DT_FLOAT
    }
  }
  attr {
    key: "_class"
    value {
      list {
        s: "loc:@layer_1_propagation/layer_1/weights_and_biases/input_bias"
      }
    }
  }
}
node {
  name: "layer_1_propagation/layer_1/weights_and_biases/zeros_4"
  op: "Const"
  attr {
    key: "dtype"
    value {
      type: DT_FLOAT
    }
  }
  attr {
    key: "value"
    value {
      tensor {
        dtype: DT_FLOAT
        tensor_shape {
          dim {
            size: 1
          }
          dim {
            size: 1
          }
        }
        float_val: 0.0
      }
    }
  }
}
node {
  name: "layer_1_propagation/layer_1/weights_and_biases/outwards_propagating_bias"
  op: "VariableV2"
  attr {
    key: "container"
    value {
      s: ""
    }
  }
  attr {
    key: "dtype"
    value {
      type: DT_FLOAT
    }
  }
  attr {
    key: "shape"
    value {
      shape {
        dim {
          size: 1
        }
        dim {
          size: 1
        }
      }
    }
  }
  attr {
    key: "shared_name"
    value {
      s: ""
    }
  }
}
node {
  name: "layer_1_propagation/layer_1/weights_and_biases/outwards_propagating_bias/Assign"
  op: "Assign"
  input: "layer_1_propagation/layer_1/weights_and_biases/outwards_propagating_bias"
  input: "layer_1_propagation/layer_1/weights_and_biases/zeros_4"
  attr {
    key: "T"
    value {
      type: DT_FLOAT
    }
  }
  attr {
    key: "_class"
    value {
      list {
        s: "loc:@layer_1_propagation/layer_1/weights_and_biases/outwards_propagating_bias"
      }
    }
  }
  attr {
    key: "use_locking"
    value {
      b: true
    }
  }
  attr {
    key: "validate_shape"
    value {
      b: true
    }
  }
}
node {
  name: "layer_1_propagation/layer_1/weights_and_biases/outwards_propagating_bias/read"
  op: "Identity"
  input: "layer_1_propagation/layer_1/weights_and_biases/outwards_propagating_bias"
  attr {
    key: "T"
    value {
      type: DT_FLOAT
    }
  }
  attr {
    key: "_class"
    value {
      list {
        s: "loc:@layer_1_propagation/layer_1/weights_and_biases/outwards_propagating_bias"
      }
    }
  }
}
node {
  name: "layer_1_propagation/layer_1/forward_roll/scan/TensorArray/size"
  op: "Const"
  attr {
    key: "dtype"
    value {
      type: DT_INT32
    }
  }
  attr {
    key: "value"
    value {
      tensor {
        dtype: DT_INT32
        tensor_shape {
        }
        int_val: 9
      }
    }
  }
}
node {
  name: "layer_1_propagation/layer_1/forward_roll/scan/TensorArray"
  op: "TensorArrayV3"
  input: "layer_1_propagation/layer_1/forward_roll/scan/TensorArray/size"
  attr {
    key: "clear_after_read"
    value {
      b: true
    }
  }
  attr {
    key: "dtype"
    value {
      type: DT_FLOAT
    }
  }
  attr {
    key: "dynamic_size"
    value {
      b: false
    }
  }
  attr {
    key: "element_shape"
    value {
      shape {
        unknown_rank: true
      }
    }
  }
  attr {
    key: "identical_element_shapes"
    value {
      b: true
    }
  }
  attr {
    key: "tensor_array_name"
    value {
      s: ""
    }
  }
}
node {
  name: "layer_1_propagation/layer_1/forward_roll/scan/TensorArrayUnstack/Shape"
  op: "Const"
  attr {
    key: "dtype"
    value {
      type: DT_INT32
    }
  }
  attr {
    key: "value"
    value {
      tensor {
        dtype: DT_INT32
        tensor_shape {
          dim {
            size: 3
          }
        }
        tensor_content: "\t\000\000\000\001\000\000\000\001\000\000\000"
      }
    }
  }
}
node {
  name: "layer_1_propagation/layer_1/forward_roll/scan/TensorArrayUnstack/strided_slice/stack"
  op: "Const"
  attr {
    key: "dtype"
    value {
      type: DT_INT32
    }
  }
  attr {
    key: "value"
    value {
      tensor {
        dtype: DT_INT32
        tensor_shape {
          dim {
            size: 1
          }
        }
        int_val: 0
      }
    }
  }
}
node {
  name: "layer_1_propagation/layer_1/forward_roll/scan/TensorArrayUnstack/strided_slice/stack_1"
  op: "Const"
  attr {
    key: "dtype"
    value {
      type: DT_INT32
    }
  }
  attr {
    key: "value"
    value {
      tensor {
        dtype: DT_INT32
        tensor_shape {
          dim {
            size: 1
          }
        }
        int_val: 1
      }
    }
  }
}
node {
  name: "layer_1_propagation/layer_1/forward_roll/scan/TensorArrayUnstack/strided_slice/stack_2"
  op: "Const"
  attr {
    key: "dtype"
    value {
      type: DT_INT32
    }
  }
  attr {
    key: "value"
    value {
      tensor {
        dtype: DT_INT32
        tensor_shape {
          dim {
            size: 1
          }
        }
        int_val: 1
      }
    }
  }
}
node {
  name: "layer_1_propagation/layer_1/forward_roll/scan/TensorArrayUnstack/strided_slice"
  op: "StridedSlice"
  input: "layer_1_propagation/layer_1/forward_roll/scan/TensorArrayUnstack/Shape"
  input: "layer_1_propagation/layer_1/forward_roll/scan/TensorArrayUnstack/strided_slice/stack"
  input: "layer_1_propagation/layer_1/forward_roll/scan/TensorArrayUnstack/strided_slice/stack_1"
  input: "layer_1_propagation/layer_1/forward_roll/scan/TensorArrayUnstack/strided_slice/stack_2"
  attr {
    key: "Index"
    value {
      type: DT_INT32
    }
  }
  attr {
    key: "T"
    value {
      type: DT_INT32
    }
  }
  attr {
    key: "begin_mask"
    value {
      i: 0
    }
  }
  attr {
    key: "ellipsis_mask"
    value {
      i: 0
    }
  }
  attr {
    key: "end_mask"
    value {
      i: 0
    }
  }
  attr {
    key: "new_axis_mask"
    value {
      i: 0
    }
  }
  attr {
    key: "shrink_axis_mask"
    value {
      i: 1
    }
  }
}
node {
  name: "layer_1_propagation/layer_1/forward_roll/scan/TensorArrayUnstack/range/start"
  op: "Const"
  attr {
    key: "dtype"
    value {
      type: DT_INT32
    }
  }
  attr {
    key: "value"
    value {
      tensor {
        dtype: DT_INT32
        tensor_shape {
        }
        int_val: 0
      }
    }
  }
}
node {
  name: "layer_1_propagation/layer_1/forward_roll/scan/TensorArrayUnstack/range/delta"
  op: "Const"
  attr {
    key: "dtype"
    value {
      type: DT_INT32
    }
  }
  attr {
    key: "value"
    value {
      tensor {
        dtype: DT_INT32
        tensor_shape {
        }
        int_val: 1
      }
    }
  }
}
node {
  name: "layer_1_propagation/layer_1/forward_roll/scan/TensorArrayUnstack/range"
  op: "Range"
  input: "layer_1_propagation/layer_1/forward_roll/scan/TensorArrayUnstack/range/start"
  input: "layer_1_propagation/layer_1/forward_roll/scan/TensorArrayUnstack/strided_slice"
  input: "layer_1_propagation/layer_1/forward_roll/scan/TensorArrayUnstack/range/delta"
  attr {
    key: "Tidx"
    value {
      type: DT_INT32
    }
  }
}
node {
  name: "layer_1_propagation/layer_1/forward_roll/scan/TensorArrayUnstack/TensorArrayScatter/TensorArrayScatterV3"
  op: "TensorArrayScatterV3"
  input: "layer_1_propagation/layer_1/forward_roll/scan/TensorArray"
  input: "layer_1_propagation/layer_1/forward_roll/scan/TensorArrayUnstack/range"
  input: "placeholders/input_data"
  input: "layer_1_propagation/layer_1/forward_roll/scan/TensorArray:1"
  attr {
    key: "T"
    value {
      type: DT_FLOAT
    }
  }
  attr {
    key: "_class"
    value {
      list {
        s: "loc:@placeholders/input_data"
      }
    }
  }
}
node {
  name: "layer_1_propagation/layer_1/forward_roll/scan/Const"
  op: "Const"
  attr {
    key: "dtype"
    value {
      type: DT_INT32
    }
  }
  attr {
    key: "value"
    value {
      tensor {
        dtype: DT_INT32
        tensor_shape {
        }
        int_val: 0
      }
    }
  }
}
node {
  name: "layer_1_propagation/layer_1/forward_roll/scan/TensorArray_1/size"
  op: "Const"
  attr {
    key: "dtype"
    value {
      type: DT_INT32
    }
  }
  attr {
    key: "value"
    value {
      tensor {
        dtype: DT_INT32
        tensor_shape {
        }
        int_val: 9
      }
    }
  }
}
node {
  name: "layer_1_propagation/layer_1/forward_roll/scan/TensorArray_1"
  op: "TensorArrayV3"
  input: "layer_1_propagation/layer_1/forward_roll/scan/TensorArray_1/size"
  attr {
    key: "clear_after_read"
    value {
      b: true
    }
  }
  attr {
    key: "dtype"
    value {
      type: DT_FLOAT
    }
  }
  attr {
    key: "dynamic_size"
    value {
      b: false
    }
  }
  attr {
    key: "element_shape"
    value {
      shape {
        dim {
          size: 2
        }
        dim {
          size: 1
        }
        dim {
          size: 25
        }
      }
    }
  }
  attr {
    key: "identical_element_shapes"
    value {
      b: true
    }
  }
  attr {
    key: "tensor_array_name"
    value {
      s: ""
    }
  }
}
node {
  name: "layer_1_propagation/layer_1/forward_roll/scan/while/maximum_iterations"
  op: "Const"
  attr {
    key: "dtype"
    value {
      type: DT_INT32
    }
  }
  attr {
    key: "value"
    value {
      tensor {
        dtype: DT_INT32
        tensor_shape {
        }
        int_val: 9
      }
    }
  }
}
node {
  name: "layer_1_propagation/layer_1/forward_roll/scan/while/iteration_counter"
  op: "Const"
  attr {
    key: "dtype"
    value {
      type: DT_INT32
    }
  }
  attr {
    key: "value"
    value {
      tensor {
        dtype: DT_INT32
        tensor_shape {
        }
        int_val: 0
      }
    }
  }
}
node {
  name: "layer_1_propagation/layer_1/forward_roll/scan/while/Enter"
  op: "Enter"
  input: "layer_1_propagation/layer_1/forward_roll/scan/while/iteration_counter"
  attr {
    key: "T"
    value {
      type: DT_INT32
    }
  }
  attr {
    key: "frame_name"
    value {
      s: "layer_1_propagation/layer_1/forward_roll/scan/while/while_context"
    }
  }
  attr {
    key: "is_constant"
    value {
      b: false
    }
  }
  attr {
    key: "parallel_iterations"
    value {
      i: 10
    }
  }
}
node {
  name: "layer_1_propagation/layer_1/forward_roll/scan/while/Enter_1"
  op: "Enter"
  input: "layer_1_propagation/layer_1/forward_roll/scan/Const"
  attr {
    key: "T"
    value {
      type: DT_INT32
    }
  }
  attr {
    key: "frame_name"
    value {
      s: "layer_1_propagation/layer_1/forward_roll/scan/while/while_context"
    }
  }
  attr {
    key: "is_constant"
    value {
      b: false
    }
  }
  attr {
    key: "parallel_iterations"
    value {
      i: 10
    }
  }
}
node {
  name: "layer_1_propagation/layer_1/forward_roll/scan/while/Enter_2"
  op: "Enter"
  input: "placeholders/initial_states_1"
  attr {
    key: "T"
    value {
      type: DT_FLOAT
    }
  }
  attr {
    key: "frame_name"
    value {
      s: "layer_1_propagation/layer_1/forward_roll/scan/while/while_context"
    }
  }
  attr {
    key: "is_constant"
    value {
      b: false
    }
  }
  attr {
    key: "parallel_iterations"
    value {
      i: 10
    }
  }
}
node {
  name: "layer_1_propagation/layer_1/forward_roll/scan/while/Enter_3"
  op: "Enter"
  input: "layer_1_propagation/layer_1/forward_roll/scan/TensorArray_1:1"
  attr {
    key: "T"
    value {
      type: DT_FLOAT
    }
  }
  attr {
    key: "frame_name"
    value {
      s: "layer_1_propagation/layer_1/forward_roll/scan/while/while_context"
    }
  }
  attr {
    key: "is_constant"
    value {
      b: false
    }
  }
  attr {
    key: "parallel_iterations"
    value {
      i: 10
    }
  }
}
node {
  name: "layer_1_propagation/layer_1/forward_roll/scan/while/Merge"
  op: "Merge"
  input: "layer_1_propagation/layer_1/forward_roll/scan/while/Enter"
  input: "layer_1_propagation/layer_1/forward_roll/scan/while/NextIteration"
  attr {
    key: "N"
    value {
      i: 2
    }
  }
  attr {
    key: "T"
    value {
      type: DT_INT32
    }
  }
}
node {
  name: "layer_1_propagation/layer_1/forward_roll/scan/while/Merge_1"
  op: "Merge"
  input: "layer_1_propagation/layer_1/forward_roll/scan/while/Enter_1"
  input: "layer_1_propagation/layer_1/forward_roll/scan/while/NextIteration_1"
  attr {
    key: "N"
    value {
      i: 2
    }
  }
  attr {
    key: "T"
    value {
      type: DT_INT32
    }
  }
}
node {
  name: "layer_1_propagation/layer_1/forward_roll/scan/while/Merge_2"
  op: "Merge"
  input: "layer_1_propagation/layer_1/forward_roll/scan/while/Enter_2"
  input: "layer_1_propagation/layer_1/forward_roll/scan/while/NextIteration_2"
  attr {
    key: "N"
    value {
      i: 2
    }
  }
  attr {
    key: "T"
    value {
      type: DT_FLOAT
    }
  }
}
node {
  name: "layer_1_propagation/layer_1/forward_roll/scan/while/Merge_3"
  op: "Merge"
  input: "layer_1_propagation/layer_1/forward_roll/scan/while/Enter_3"
  input: "layer_1_propagation/layer_1/forward_roll/scan/while/NextIteration_3"
  attr {
    key: "N"
    value {
      i: 2
    }
  }
  attr {
    key: "T"
    value {
      type: DT_FLOAT
    }
  }
}
node {
  name: "layer_1_propagation/layer_1/forward_roll/scan/while/Less"
  op: "Less"
  input: "layer_1_propagation/layer_1/forward_roll/scan/while/Merge"
  input: "layer_1_propagation/layer_1/forward_roll/scan/while/Less/Enter"
  attr {
    key: "T"
    value {
      type: DT_INT32
    }
  }
}
node {
  name: "layer_1_propagation/layer_1/forward_roll/scan/while/Less/Enter"
  op: "Enter"
  input: "layer_1_propagation/layer_1/forward_roll/scan/while/maximum_iterations"
  attr {
    key: "T"
    value {
      type: DT_INT32
    }
  }
  attr {
    key: "frame_name"
    value {
      s: "layer_1_propagation/layer_1/forward_roll/scan/while/while_context"
    }
  }
  attr {
    key: "is_constant"
    value {
      b: true
    }
  }
  attr {
    key: "parallel_iterations"
    value {
      i: 10
    }
  }
}
node {
  name: "layer_1_propagation/layer_1/forward_roll/scan/while/Less_1/y"
  op: "Const"
  input: "^layer_1_propagation/layer_1/forward_roll/scan/while/Merge"
  attr {
    key: "dtype"
    value {
      type: DT_INT32
    }
  }
  attr {
    key: "value"
    value {
      tensor {
        dtype: DT_INT32
        tensor_shape {
        }
        int_val: 9
      }
    }
  }
}
node {
  name: "layer_1_propagation/layer_1/forward_roll/scan/while/Less_1"
  op: "Less"
  input: "layer_1_propagation/layer_1/forward_roll/scan/while/Merge_1"
  input: "layer_1_propagation/layer_1/forward_roll/scan/while/Less_1/y"
  attr {
    key: "T"
    value {
      type: DT_INT32
    }
  }
}
node {
  name: "layer_1_propagation/layer_1/forward_roll/scan/while/LogicalAnd"
  op: "LogicalAnd"
  input: "layer_1_propagation/layer_1/forward_roll/scan/while/Less"
  input: "layer_1_propagation/layer_1/forward_roll/scan/while/Less_1"
}
node {
  name: "layer_1_propagation/layer_1/forward_roll/scan/while/LoopCond"
  op: "LoopCond"
  input: "layer_1_propagation/layer_1/forward_roll/scan/while/LogicalAnd"
}
node {
  name: "layer_1_propagation/layer_1/forward_roll/scan/while/Switch"
  op: "Switch"
  input: "layer_1_propagation/layer_1/forward_roll/scan/while/Merge"
  input: "layer_1_propagation/layer_1/forward_roll/scan/while/LoopCond"
  attr {
    key: "T"
    value {
      type: DT_INT32
    }
  }
  attr {
    key: "_class"
    value {
      list {
        s: "loc:@layer_1_propagation/layer_1/forward_roll/scan/while/Merge"
      }
    }
  }
}
node {
  name: "layer_1_propagation/layer_1/forward_roll/scan/while/Switch_1"
  op: "Switch"
  input: "layer_1_propagation/layer_1/forward_roll/scan/while/Merge_1"
  input: "layer_1_propagation/layer_1/forward_roll/scan/while/LoopCond"
  attr {
    key: "T"
    value {
      type: DT_INT32
    }
  }
  attr {
    key: "_class"
    value {
      list {
        s: "loc:@layer_1_propagation/layer_1/forward_roll/scan/while/Merge_1"
      }
    }
  }
}
node {
  name: "layer_1_propagation/layer_1/forward_roll/scan/while/Switch_2"
  op: "Switch"
  input: "layer_1_propagation/layer_1/forward_roll/scan/while/Merge_2"
  input: "layer_1_propagation/layer_1/forward_roll/scan/while/LoopCond"
  attr {
    key: "T"
    value {
      type: DT_FLOAT
    }
  }
  attr {
    key: "_class"
    value {
      list {
        s: "loc:@layer_1_propagation/layer_1/forward_roll/scan/while/Merge_2"
      }
    }
  }
}
node {
  name: "layer_1_propagation/layer_1/forward_roll/scan/while/Switch_3"
  op: "Switch"
  input: "layer_1_propagation/layer_1/forward_roll/scan/while/Merge_3"
  input: "layer_1_propagation/layer_1/forward_roll/scan/while/LoopCond"
  attr {
    key: "T"
    value {
      type: DT_FLOAT
    }
  }
  attr {
    key: "_class"
    value {
      list {
        s: "loc:@layer_1_propagation/layer_1/forward_roll/scan/while/Merge_3"
      }
    }
  }
}
node {
  name: "layer_1_propagation/layer_1/forward_roll/scan/while/Identity"
  op: "Identity"
  input: "layer_1_propagation/layer_1/forward_roll/scan/while/Switch:1"
  attr {
    key: "T"
    value {
      type: DT_INT32
    }
  }
}
node {
  name: "layer_1_propagation/layer_1/forward_roll/scan/while/Identity_1"
  op: "Identity"
  input: "layer_1_propagation/layer_1/forward_roll/scan/while/Switch_1:1"
  attr {
    key: "T"
    value {
      type: DT_INT32
    }
  }
}
node {
  name: "layer_1_propagation/layer_1/forward_roll/scan/while/Identity_2"
  op: "Identity"
  input: "layer_1_propagation/layer_1/forward_roll/scan/while/Switch_2:1"
  attr {
    key: "T"
    value {
      type: DT_FLOAT
    }
  }
}
node {
  name: "layer_1_propagation/layer_1/forward_roll/scan/while/Identity_3"
  op: "Identity"
  input: "layer_1_propagation/layer_1/forward_roll/scan/while/Switch_3:1"
  attr {
    key: "T"
    value {
      type: DT_FLOAT
    }
  }
}
node {
  name: "layer_1_propagation/layer_1/forward_roll/scan/while/add/y"
  op: "Const"
  input: "^layer_1_propagation/layer_1/forward_roll/scan/while/Identity"
  attr {
    key: "dtype"
    value {
      type: DT_INT32
    }
  }
  attr {
    key: "value"
    value {
      tensor {
        dtype: DT_INT32
        tensor_shape {
        }
        int_val: 1
      }
    }
  }
}
node {
  name: "layer_1_propagation/layer_1/forward_roll/scan/while/add"
  op: "Add"
  input: "layer_1_propagation/layer_1/forward_roll/scan/while/Identity"
  input: "layer_1_propagation/layer_1/forward_roll/scan/while/add/y"
  attr {
    key: "T"
    value {
      type: DT_INT32
    }
  }
}
node {
  name: "layer_1_propagation/layer_1/forward_roll/scan/while/TensorArrayReadV3"
  op: "TensorArrayReadV3"
  input: "layer_1_propagation/layer_1/forward_roll/scan/while/TensorArrayReadV3/Enter"
  input: "layer_1_propagation/layer_1/forward_roll/scan/while/Identity_1"
  input: "layer_1_propagation/layer_1/forward_roll/scan/while/TensorArrayReadV3/Enter_1"
  attr {
    key: "dtype"
    value {
      type: DT_FLOAT
    }
  }
}
node {
  name: "layer_1_propagation/layer_1/forward_roll/scan/while/TensorArrayReadV3/Enter"
  op: "Enter"
  input: "layer_1_propagation/layer_1/forward_roll/scan/TensorArray"
  attr {
    key: "T"
    value {
      type: DT_RESOURCE
    }
  }
  attr {
    key: "frame_name"
    value {
      s: "layer_1_propagation/layer_1/forward_roll/scan/while/while_context"
    }
  }
  attr {
    key: "is_constant"
    value {
      b: true
    }
  }
  attr {
    key: "parallel_iterations"
    value {
      i: 10
    }
  }
}
node {
  name: "layer_1_propagation/layer_1/forward_roll/scan/while/TensorArrayReadV3/Enter_1"
  op: "Enter"
  input: "layer_1_propagation/layer_1/forward_roll/scan/TensorArrayUnstack/TensorArrayScatter/TensorArrayScatterV3"
  attr {
    key: "T"
    value {
      type: DT_FLOAT
    }
  }
  attr {
    key: "frame_name"
    value {
      s: "layer_1_propagation/layer_1/forward_roll/scan/while/while_context"
    }
  }
  attr {
    key: "is_constant"
    value {
      b: true
    }
  }
  attr {
    key: "parallel_iterations"
    value {
      i: 10
    }
  }
}
node {
  name: "layer_1_propagation/layer_1/forward_roll/scan/while/to_gates/unstack"
  op: "Unpack"
  input: "layer_1_propagation/layer_1/forward_roll/scan/while/Identity_2"
  attr {
    key: "T"
    value {
      type: DT_FLOAT
    }
  }
  attr {
    key: "axis"
    value {
      i: 0
    }
  }
  attr {
    key: "num"
    value {
      i: 2
    }
  }
}
node {
  name: "layer_1_propagation/layer_1/forward_roll/scan/while/to_gates/input_concat/axis"
  op: "Const"
  input: "^layer_1_propagation/layer_1/forward_roll/scan/while/Identity"
  attr {
    key: "dtype"
    value {
      type: DT_INT32
    }
  }
  attr {
    key: "value"
    value {
      tensor {
        dtype: DT_INT32
        tensor_shape {
        }
        int_val: 1
      }
    }
  }
}
node {
  name: "layer_1_propagation/layer_1/forward_roll/scan/while/to_gates/input_concat"
  op: "ConcatV2"
  input: "layer_1_propagation/layer_1/forward_roll/scan/while/TensorArrayReadV3"
  input: "layer_1_propagation/layer_1/forward_roll/scan/while/to_gates/unstack:1"
  input: "layer_1_propagation/layer_1/forward_roll/scan/while/to_gates/input_concat/axis"
  attr {
    key: "N"
    value {
      i: 2
    }
  }
  attr {
    key: "T"
    value {
      type: DT_FLOAT
    }
  }
  attr {
    key: "Tidx"
    value {
      type: DT_INT32
    }
  }
}
node {
  name: "layer_1_propagation/layer_1/forward_roll/scan/while/to_gates/f_w_m"
  op: "MatMul"
  input: "layer_1_propagation/layer_1/forward_roll/scan/while/to_gates/input_concat"
  input: "layer_1_propagation/layer_1/forward_roll/scan/while/to_gates/f_w_m/Enter"
  attr {
    key: "T"
    value {
      type: DT_FLOAT
    }
  }
  attr {
    key: "transpose_a"
    value {
      b: false
    }
  }
  attr {
    key: "transpose_b"
    value {
      b: false
    }
  }
}
node {
  name: "layer_1_propagation/layer_1/forward_roll/scan/while/to_gates/f_w_m/Enter"
  op: "Enter"
  input: "layer_1_propagation/layer_1/weights_and_biases/forget_weight/read"
  attr {
    key: "T"
    value {
      type: DT_FLOAT
    }
  }
  attr {
    key: "frame_name"
    value {
      s: "layer_1_propagation/layer_1/forward_roll/scan/while/while_context"
    }
  }
  attr {
    key: "is_constant"
    value {
      b: true
    }
  }
  attr {
    key: "parallel_iterations"
    value {
      i: 10
    }
  }
}
node {
  name: "layer_1_propagation/layer_1/forward_roll/scan/while/to_gates/f_b_a"
  op: "Add"
  input: "layer_1_propagation/layer_1/forward_roll/scan/while/to_gates/f_w_m"
  input: "layer_1_propagation/layer_1/forward_roll/scan/while/to_gates/f_b_a/Enter"
  attr {
    key: "T"
    value {
      type: DT_FLOAT
    }
  }
}
node {
  name: "layer_1_propagation/layer_1/forward_roll/scan/while/to_gates/f_b_a/Enter"
  op: "Enter"
  input: "layer_1_propagation/layer_1/weights_and_biases/forget_bias/read"
  attr {
    key: "T"
    value {
      type: DT_FLOAT
    }
  }
  attr {
    key: "frame_name"
    value {
      s: "layer_1_propagation/layer_1/forward_roll/scan/while/while_context"
    }
  }
  attr {
    key: "is_constant"
    value {
      b: true
    }
  }
  attr {
    key: "parallel_iterations"
    value {
      i: 10
    }
  }
}
node {
  name: "layer_1_propagation/layer_1/forward_roll/scan/while/to_gates/o_w_m"
  op: "MatMul"
  input: "layer_1_propagation/layer_1/forward_roll/scan/while/to_gates/input_concat"
  input: "layer_1_propagation/layer_1/forward_roll/scan/while/to_gates/o_w_m/Enter"
  attr {
    key: "T"
    value {
      type: DT_FLOAT
    }
  }
  attr {
    key: "transpose_a"
    value {
      b: false
    }
  }
  attr {
    key: "transpose_b"
    value {
      b: false
    }
  }
}
node {
  name: "layer_1_propagation/layer_1/forward_roll/scan/while/to_gates/o_w_m/Enter"
  op: "Enter"
  input: "layer_1_propagation/layer_1/weights_and_biases/output_weight/read"
  attr {
    key: "T"
    value {
      type: DT_FLOAT
    }
  }
  attr {
    key: "frame_name"
    value {
      s: "layer_1_propagation/layer_1/forward_roll/scan/while/while_context"
    }
  }
  attr {
    key: "is_constant"
    value {
      b: true
    }
  }
  attr {
    key: "parallel_iterations"
    value {
      i: 10
    }
  }
}
node {
  name: "layer_1_propagation/layer_1/forward_roll/scan/while/to_gates/o_b_a"
  op: "Add"
  input: "layer_1_propagation/layer_1/forward_roll/scan/while/to_gates/o_w_m"
  input: "layer_1_propagation/layer_1/forward_roll/scan/while/to_gates/o_b_a/Enter"
  attr {
    key: "T"
    value {
      type: DT_FLOAT
    }
  }
}
node {
  name: "layer_1_propagation/layer_1/forward_roll/scan/while/to_gates/o_b_a/Enter"
  op: "Enter"
  input: "layer_1_propagation/layer_1/weights_and_biases/output_bias/read"
  attr {
    key: "T"
    value {
      type: DT_FLOAT
    }
  }
  attr {
    key: "frame_name"
    value {
      s: "layer_1_propagation/layer_1/forward_roll/scan/while/while_context"
    }
  }
  attr {
    key: "is_constant"
    value {
      b: true
    }
  }
  attr {
    key: "parallel_iterations"
    value {
      i: 10
    }
  }
}
node {
  name: "layer_1_propagation/layer_1/forward_roll/scan/while/to_gates/g_w_m"
  op: "MatMul"
  input: "layer_1_propagation/layer_1/forward_roll/scan/while/to_gates/input_concat"
  input: "layer_1_propagation/layer_1/forward_roll/scan/while/to_gates/g_w_m/Enter"
  attr {
    key: "T"
    value {
      type: DT_FLOAT
    }
  }
  attr {
    key: "transpose_a"
    value {
      b: false
    }
  }
  attr {
    key: "transpose_b"
    value {
      b: false
    }
  }
}
node {
  name: "layer_1_propagation/layer_1/forward_roll/scan/while/to_gates/g_w_m/Enter"
  op: "Enter"
  input: "layer_1_propagation/layer_1/weights_and_biases/gate_weight/read"
  attr {
    key: "T"
    value {
      type: DT_FLOAT
    }
  }
  attr {
    key: "frame_name"
    value {
      s: "layer_1_propagation/layer_1/forward_roll/scan/while/while_context"
    }
  }
  attr {
    key: "is_constant"
    value {
      b: true
    }
  }
  attr {
    key: "parallel_iterations"
    value {
      i: 10
    }
  }
}
node {
  name: "layer_1_propagation/layer_1/forward_roll/scan/while/to_gates/g_b_a"
  op: "Add"
  input: "layer_1_propagation/layer_1/forward_roll/scan/while/to_gates/g_w_m"
  input: "layer_1_propagation/layer_1/forward_roll/scan/while/to_gates/g_b_a/Enter"
  attr {
    key: "T"
    value {
      type: DT_FLOAT
    }
  }
}
node {
  name: "layer_1_propagation/layer_1/forward_roll/scan/while/to_gates/g_b_a/Enter"
  op: "Enter"
  input: "layer_1_propagation/layer_1/weights_and_biases/gate_bias/read"
  attr {
    key: "T"
    value {
      type: DT_FLOAT
    }
  }
  attr {
    key: "frame_name"
    value {
      s: "layer_1_propagation/layer_1/forward_roll/scan/while/while_context"
    }
  }
  attr {
    key: "is_constant"
    value {
      b: true
    }
  }
  attr {
    key: "parallel_iterations"
    value {
      i: 10
    }
  }
}
node {
  name: "layer_1_propagation/layer_1/forward_roll/scan/while/to_gates/i_w_m"
  op: "MatMul"
  input: "layer_1_propagation/layer_1/forward_roll/scan/while/to_gates/input_concat"
  input: "layer_1_propagation/layer_1/forward_roll/scan/while/to_gates/i_w_m/Enter"
  attr {
    key: "T"
    value {
      type: DT_FLOAT
    }
  }
  attr {
    key: "transpose_a"
    value {
      b: false
    }
  }
  attr {
    key: "transpose_b"
    value {
      b: false
    }
  }
}
node {
  name: "layer_1_propagation/layer_1/forward_roll/scan/while/to_gates/i_w_m/Enter"
  op: "Enter"
  input: "layer_1_propagation/layer_1/weights_and_biases/input_weight/read"
  attr {
    key: "T"
    value {
      type: DT_FLOAT
    }
  }
  attr {
    key: "frame_name"
    value {
      s: "layer_1_propagation/layer_1/forward_roll/scan/while/while_context"
    }
  }
  attr {
    key: "is_constant"
    value {
      b: true
    }
  }
  attr {
    key: "parallel_iterations"
    value {
      i: 10
    }
  }
}
node {
  name: "layer_1_propagation/layer_1/forward_roll/scan/while/to_gates/i_b_a"
  op: "Add"
  input: "layer_1_propagation/layer_1/forward_roll/scan/while/to_gates/i_w_m"
  input: "layer_1_propagation/layer_1/forward_roll/scan/while/to_gates/i_b_a/Enter"
  attr {
    key: "T"
    value {
      type: DT_FLOAT
    }
  }
}
node {
  name: "layer_1_propagation/layer_1/forward_roll/scan/while/to_gates/i_b_a/Enter"
  op: "Enter"
  input: "layer_1_propagation/layer_1/weights_and_biases/input_bias/read"
  attr {
    key: "T"
    value {
      type: DT_FLOAT
    }
  }
  attr {
    key: "frame_name"
    value {
      s: "layer_1_propagation/layer_1/forward_roll/scan/while/while_context"
    }
  }
  attr {
    key: "is_constant"
    value {
      b: true
    }
  }
  attr {
    key: "parallel_iterations"
    value {
      i: 10
    }
  }
}
node {
  name: "layer_1_propagation/layer_1/forward_roll/scan/while/non-linearity/sigmoid_forget"
  op: "Sigmoid"
  input: "layer_1_propagation/layer_1/forward_roll/scan/while/to_gates/f_b_a"
  attr {
    key: "T"
    value {
      type: DT_FLOAT
    }
  }
}
node {
  name: "layer_1_propagation/layer_1/forward_roll/scan/while/non-linearity/sigmoid_output"
  op: "Sigmoid"
  input: "layer_1_propagation/layer_1/forward_roll/scan/while/to_gates/o_b_a"
  attr {
    key: "T"
    value {
      type: DT_FLOAT
    }
  }
}
node {
  name: "layer_1_propagation/layer_1/forward_roll/scan/while/non-linearity/sigmoid_input"
  op: "Sigmoid"
  input: "layer_1_propagation/layer_1/forward_roll/scan/while/to_gates/i_b_a"
  attr {
    key: "T"
    value {
      type: DT_FLOAT
    }
  }
}
node {
  name: "layer_1_propagation/layer_1/forward_roll/scan/while/non-linearity/tanh_gate"
  op: "Tanh"
  input: "layer_1_propagation/layer_1/forward_roll/scan/while/to_gates/g_b_a"
  attr {
    key: "T"
    value {
      type: DT_FLOAT
    }
  }
}
node {
  name: "layer_1_propagation/layer_1/forward_roll/scan/while/forget_gate/forget_gating"
  op: "Mul"
  input: "layer_1_propagation/layer_1/forward_roll/scan/while/non-linearity/sigmoid_forget"
  input: "layer_1_propagation/layer_1/forward_roll/scan/while/to_gates/unstack"
  attr {
    key: "T"
    value {
      type: DT_FLOAT
    }
  }
}
node {
  name: "layer_1_propagation/layer_1/forward_roll/scan/while/suggestion_node/input_determiner"
  op: "Mul"
  input: "layer_1_propagation/layer_1/forward_roll/scan/while/non-linearity/sigmoid_input"
  input: "layer_1_propagation/layer_1/forward_roll/scan/while/non-linearity/tanh_gate"
  attr {
    key: "T"
    value {
      type: DT_FLOAT
    }
  }
}
node {
  name: "layer_1_propagation/layer_1/forward_roll/scan/while/suggestion_node/input_and_gate_gating"
  op: "Add"
  input: "layer_1_propagation/layer_1/forward_roll/scan/while/suggestion_node/input_determiner"
  input: "layer_1_propagation/layer_1/forward_roll/scan/while/forget_gate/forget_gating"
  attr {
    key: "T"
    value {
      type: DT_FLOAT
    }
  }
}
node {
  name: "layer_1_propagation/layer_1/forward_roll/scan/while/output_gate/output_presquashing"
  op: "Tanh"
  input: "layer_1_propagation/layer_1/forward_roll/scan/while/suggestion_node/input_and_gate_gating"
  attr {
    key: "T"
    value {
      type: DT_FLOAT
    }
  }
}
node {
  name: "layer_1_propagation/layer_1/forward_roll/scan/while/output_gate/next_hidden"
  op: "Mul"
  input: "layer_1_propagation/layer_1/forward_roll/scan/while/non-linearity/sigmoid_output"
  input: "layer_1_propagation/layer_1/forward_roll/scan/while/output_gate/output_presquashing"
  attr {
    key: "T"
    value {
      type: DT_FLOAT
    }
  }
}
node {
  name: "layer_1_propagation/layer_1/forward_roll/scan/while/output_gate/stack"
  op: "Pack"
  input: "layer_1_propagation/layer_1/forward_roll/scan/while/output_gate/output_presquashing"
  input: "layer_1_propagation/layer_1/forward_roll/scan/while/output_gate/next_hidden"
  attr {
    key: "N"
    value {
      i: 2
    }
  }
  attr {
    key: "T"
    value {
      type: DT_FLOAT
    }
  }
  attr {
    key: "axis"
    value {
      i: 0
    }
  }
}
node {
  name: "layer_1_propagation/layer_1/forward_roll/scan/while/TensorArrayWrite/TensorArrayWriteV3"
  op: "TensorArrayWriteV3"
  input: "layer_1_propagation/layer_1/forward_roll/scan/while/TensorArrayWrite/TensorArrayWriteV3/Enter"
  input: "layer_1_propagation/layer_1/forward_roll/scan/while/Identity_1"
  input: "layer_1_propagation/layer_1/forward_roll/scan/while/output_gate/stack"
  input: "layer_1_propagation/layer_1/forward_roll/scan/while/Identity_3"
  attr {
    key: "T"
    value {
      type: DT_FLOAT
    }
  }
  attr {
    key: "_class"
    value {
      list {
        s: "loc:@layer_1_propagation/layer_1/forward_roll/scan/while/output_gate/stack"
      }
    }
  }
}
node {
  name: "layer_1_propagation/layer_1/forward_roll/scan/while/TensorArrayWrite/TensorArrayWriteV3/Enter"
  op: "Enter"
  input: "layer_1_propagation/layer_1/forward_roll/scan/TensorArray_1"
  attr {
    key: "T"
    value {
      type: DT_RESOURCE
    }
  }
  attr {
    key: "_class"
    value {
      list {
        s: "loc:@layer_1_propagation/layer_1/forward_roll/scan/while/output_gate/stack"
      }
    }
  }
  attr {
    key: "frame_name"
    value {
      s: "layer_1_propagation/layer_1/forward_roll/scan/while/while_context"
    }
  }
  attr {
    key: "is_constant"
    value {
      b: true
    }
  }
  attr {
    key: "parallel_iterations"
    value {
      i: 10
    }
  }
}
node {
  name: "layer_1_propagation/layer_1/forward_roll/scan/while/add_1/y"
  op: "Const"
  input: "^layer_1_propagation/layer_1/forward_roll/scan/while/Identity"
  attr {
    key: "dtype"
    value {
      type: DT_INT32
    }
  }
  attr {
    key: "value"
    value {
      tensor {
        dtype: DT_INT32
        tensor_shape {
        }
        int_val: 1
      }
    }
  }
}
node {
  name: "layer_1_propagation/layer_1/forward_roll/scan/while/add_1"
  op: "Add"
  input: "layer_1_propagation/layer_1/forward_roll/scan/while/Identity_1"
  input: "layer_1_propagation/layer_1/forward_roll/scan/while/add_1/y"
  attr {
    key: "T"
    value {
      type: DT_INT32
    }
  }
}
node {
  name: "layer_1_propagation/layer_1/forward_roll/scan/while/NextIteration"
  op: "NextIteration"
  input: "layer_1_propagation/layer_1/forward_roll/scan/while/add"
  attr {
    key: "T"
    value {
      type: DT_INT32
    }
  }
}
node {
  name: "layer_1_propagation/layer_1/forward_roll/scan/while/NextIteration_1"
  op: "NextIteration"
  input: "layer_1_propagation/layer_1/forward_roll/scan/while/add_1"
  attr {
    key: "T"
    value {
      type: DT_INT32
    }
  }
}
node {
  name: "layer_1_propagation/layer_1/forward_roll/scan/while/NextIteration_2"
  op: "NextIteration"
  input: "layer_1_propagation/layer_1/forward_roll/scan/while/output_gate/stack"
  attr {
    key: "T"
    value {
      type: DT_FLOAT
    }
  }
}
node {
  name: "layer_1_propagation/layer_1/forward_roll/scan/while/NextIteration_3"
  op: "NextIteration"
  input: "layer_1_propagation/layer_1/forward_roll/scan/while/TensorArrayWrite/TensorArrayWriteV3"
  attr {
    key: "T"
    value {
      type: DT_FLOAT
    }
  }
}
node {
  name: "layer_1_propagation/layer_1/forward_roll/scan/while/Exit"
  op: "Exit"
  input: "layer_1_propagation/layer_1/forward_roll/scan/while/Switch"
  attr {
    key: "T"
    value {
      type: DT_INT32
    }
  }
}
node {
  name: "layer_1_propagation/layer_1/forward_roll/scan/while/Exit_1"
  op: "Exit"
  input: "layer_1_propagation/layer_1/forward_roll/scan/while/Switch_1"
  attr {
    key: "T"
    value {
      type: DT_INT32
    }
  }
}
node {
  name: "layer_1_propagation/layer_1/forward_roll/scan/while/Exit_2"
  op: "Exit"
  input: "layer_1_propagation/layer_1/forward_roll/scan/while/Switch_2"
  attr {
    key: "T"
    value {
      type: DT_FLOAT
    }
  }
}
node {
  name: "layer_1_propagation/layer_1/forward_roll/scan/while/Exit_3"
  op: "Exit"
  input: "layer_1_propagation/layer_1/forward_roll/scan/while/Switch_3"
  attr {
    key: "T"
    value {
      type: DT_FLOAT
    }
  }
}
node {
  name: "layer_1_propagation/layer_1/forward_roll/scan/TensorArrayStack/TensorArraySizeV3"
  op: "TensorArraySizeV3"
  input: "layer_1_propagation/layer_1/forward_roll/scan/TensorArray_1"
  input: "layer_1_propagation/layer_1/forward_roll/scan/while/Exit_3"
  attr {
    key: "_class"
    value {
      list {
        s: "loc:@layer_1_propagation/layer_1/forward_roll/scan/TensorArray_1"
      }
    }
  }
}
node {
  name: "layer_1_propagation/layer_1/forward_roll/scan/TensorArrayStack/range/start"
  op: "Const"
  attr {
    key: "_class"
    value {
      list {
        s: "loc:@layer_1_propagation/layer_1/forward_roll/scan/TensorArray_1"
      }
    }
  }
  attr {
    key: "dtype"
    value {
      type: DT_INT32
    }
  }
  attr {
    key: "value"
    value {
      tensor {
        dtype: DT_INT32
        tensor_shape {
        }
        int_val: 0
      }
    }
  }
}
node {
  name: "layer_1_propagation/layer_1/forward_roll/scan/TensorArrayStack/range/delta"
  op: "Const"
  attr {
    key: "_class"
    value {
      list {
        s: "loc:@layer_1_propagation/layer_1/forward_roll/scan/TensorArray_1"
      }
    }
  }
  attr {
    key: "dtype"
    value {
      type: DT_INT32
    }
  }
  attr {
    key: "value"
    value {
      tensor {
        dtype: DT_INT32
        tensor_shape {
        }
        int_val: 1
      }
    }
  }
}
node {
  name: "layer_1_propagation/layer_1/forward_roll/scan/TensorArrayStack/range"
  op: "Range"
  input: "layer_1_propagation/layer_1/forward_roll/scan/TensorArrayStack/range/start"
  input: "layer_1_propagation/layer_1/forward_roll/scan/TensorArrayStack/TensorArraySizeV3"
  input: "layer_1_propagation/layer_1/forward_roll/scan/TensorArrayStack/range/delta"
  attr {
    key: "Tidx"
    value {
      type: DT_INT32
    }
  }
  attr {
    key: "_class"
    value {
      list {
        s: "loc:@layer_1_propagation/layer_1/forward_roll/scan/TensorArray_1"
      }
    }
  }
}
node {
  name: "layer_1_propagation/layer_1/forward_roll/scan/TensorArrayStack/TensorArrayGatherV3"
  op: "TensorArrayGatherV3"
  input: "layer_1_propagation/layer_1/forward_roll/scan/TensorArray_1"
  input: "layer_1_propagation/layer_1/forward_roll/scan/TensorArrayStack/range"
  input: "layer_1_propagation/layer_1/forward_roll/scan/while/Exit_3"
  attr {
    key: "_class"
    value {
      list {
        s: "loc:@layer_1_propagation/layer_1/forward_roll/scan/TensorArray_1"
      }
    }
  }
  attr {
    key: "dtype"
    value {
      type: DT_FLOAT
    }
  }
  attr {
    key: "element_shape"
    value {
      shape {
        dim {
          size: 2
        }
        dim {
          size: 1
        }
        dim {
          size: 25
        }
      }
    }
  }
}
node {
  name: "layer_1_propagation/layer_1/summaries_and_saver/W_Forget/tag"
  op: "Const"
  attr {
    key: "dtype"
    value {
      type: DT_STRING
    }
  }
  attr {
    key: "value"
    value {
      tensor {
        dtype: DT_STRING
        tensor_shape {
        }
        string_val: "layer_1_propagation/layer_1/summaries_and_saver/W_Forget"
      }
    }
  }
}
node {
  name: "layer_1_propagation/layer_1/summaries_and_saver/W_Forget"
  op: "HistogramSummary"
  input: "layer_1_propagation/layer_1/summaries_and_saver/W_Forget/tag"
  input: "layer_1_propagation/layer_1/weights_and_biases/forget_weight/read"
  attr {
    key: "T"
    value {
      type: DT_FLOAT
    }
  }
}
node {
  name: "layer_1_propagation/layer_1/summaries_and_saver/W_Input/tag"
  op: "Const"
  attr {
    key: "dtype"
    value {
      type: DT_STRING
    }
  }
  attr {
    key: "value"
    value {
      tensor {
        dtype: DT_STRING
        tensor_shape {
        }
        string_val: "layer_1_propagation/layer_1/summaries_and_saver/W_Input"
      }
    }
  }
}
node {
  name: "layer_1_propagation/layer_1/summaries_and_saver/W_Input"
  op: "HistogramSummary"
  input: "layer_1_propagation/layer_1/summaries_and_saver/W_Input/tag"
  input: "layer_1_propagation/layer_1/weights_and_biases/input_weight/read"
  attr {
    key: "T"
    value {
      type: DT_FLOAT
    }
  }
}
node {
  name: "layer_1_propagation/layer_1/summaries_and_saver/W_Output/tag"
  op: "Const"
  attr {
    key: "dtype"
    value {
      type: DT_STRING
    }
  }
  attr {
    key: "value"
    value {
      tensor {
        dtype: DT_STRING
        tensor_shape {
        }
        string_val: "layer_1_propagation/layer_1/summaries_and_saver/W_Output"
      }
    }
  }
}
node {
  name: "layer_1_propagation/layer_1/summaries_and_saver/W_Output"
  op: "HistogramSummary"
  input: "layer_1_propagation/layer_1/summaries_and_saver/W_Output/tag"
  input: "layer_1_propagation/layer_1/weights_and_biases/output_weight/read"
  attr {
    key: "T"
    value {
      type: DT_FLOAT
    }
  }
}
node {
  name: "layer_1_propagation/layer_1/summaries_and_saver/W_Gate/tag"
  op: "Const"
  attr {
    key: "dtype"
    value {
      type: DT_STRING
    }
  }
  attr {
    key: "value"
    value {
      tensor {
        dtype: DT_STRING
        tensor_shape {
        }
        string_val: "layer_1_propagation/layer_1/summaries_and_saver/W_Gate"
      }
    }
  }
}
node {
  name: "layer_1_propagation/layer_1/summaries_and_saver/W_Gate"
  op: "HistogramSummary"
  input: "layer_1_propagation/layer_1/summaries_and_saver/W_Gate/tag"
  input: "layer_1_propagation/layer_1/weights_and_biases/gate_weight/read"
  attr {
    key: "T"
    value {
      type: DT_FLOAT
    }
  }
}
node {
  name: "layer_1_propagation/layer_1/summaries_and_saver/B_Forget/tag"
  op: "Const"
  attr {
    key: "dtype"
    value {
      type: DT_STRING
    }
  }
  attr {
    key: "value"
    value {
      tensor {
        dtype: DT_STRING
        tensor_shape {
        }
        string_val: "layer_1_propagation/layer_1/summaries_and_saver/B_Forget"
      }
    }
  }
}
node {
  name: "layer_1_propagation/layer_1/summaries_and_saver/B_Forget"
  op: "HistogramSummary"
  input: "layer_1_propagation/layer_1/summaries_and_saver/B_Forget/tag"
  input: "layer_1_propagation/layer_1/weights_and_biases/forget_bias/read"
  attr {
    key: "T"
    value {
      type: DT_FLOAT
    }
  }
}
node {
  name: "layer_1_propagation/layer_1/summaries_and_saver/B_Input/tag"
  op: "Const"
  attr {
    key: "dtype"
    value {
      type: DT_STRING
    }
  }
  attr {
    key: "value"
    value {
      tensor {
        dtype: DT_STRING
        tensor_shape {
        }
        string_val: "layer_1_propagation/layer_1/summaries_and_saver/B_Input"
      }
    }
  }
}
node {
  name: "layer_1_propagation/layer_1/summaries_and_saver/B_Input"
  op: "HistogramSummary"
  input: "layer_1_propagation/layer_1/summaries_and_saver/B_Input/tag"
  input: "layer_1_propagation/layer_1/weights_and_biases/input_bias/read"
  attr {
    key: "T"
    value {
      type: DT_FLOAT
    }
  }
}
node {
  name: "layer_1_propagation/layer_1/summaries_and_saver/B_Output/tag"
  op: "Const"
  attr {
    key: "dtype"
    value {
      type: DT_STRING
    }
  }
  attr {
    key: "value"
    value {
      tensor {
        dtype: DT_STRING
        tensor_shape {
        }
        string_val: "layer_1_propagation/layer_1/summaries_and_saver/B_Output"
      }
    }
  }
}
node {
  name: "layer_1_propagation/layer_1/summaries_and_saver/B_Output"
  op: "HistogramSummary"
  input: "layer_1_propagation/layer_1/summaries_and_saver/B_Output/tag"
  input: "layer_1_propagation/layer_1/weights_and_biases/output_bias/read"
  attr {
    key: "T"
    value {
      type: DT_FLOAT
    }
  }
}
node {
  name: "layer_1_propagation/layer_1/summaries_and_saver/B_Gate/tag"
  op: "Const"
  attr {
    key: "dtype"
    value {
      type: DT_STRING
    }
  }
  attr {
    key: "value"
    value {
      tensor {
        dtype: DT_STRING
        tensor_shape {
        }
        string_val: "layer_1_propagation/layer_1/summaries_and_saver/B_Gate"
      }
    }
  }
}
node {
  name: "layer_1_propagation/layer_1/summaries_and_saver/B_Gate"
  op: "HistogramSummary"
  input: "layer_1_propagation/layer_1/summaries_and_saver/B_Gate/tag"
  input: "layer_1_propagation/layer_1/weights_and_biases/gate_bias/read"
  attr {
    key: "T"
    value {
      type: DT_FLOAT
    }
  }
}
node {
  name: "layer_1_propagation/strided_slice/stack"
  op: "Const"
  attr {
    key: "dtype"
    value {
      type: DT_INT32
    }
  }
  attr {
    key: "value"
    value {
      tensor {
        dtype: DT_INT32
        tensor_shape {
          dim {
            size: 1
          }
        }
        int_val: -1
      }
    }
  }
}
node {
  name: "layer_1_propagation/strided_slice/stack_1"
  op: "Const"
  attr {
    key: "dtype"
    value {
      type: DT_INT32
    }
  }
  attr {
    key: "value"
    value {
      tensor {
        dtype: DT_INT32
        tensor_shape {
          dim {
            size: 1
          }
        }
        int_val: 0
      }
    }
  }
}
node {
  name: "layer_1_propagation/strided_slice/stack_2"
  op: "Const"
  attr {
    key: "dtype"
    value {
      type: DT_INT32
    }
  }
  attr {
    key: "value"
    value {
      tensor {
        dtype: DT_INT32
        tensor_shape {
          dim {
            size: 1
          }
        }
        int_val: 1
      }
    }
  }
}
node {
  name: "layer_1_propagation/strided_slice"
  op: "StridedSlice"
  input: "layer_1_propagation/layer_1/forward_roll/scan/TensorArrayStack/TensorArrayGatherV3"
  input: "layer_1_propagation/strided_slice/stack"
  input: "layer_1_propagation/strided_slice/stack_1"
  input: "layer_1_propagation/strided_slice/stack_2"
  attr {
    key: "Index"
    value {
      type: DT_INT32
    }
  }
  attr {
    key: "T"
    value {
      type: DT_FLOAT
    }
  }
  attr {
    key: "begin_mask"
    value {
      i: 0
    }
  }
  attr {
    key: "ellipsis_mask"
    value {
      i: 0
    }
  }
  attr {
    key: "end_mask"
    value {
      i: 0
    }
  }
  attr {
    key: "new_axis_mask"
    value {
      i: 0
    }
  }
  attr {
    key: "shrink_axis_mask"
    value {
      i: 1
    }
  }
}
node {
  name: "layer_1_propagation/strided_slice_1/stack"
  op: "Const"
  attr {
    key: "dtype"
    value {
      type: DT_INT32
    }
  }
  attr {
    key: "value"
    value {
      tensor {
        dtype: DT_INT32
        tensor_shape {
          dim {
            size: 1
          }
        }
        int_val: 0
      }
    }
  }
}
node {
  name: "layer_1_propagation/strided_slice_1/stack_1"
  op: "Const"
  attr {
    key: "dtype"
    value {
      type: DT_INT32
    }
  }
  attr {
    key: "value"
    value {
      tensor {
        dtype: DT_INT32
        tensor_shape {
          dim {
            size: 1
          }
        }
        int_val: 1
      }
    }
  }
}
node {
  name: "layer_1_propagation/strided_slice_1/stack_2"
  op: "Const"
  attr {
    key: "dtype"
    value {
      type: DT_INT32
    }
  }
  attr {
    key: "value"
    value {
      tensor {
        dtype: DT_INT32
        tensor_shape {
          dim {
            size: 1
          }
        }
        int_val: 1
      }
    }
  }
}
node {
  name: "layer_1_propagation/strided_slice_1"
  op: "StridedSlice"
  input: "layer_1_propagation/layer_1/forward_roll/scan/TensorArrayStack/TensorArrayGatherV3"
  input: "layer_1_propagation/strided_slice_1/stack"
  input: "layer_1_propagation/strided_slice_1/stack_1"
  input: "layer_1_propagation/strided_slice_1/stack_2"
  attr {
    key: "Index"
    value {
      type: DT_INT32
    }
  }
  attr {
    key: "T"
    value {
      type: DT_FLOAT
    }
  }
  attr {
    key: "begin_mask"
    value {
      i: 0
    }
  }
  attr {
    key: "ellipsis_mask"
    value {
      i: 0
    }
  }
  attr {
    key: "end_mask"
    value {
      i: 0
    }
  }
  attr {
    key: "new_axis_mask"
    value {
      i: 0
    }
  }
  attr {
    key: "shrink_axis_mask"
    value {
      i: 1
    }
  }
}
node {
  name: "layer_1_propagation/strided_slice_2/stack"
  op: "Const"
  attr {
    key: "dtype"
    value {
      type: DT_INT32
    }
  }
  attr {
    key: "value"
    value {
      tensor {
        dtype: DT_INT32
        tensor_shape {
          dim {
            size: 1
          }
        }
        int_val: 0
      }
    }
  }
}
node {
  name: "layer_1_propagation/strided_slice_2/stack_1"
  op: "Const"
  attr {
    key: "dtype"
    value {
      type: DT_INT32
    }
  }
  attr {
    key: "value"
    value {
      tensor {
        dtype: DT_INT32
        tensor_shape {
          dim {
            size: 1
          }
        }
        int_val: 1
      }
    }
  }
}
node {
  name: "layer_1_propagation/strided_slice_2/stack_2"
  op: "Const"
  attr {
    key: "dtype"
    value {
      type: DT_INT32
    }
  }
  attr {
    key: "value"
    value {
      tensor {
        dtype: DT_INT32
        tensor_shape {
          dim {
            size: 1
          }
        }
        int_val: 1
      }
    }
  }
}
node {
  name: "layer_1_propagation/strided_slice_2"
  op: "StridedSlice"
  input: "layer_1_propagation/layer_1/forward_roll/scan/TensorArrayStack/TensorArrayGatherV3"
  input: "layer_1_propagation/strided_slice_2/stack"
  input: "layer_1_propagation/strided_slice_2/stack_1"
  input: "layer_1_propagation/strided_slice_2/stack_2"
  attr {
    key: "Index"
    value {
      type: DT_INT32
    }
  }
  attr {
    key: "T"
    value {
      type: DT_FLOAT
    }
  }
  attr {
    key: "begin_mask"
    value {
      i: 0
    }
  }
  attr {
    key: "ellipsis_mask"
    value {
      i: 0
    }
  }
  attr {
    key: "end_mask"
    value {
      i: 0
    }
  }
  attr {
    key: "new_axis_mask"
    value {
      i: 0
    }
  }
  attr {
    key: "shrink_axis_mask"
    value {
      i: 1
    }
  }
}
node {
  name: "layer_1_propagation/unstack"
  op: "Unpack"
  input: "layer_1_propagation/strided_slice_2"
  attr {
    key: "T"
    value {
      type: DT_FLOAT
    }
  }
  attr {
    key: "axis"
    value {
      i: 0
    }
  }
  attr {
    key: "num"
    value {
      i: 2
    }
  }
}
node {
  name: "layer_1_propagation/WHTO_w_m"
  op: "MatMul"
  input: "layer_1_propagation/unstack:1"
  input: "aux_weights_and_biases/outwards_propagating_weight_1/read"
  attr {
    key: "T"
    value {
      type: DT_FLOAT
    }
  }
  attr {
    key: "transpose_a"
    value {
      b: false
    }
  }
  attr {
    key: "transpose_b"
    value {
      b: false
    }
  }
}
node {
  name: "layer_1_propagation/BHTO_b_a"
  op: "Add"
  input: "layer_1_propagation/WHTO_w_m"
  input: "aux_weights_and_biases/outwards_propagating_bias_1/read"
  attr {
    key: "T"
    value {
      type: DT_FLOAT
    }
  }
}
node {
  name: "layer_1_propagation/strided_slice_3/stack"
  op: "Const"
  attr {
    key: "dtype"
    value {
      type: DT_INT32
    }
  }
  attr {
    key: "value"
    value {
      tensor {
        dtype: DT_INT32
        tensor_shape {
          dim {
            size: 1
          }
        }
        int_val: 1
      }
    }
  }
}
node {
  name: "layer_1_propagation/strided_slice_3/stack_1"
  op: "Const"
  attr {
    key: "dtype"
    value {
      type: DT_INT32
    }
  }
  attr {
    key: "value"
    value {
      tensor {
        dtype: DT_INT32
        tensor_shape {
          dim {
            size: 1
          }
        }
        int_val: 2
      }
    }
  }
}
node {
  name: "layer_1_propagation/strided_slice_3/stack_2"
  op: "Const"
  attr {
    key: "dtype"
    value {
      type: DT_INT32
    }
  }
  attr {
    key: "value"
    value {
      tensor {
        dtype: DT_INT32
        tensor_shape {
          dim {
            size: 1
          }
        }
        int_val: 1
      }
    }
  }
}
node {
  name: "layer_1_propagation/strided_slice_3"
  op: "StridedSlice"
  input: "layer_1_propagation/layer_1/forward_roll/scan/TensorArrayStack/TensorArrayGatherV3"
  input: "layer_1_propagation/strided_slice_3/stack"
  input: "layer_1_propagation/strided_slice_3/stack_1"
  input: "layer_1_propagation/strided_slice_3/stack_2"
  attr {
    key: "Index"
    value {
      type: DT_INT32
    }
  }
  attr {
    key: "T"
    value {
      type: DT_FLOAT
    }
  }
  attr {
    key: "begin_mask"
    value {
      i: 0
    }
  }
  attr {
    key: "ellipsis_mask"
    value {
      i: 0
    }
  }
  attr {
    key: "end_mask"
    value {
      i: 0
    }
  }
  attr {
    key: "new_axis_mask"
    value {
      i: 0
    }
  }
  attr {
    key: "shrink_axis_mask"
    value {
      i: 1
    }
  }
}
node {
  name: "layer_1_propagation/unstack_1"
  op: "Unpack"
  input: "layer_1_propagation/strided_slice_3"
  attr {
    key: "T"
    value {
      type: DT_FLOAT
    }
  }
  attr {
    key: "axis"
    value {
      i: 0
    }
  }
  attr {
    key: "num"
    value {
      i: 2
    }
  }
}
node {
  name: "layer_1_propagation/WHTO_w_m_1"
  op: "MatMul"
  input: "layer_1_propagation/unstack_1:1"
  input: "aux_weights_and_biases/outwards_propagating_weight_1/read"
  attr {
    key: "T"
    value {
      type: DT_FLOAT
    }
  }
  attr {
    key: "transpose_a"
    value {
      b: false
    }
  }
  attr {
    key: "transpose_b"
    value {
      b: false
    }
  }
}
node {
  name: "layer_1_propagation/BHTO_b_a_1"
  op: "Add"
  input: "layer_1_propagation/WHTO_w_m_1"
  input: "aux_weights_and_biases/outwards_propagating_bias_1/read"
  attr {
    key: "T"
    value {
      type: DT_FLOAT
    }
  }
}
node {
  name: "layer_1_propagation/strided_slice_4/stack"
  op: "Const"
  attr {
    key: "dtype"
    value {
      type: DT_INT32
    }
  }
  attr {
    key: "value"
    value {
      tensor {
        dtype: DT_INT32
        tensor_shape {
          dim {
            size: 1
          }
        }
        int_val: 2
      }
    }
  }
}
node {
  name: "layer_1_propagation/strided_slice_4/stack_1"
  op: "Const"
  attr {
    key: "dtype"
    value {
      type: DT_INT32
    }
  }
  attr {
    key: "value"
    value {
      tensor {
        dtype: DT_INT32
        tensor_shape {
          dim {
            size: 1
          }
        }
        int_val: 3
      }
    }
  }
}
node {
  name: "layer_1_propagation/strided_slice_4/stack_2"
  op: "Const"
  attr {
    key: "dtype"
    value {
      type: DT_INT32
    }
  }
  attr {
    key: "value"
    value {
      tensor {
        dtype: DT_INT32
        tensor_shape {
          dim {
            size: 1
          }
        }
        int_val: 1
      }
    }
  }
}
node {
  name: "layer_1_propagation/strided_slice_4"
  op: "StridedSlice"
  input: "layer_1_propagation/layer_1/forward_roll/scan/TensorArrayStack/TensorArrayGatherV3"
  input: "layer_1_propagation/strided_slice_4/stack"
  input: "layer_1_propagation/strided_slice_4/stack_1"
  input: "layer_1_propagation/strided_slice_4/stack_2"
  attr {
    key: "Index"
    value {
      type: DT_INT32
    }
  }
  attr {
    key: "T"
    value {
      type: DT_FLOAT
    }
  }
  attr {
    key: "begin_mask"
    value {
      i: 0
    }
  }
  attr {
    key: "ellipsis_mask"
    value {
      i: 0
    }
  }
  attr {
    key: "end_mask"
    value {
      i: 0
    }
  }
  attr {
    key: "new_axis_mask"
    value {
      i: 0
    }
  }
  attr {
    key: "shrink_axis_mask"
    value {
      i: 1
    }
  }
}
node {
  name: "layer_1_propagation/unstack_2"
  op: "Unpack"
  input: "layer_1_propagation/strided_slice_4"
  attr {
    key: "T"
    value {
      type: DT_FLOAT
    }
  }
  attr {
    key: "axis"
    value {
      i: 0
    }
  }
  attr {
    key: "num"
    value {
      i: 2
    }
  }
}
node {
  name: "layer_1_propagation/WHTO_w_m_2"
  op: "MatMul"
  input: "layer_1_propagation/unstack_2:1"
  input: "aux_weights_and_biases/outwards_propagating_weight_1/read"
  attr {
    key: "T"
    value {
      type: DT_FLOAT
    }
  }
  attr {
    key: "transpose_a"
    value {
      b: false
    }
  }
  attr {
    key: "transpose_b"
    value {
      b: false
    }
  }
}
node {
  name: "layer_1_propagation/BHTO_b_a_2"
  op: "Add"
  input: "layer_1_propagation/WHTO_w_m_2"
  input: "aux_weights_and_biases/outwards_propagating_bias_1/read"
  attr {
    key: "T"
    value {
      type: DT_FLOAT
    }
  }
}
node {
  name: "layer_1_propagation/strided_slice_5/stack"
  op: "Const"
  attr {
    key: "dtype"
    value {
      type: DT_INT32
    }
  }
  attr {
    key: "value"
    value {
      tensor {
        dtype: DT_INT32
        tensor_shape {
          dim {
            size: 1
          }
        }
        int_val: 3
      }
    }
  }
}
node {
  name: "layer_1_propagation/strided_slice_5/stack_1"
  op: "Const"
  attr {
    key: "dtype"
    value {
      type: DT_INT32
    }
  }
  attr {
    key: "value"
    value {
      tensor {
        dtype: DT_INT32
        tensor_shape {
          dim {
            size: 1
          }
        }
        int_val: 4
      }
    }
  }
}
node {
  name: "layer_1_propagation/strided_slice_5/stack_2"
  op: "Const"
  attr {
    key: "dtype"
    value {
      type: DT_INT32
    }
  }
  attr {
    key: "value"
    value {
      tensor {
        dtype: DT_INT32
        tensor_shape {
          dim {
            size: 1
          }
        }
        int_val: 1
      }
    }
  }
}
node {
  name: "layer_1_propagation/strided_slice_5"
  op: "StridedSlice"
  input: "layer_1_propagation/layer_1/forward_roll/scan/TensorArrayStack/TensorArrayGatherV3"
  input: "layer_1_propagation/strided_slice_5/stack"
  input: "layer_1_propagation/strided_slice_5/stack_1"
  input: "layer_1_propagation/strided_slice_5/stack_2"
  attr {
    key: "Index"
    value {
      type: DT_INT32
    }
  }
  attr {
    key: "T"
    value {
      type: DT_FLOAT
    }
  }
  attr {
    key: "begin_mask"
    value {
      i: 0
    }
  }
  attr {
    key: "ellipsis_mask"
    value {
      i: 0
    }
  }
  attr {
    key: "end_mask"
    value {
      i: 0
    }
  }
  attr {
    key: "new_axis_mask"
    value {
      i: 0
    }
  }
  attr {
    key: "shrink_axis_mask"
    value {
      i: 1
    }
  }
}
node {
  name: "layer_1_propagation/unstack_3"
  op: "Unpack"
  input: "layer_1_propagation/strided_slice_5"
  attr {
    key: "T"
    value {
      type: DT_FLOAT
    }
  }
  attr {
    key: "axis"
    value {
      i: 0
    }
  }
  attr {
    key: "num"
    value {
      i: 2
    }
  }
}
node {
  name: "layer_1_propagation/WHTO_w_m_3"
  op: "MatMul"
  input: "layer_1_propagation/unstack_3:1"
  input: "aux_weights_and_biases/outwards_propagating_weight_1/read"
  attr {
    key: "T"
    value {
      type: DT_FLOAT
    }
  }
  attr {
    key: "transpose_a"
    value {
      b: false
    }
  }
  attr {
    key: "transpose_b"
    value {
      b: false
    }
  }
}
node {
  name: "layer_1_propagation/BHTO_b_a_3"
  op: "Add"
  input: "layer_1_propagation/WHTO_w_m_3"
  input: "aux_weights_and_biases/outwards_propagating_bias_1/read"
  attr {
    key: "T"
    value {
      type: DT_FLOAT
    }
  }
}
node {
  name: "layer_1_propagation/strided_slice_6/stack"
  op: "Const"
  attr {
    key: "dtype"
    value {
      type: DT_INT32
    }
  }
  attr {
    key: "value"
    value {
      tensor {
        dtype: DT_INT32
        tensor_shape {
          dim {
            size: 1
          }
        }
        int_val: 4
      }
    }
  }
}
node {
  name: "layer_1_propagation/strided_slice_6/stack_1"
  op: "Const"
  attr {
    key: "dtype"
    value {
      type: DT_INT32
    }
  }
  attr {
    key: "value"
    value {
      tensor {
        dtype: DT_INT32
        tensor_shape {
          dim {
            size: 1
          }
        }
        int_val: 5
      }
    }
  }
}
node {
  name: "layer_1_propagation/strided_slice_6/stack_2"
  op: "Const"
  attr {
    key: "dtype"
    value {
      type: DT_INT32
    }
  }
  attr {
    key: "value"
    value {
      tensor {
        dtype: DT_INT32
        tensor_shape {
          dim {
            size: 1
          }
        }
        int_val: 1
      }
    }
  }
}
node {
  name: "layer_1_propagation/strided_slice_6"
  op: "StridedSlice"
  input: "layer_1_propagation/layer_1/forward_roll/scan/TensorArrayStack/TensorArrayGatherV3"
  input: "layer_1_propagation/strided_slice_6/stack"
  input: "layer_1_propagation/strided_slice_6/stack_1"
  input: "layer_1_propagation/strided_slice_6/stack_2"
  attr {
    key: "Index"
    value {
      type: DT_INT32
    }
  }
  attr {
    key: "T"
    value {
      type: DT_FLOAT
    }
  }
  attr {
    key: "begin_mask"
    value {
      i: 0
    }
  }
  attr {
    key: "ellipsis_mask"
    value {
      i: 0
    }
  }
  attr {
    key: "end_mask"
    value {
      i: 0
    }
  }
  attr {
    key: "new_axis_mask"
    value {
      i: 0
    }
  }
  attr {
    key: "shrink_axis_mask"
    value {
      i: 1
    }
  }
}
node {
  name: "layer_1_propagation/unstack_4"
  op: "Unpack"
  input: "layer_1_propagation/strided_slice_6"
  attr {
    key: "T"
    value {
      type: DT_FLOAT
    }
  }
  attr {
    key: "axis"
    value {
      i: 0
    }
  }
  attr {
    key: "num"
    value {
      i: 2
    }
  }
}
node {
  name: "layer_1_propagation/WHTO_w_m_4"
  op: "MatMul"
  input: "layer_1_propagation/unstack_4:1"
  input: "aux_weights_and_biases/outwards_propagating_weight_1/read"
  attr {
    key: "T"
    value {
      type: DT_FLOAT
    }
  }
  attr {
    key: "transpose_a"
    value {
      b: false
    }
  }
  attr {
    key: "transpose_b"
    value {
      b: false
    }
  }
}
node {
  name: "layer_1_propagation/BHTO_b_a_4"
  op: "Add"
  input: "layer_1_propagation/WHTO_w_m_4"
  input: "aux_weights_and_biases/outwards_propagating_bias_1/read"
  attr {
    key: "T"
    value {
      type: DT_FLOAT
    }
  }
}
node {
  name: "layer_1_propagation/strided_slice_7/stack"
  op: "Const"
  attr {
    key: "dtype"
    value {
      type: DT_INT32
    }
  }
  attr {
    key: "value"
    value {
      tensor {
        dtype: DT_INT32
        tensor_shape {
          dim {
            size: 1
          }
        }
        int_val: 5
      }
    }
  }
}
node {
  name: "layer_1_propagation/strided_slice_7/stack_1"
  op: "Const"
  attr {
    key: "dtype"
    value {
      type: DT_INT32
    }
  }
  attr {
    key: "value"
    value {
      tensor {
        dtype: DT_INT32
        tensor_shape {
          dim {
            size: 1
          }
        }
        int_val: 6
      }
    }
  }
}
node {
  name: "layer_1_propagation/strided_slice_7/stack_2"
  op: "Const"
  attr {
    key: "dtype"
    value {
      type: DT_INT32
    }
  }
  attr {
    key: "value"
    value {
      tensor {
        dtype: DT_INT32
        tensor_shape {
          dim {
            size: 1
          }
        }
        int_val: 1
      }
    }
  }
}
node {
  name: "layer_1_propagation/strided_slice_7"
  op: "StridedSlice"
  input: "layer_1_propagation/layer_1/forward_roll/scan/TensorArrayStack/TensorArrayGatherV3"
  input: "layer_1_propagation/strided_slice_7/stack"
  input: "layer_1_propagation/strided_slice_7/stack_1"
  input: "layer_1_propagation/strided_slice_7/stack_2"
  attr {
    key: "Index"
    value {
      type: DT_INT32
    }
  }
  attr {
    key: "T"
    value {
      type: DT_FLOAT
    }
  }
  attr {
    key: "begin_mask"
    value {
      i: 0
    }
  }
  attr {
    key: "ellipsis_mask"
    value {
      i: 0
    }
  }
  attr {
    key: "end_mask"
    value {
      i: 0
    }
  }
  attr {
    key: "new_axis_mask"
    value {
      i: 0
    }
  }
  attr {
    key: "shrink_axis_mask"
    value {
      i: 1
    }
  }
}
node {
  name: "layer_1_propagation/unstack_5"
  op: "Unpack"
  input: "layer_1_propagation/strided_slice_7"
  attr {
    key: "T"
    value {
      type: DT_FLOAT
    }
  }
  attr {
    key: "axis"
    value {
      i: 0
    }
  }
  attr {
    key: "num"
    value {
      i: 2
    }
  }
}
node {
  name: "layer_1_propagation/WHTO_w_m_5"
  op: "MatMul"
  input: "layer_1_propagation/unstack_5:1"
  input: "aux_weights_and_biases/outwards_propagating_weight_1/read"
  attr {
    key: "T"
    value {
      type: DT_FLOAT
    }
  }
  attr {
    key: "transpose_a"
    value {
      b: false
    }
  }
  attr {
    key: "transpose_b"
    value {
      b: false
    }
  }
}
node {
  name: "layer_1_propagation/BHTO_b_a_5"
  op: "Add"
  input: "layer_1_propagation/WHTO_w_m_5"
  input: "aux_weights_and_biases/outwards_propagating_bias_1/read"
  attr {
    key: "T"
    value {
      type: DT_FLOAT
    }
  }
}
node {
  name: "layer_1_propagation/strided_slice_8/stack"
  op: "Const"
  attr {
    key: "dtype"
    value {
      type: DT_INT32
    }
  }
  attr {
    key: "value"
    value {
      tensor {
        dtype: DT_INT32
        tensor_shape {
          dim {
            size: 1
          }
        }
        int_val: 6
      }
    }
  }
}
node {
  name: "layer_1_propagation/strided_slice_8/stack_1"
  op: "Const"
  attr {
    key: "dtype"
    value {
      type: DT_INT32
    }
  }
  attr {
    key: "value"
    value {
      tensor {
        dtype: DT_INT32
        tensor_shape {
          dim {
            size: 1
          }
        }
        int_val: 7
      }
    }
  }
}
node {
  name: "layer_1_propagation/strided_slice_8/stack_2"
  op: "Const"
  attr {
    key: "dtype"
    value {
      type: DT_INT32
    }
  }
  attr {
    key: "value"
    value {
      tensor {
        dtype: DT_INT32
        tensor_shape {
          dim {
            size: 1
          }
        }
        int_val: 1
      }
    }
  }
}
node {
  name: "layer_1_propagation/strided_slice_8"
  op: "StridedSlice"
  input: "layer_1_propagation/layer_1/forward_roll/scan/TensorArrayStack/TensorArrayGatherV3"
  input: "layer_1_propagation/strided_slice_8/stack"
  input: "layer_1_propagation/strided_slice_8/stack_1"
  input: "layer_1_propagation/strided_slice_8/stack_2"
  attr {
    key: "Index"
    value {
      type: DT_INT32
    }
  }
  attr {
    key: "T"
    value {
      type: DT_FLOAT
    }
  }
  attr {
    key: "begin_mask"
    value {
      i: 0
    }
  }
  attr {
    key: "ellipsis_mask"
    value {
      i: 0
    }
  }
  attr {
    key: "end_mask"
    value {
      i: 0
    }
  }
  attr {
    key: "new_axis_mask"
    value {
      i: 0
    }
  }
  attr {
    key: "shrink_axis_mask"
    value {
      i: 1
    }
  }
}
node {
  name: "layer_1_propagation/unstack_6"
  op: "Unpack"
  input: "layer_1_propagation/strided_slice_8"
  attr {
    key: "T"
    value {
      type: DT_FLOAT
    }
  }
  attr {
    key: "axis"
    value {
      i: 0
    }
  }
  attr {
    key: "num"
    value {
      i: 2
    }
  }
}
node {
  name: "layer_1_propagation/WHTO_w_m_6"
  op: "MatMul"
  input: "layer_1_propagation/unstack_6:1"
  input: "aux_weights_and_biases/outwards_propagating_weight_1/read"
  attr {
    key: "T"
    value {
      type: DT_FLOAT
    }
  }
  attr {
    key: "transpose_a"
    value {
      b: false
    }
  }
  attr {
    key: "transpose_b"
    value {
      b: false
    }
  }
}
node {
  name: "layer_1_propagation/BHTO_b_a_6"
  op: "Add"
  input: "layer_1_propagation/WHTO_w_m_6"
  input: "aux_weights_and_biases/outwards_propagating_bias_1/read"
  attr {
    key: "T"
    value {
      type: DT_FLOAT
    }
  }
}
node {
  name: "layer_1_propagation/strided_slice_9/stack"
  op: "Const"
  attr {
    key: "dtype"
    value {
      type: DT_INT32
    }
  }
  attr {
    key: "value"
    value {
      tensor {
        dtype: DT_INT32
        tensor_shape {
          dim {
            size: 1
          }
        }
        int_val: 7
      }
    }
  }
}
node {
  name: "layer_1_propagation/strided_slice_9/stack_1"
  op: "Const"
  attr {
    key: "dtype"
    value {
      type: DT_INT32
    }
  }
  attr {
    key: "value"
    value {
      tensor {
        dtype: DT_INT32
        tensor_shape {
          dim {
            size: 1
          }
        }
        int_val: 8
      }
    }
  }
}
node {
  name: "layer_1_propagation/strided_slice_9/stack_2"
  op: "Const"
  attr {
    key: "dtype"
    value {
      type: DT_INT32
    }
  }
  attr {
    key: "value"
    value {
      tensor {
        dtype: DT_INT32
        tensor_shape {
          dim {
            size: 1
          }
        }
        int_val: 1
      }
    }
  }
}
node {
  name: "layer_1_propagation/strided_slice_9"
  op: "StridedSlice"
  input: "layer_1_propagation/layer_1/forward_roll/scan/TensorArrayStack/TensorArrayGatherV3"
  input: "layer_1_propagation/strided_slice_9/stack"
  input: "layer_1_propagation/strided_slice_9/stack_1"
  input: "layer_1_propagation/strided_slice_9/stack_2"
  attr {
    key: "Index"
    value {
      type: DT_INT32
    }
  }
  attr {
    key: "T"
    value {
      type: DT_FLOAT
    }
  }
  attr {
    key: "begin_mask"
    value {
      i: 0
    }
  }
  attr {
    key: "ellipsis_mask"
    value {
      i: 0
    }
  }
  attr {
    key: "end_mask"
    value {
      i: 0
    }
  }
  attr {
    key: "new_axis_mask"
    value {
      i: 0
    }
  }
  attr {
    key: "shrink_axis_mask"
    value {
      i: 1
    }
  }
}
node {
  name: "layer_1_propagation/unstack_7"
  op: "Unpack"
  input: "layer_1_propagation/strided_slice_9"
  attr {
    key: "T"
    value {
      type: DT_FLOAT
    }
  }
  attr {
    key: "axis"
    value {
      i: 0
    }
  }
  attr {
    key: "num"
    value {
      i: 2
    }
  }
}
node {
  name: "layer_1_propagation/WHTO_w_m_7"
  op: "MatMul"
  input: "layer_1_propagation/unstack_7:1"
  input: "aux_weights_and_biases/outwards_propagating_weight_1/read"
  attr {
    key: "T"
    value {
      type: DT_FLOAT
    }
  }
  attr {
    key: "transpose_a"
    value {
      b: false
    }
  }
  attr {
    key: "transpose_b"
    value {
      b: false
    }
  }
}
node {
  name: "layer_1_propagation/BHTO_b_a_7"
  op: "Add"
  input: "layer_1_propagation/WHTO_w_m_7"
  input: "aux_weights_and_biases/outwards_propagating_bias_1/read"
  attr {
    key: "T"
    value {
      type: DT_FLOAT
    }
  }
}
node {
  name: "layer_1_propagation/strided_slice_10/stack"
  op: "Const"
  attr {
    key: "dtype"
    value {
      type: DT_INT32
    }
  }
  attr {
    key: "value"
    value {
      tensor {
        dtype: DT_INT32
        tensor_shape {
          dim {
            size: 1
          }
        }
        int_val: 8
      }
    }
  }
}
node {
  name: "layer_1_propagation/strided_slice_10/stack_1"
  op: "Const"
  attr {
    key: "dtype"
    value {
      type: DT_INT32
    }
  }
  attr {
    key: "value"
    value {
      tensor {
        dtype: DT_INT32
        tensor_shape {
          dim {
            size: 1
          }
        }
        int_val: 9
      }
    }
  }
}
node {
  name: "layer_1_propagation/strided_slice_10/stack_2"
  op: "Const"
  attr {
    key: "dtype"
    value {
      type: DT_INT32
    }
  }
  attr {
    key: "value"
    value {
      tensor {
        dtype: DT_INT32
        tensor_shape {
          dim {
            size: 1
          }
        }
        int_val: 1
      }
    }
  }
}
node {
  name: "layer_1_propagation/strided_slice_10"
  op: "StridedSlice"
  input: "layer_1_propagation/layer_1/forward_roll/scan/TensorArrayStack/TensorArrayGatherV3"
  input: "layer_1_propagation/strided_slice_10/stack"
  input: "layer_1_propagation/strided_slice_10/stack_1"
  input: "layer_1_propagation/strided_slice_10/stack_2"
  attr {
    key: "Index"
    value {
      type: DT_INT32
    }
  }
  attr {
    key: "T"
    value {
      type: DT_FLOAT
    }
  }
  attr {
    key: "begin_mask"
    value {
      i: 0
    }
  }
  attr {
    key: "ellipsis_mask"
    value {
      i: 0
    }
  }
  attr {
    key: "end_mask"
    value {
      i: 0
    }
  }
  attr {
    key: "new_axis_mask"
    value {
      i: 0
    }
  }
  attr {
    key: "shrink_axis_mask"
    value {
      i: 1
    }
  }
}
node {
  name: "layer_1_propagation/unstack_8"
  op: "Unpack"
  input: "layer_1_propagation/strided_slice_10"
  attr {
    key: "T"
    value {
      type: DT_FLOAT
    }
  }
  attr {
    key: "axis"
    value {
      i: 0
    }
  }
  attr {
    key: "num"
    value {
      i: 2
    }
  }
}
node {
  name: "layer_1_propagation/WHTO_w_m_8"
  op: "MatMul"
  input: "layer_1_propagation/unstack_8:1"
  input: "aux_weights_and_biases/outwards_propagating_weight_1/read"
  attr {
    key: "T"
    value {
      type: DT_FLOAT
    }
  }
  attr {
    key: "transpose_a"
    value {
      b: false
    }
  }
  attr {
    key: "transpose_b"
    value {
      b: false
    }
  }
}
node {
  name: "layer_1_propagation/BHTO_b_a_8"
  op: "Add"
  input: "layer_1_propagation/WHTO_w_m_8"
  input: "aux_weights_and_biases/outwards_propagating_bias_1/read"
  attr {
    key: "T"
    value {
      type: DT_FLOAT
    }
  }
}
node {
  name: "layer_1_propagation/Reshape/tensor"
  op: "Pack"
  input: "layer_1_propagation/BHTO_b_a"
  input: "layer_1_propagation/BHTO_b_a_1"
  input: "layer_1_propagation/BHTO_b_a_2"
  input: "layer_1_propagation/BHTO_b_a_3"
  input: "layer_1_propagation/BHTO_b_a_4"
  input: "layer_1_propagation/BHTO_b_a_5"
  input: "layer_1_propagation/BHTO_b_a_6"
  input: "layer_1_propagation/BHTO_b_a_7"
  input: "layer_1_propagation/BHTO_b_a_8"
  attr {
    key: "N"
    value {
      i: 9
    }
  }
  attr {
    key: "T"
    value {
      type: DT_FLOAT
    }
  }
  attr {
    key: "axis"
    value {
      i: 0
    }
  }
}
node {
  name: "layer_1_propagation/Reshape/shape"
  op: "Const"
  attr {
    key: "dtype"
    value {
      type: DT_INT32
    }
  }
  attr {
    key: "value"
    value {
      tensor {
        dtype: DT_INT32
        tensor_shape {
          dim {
            size: 3
          }
        }
        tensor_content: "\t\000\000\000\001\000\000\000\001\000\000\000"
      }
    }
  }
}
node {
  name: "layer_1_propagation/Reshape"
  op: "Reshape"
  input: "layer_1_propagation/Reshape/tensor"
  input: "layer_1_propagation/Reshape/shape"
  attr {
    key: "T"
    value {
      type: DT_FLOAT
    }
  }
  attr {
    key: "Tshape"
    value {
      type: DT_INT32
    }
  }
}
node {
  name: "layer_2_propagation/layer_2/weights_and_biases/random_normal/shape"
  op: "Const"
  attr {
    key: "dtype"
    value {
      type: DT_INT32
    }
  }
  attr {
    key: "value"
    value {
      tensor {
        dtype: DT_INT32
        tensor_shape {
          dim {
            size: 2
          }
        }
        tensor_content: "\032\000\000\000\031\000\000\000"
      }
    }
  }
}
node {
  name: "layer_2_propagation/layer_2/weights_and_biases/random_normal/mean"
  op: "Const"
  attr {
    key: "dtype"
    value {
      type: DT_FLOAT
    }
  }
  attr {
    key: "value"
    value {
      tensor {
        dtype: DT_FLOAT
        tensor_shape {
        }
        float_val: 0.0
      }
    }
  }
}
node {
  name: "layer_2_propagation/layer_2/weights_and_biases/random_normal/stddev"
  op: "Const"
  attr {
    key: "dtype"
    value {
      type: DT_FLOAT
    }
  }
  attr {
    key: "value"
    value {
      tensor {
        dtype: DT_FLOAT
        tensor_shape {
        }
        float_val: 1.0
      }
    }
  }
}
node {
  name: "layer_2_propagation/layer_2/weights_and_biases/random_normal/RandomStandardNormal"
  op: "RandomStandardNormal"
  input: "layer_2_propagation/layer_2/weights_and_biases/random_normal/shape"
  attr {
    key: "T"
    value {
      type: DT_INT32
    }
  }
  attr {
    key: "dtype"
    value {
      type: DT_FLOAT
    }
  }
  attr {
    key: "seed"
    value {
      i: 0
    }
  }
  attr {
    key: "seed2"
    value {
      i: 0
    }
  }
}
node {
  name: "layer_2_propagation/layer_2/weights_and_biases/random_normal/mul"
  op: "Mul"
  input: "layer_2_propagation/layer_2/weights_and_biases/random_normal/RandomStandardNormal"
  input: "layer_2_propagation/layer_2/weights_and_biases/random_normal/stddev"
  attr {
    key: "T"
    value {
      type: DT_FLOAT
    }
  }
}
node {
  name: "layer_2_propagation/layer_2/weights_and_biases/random_normal"
  op: "Add"
  input: "layer_2_propagation/layer_2/weights_and_biases/random_normal/mul"
  input: "layer_2_propagation/layer_2/weights_and_biases/random_normal/mean"
  attr {
    key: "T"
    value {
      type: DT_FLOAT
    }
  }
}
node {
  name: "layer_2_propagation/layer_2/weights_and_biases/forget_weight"
  op: "VariableV2"
  attr {
    key: "container"
    value {
      s: ""
    }
  }
  attr {
    key: "dtype"
    value {
      type: DT_FLOAT
    }
  }
  attr {
    key: "shape"
    value {
      shape {
        dim {
          size: 26
        }
        dim {
          size: 25
        }
      }
    }
  }
  attr {
    key: "shared_name"
    value {
      s: ""
    }
  }
}
node {
  name: "layer_2_propagation/layer_2/weights_and_biases/forget_weight/Assign"
  op: "Assign"
  input: "layer_2_propagation/layer_2/weights_and_biases/forget_weight"
  input: "layer_2_propagation/layer_2/weights_and_biases/random_normal"
  attr {
    key: "T"
    value {
      type: DT_FLOAT
    }
  }
  attr {
    key: "_class"
    value {
      list {
        s: "loc:@layer_2_propagation/layer_2/weights_and_biases/forget_weight"
      }
    }
  }
  attr {
    key: "use_locking"
    value {
      b: true
    }
  }
  attr {
    key: "validate_shape"
    value {
      b: true
    }
  }
}
node {
  name: "layer_2_propagation/layer_2/weights_and_biases/forget_weight/read"
  op: "Identity"
  input: "layer_2_propagation/layer_2/weights_and_biases/forget_weight"
  attr {
    key: "T"
    value {
      type: DT_FLOAT
    }
  }
  attr {
    key: "_class"
    value {
      list {
        s: "loc:@layer_2_propagation/layer_2/weights_and_biases/forget_weight"
      }
    }
  }
}
node {
  name: "layer_2_propagation/layer_2/weights_and_biases/random_normal_1/shape"
  op: "Const"
  attr {
    key: "dtype"
    value {
      type: DT_INT32
    }
  }
  attr {
    key: "value"
    value {
      tensor {
        dtype: DT_INT32
        tensor_shape {
          dim {
            size: 2
          }
        }
        tensor_content: "\032\000\000\000\031\000\000\000"
      }
    }
  }
}
node {
  name: "layer_2_propagation/layer_2/weights_and_biases/random_normal_1/mean"
  op: "Const"
  attr {
    key: "dtype"
    value {
      type: DT_FLOAT
    }
  }
  attr {
    key: "value"
    value {
      tensor {
        dtype: DT_FLOAT
        tensor_shape {
        }
        float_val: 0.0
      }
    }
  }
}
node {
  name: "layer_2_propagation/layer_2/weights_and_biases/random_normal_1/stddev"
  op: "Const"
  attr {
    key: "dtype"
    value {
      type: DT_FLOAT
    }
  }
  attr {
    key: "value"
    value {
      tensor {
        dtype: DT_FLOAT
        tensor_shape {
        }
        float_val: 1.0
      }
    }
  }
}
node {
  name: "layer_2_propagation/layer_2/weights_and_biases/random_normal_1/RandomStandardNormal"
  op: "RandomStandardNormal"
  input: "layer_2_propagation/layer_2/weights_and_biases/random_normal_1/shape"
  attr {
    key: "T"
    value {
      type: DT_INT32
    }
  }
  attr {
    key: "dtype"
    value {
      type: DT_FLOAT
    }
  }
  attr {
    key: "seed"
    value {
      i: 0
    }
  }
  attr {
    key: "seed2"
    value {
      i: 0
    }
  }
}
node {
  name: "layer_2_propagation/layer_2/weights_and_biases/random_normal_1/mul"
  op: "Mul"
  input: "layer_2_propagation/layer_2/weights_and_biases/random_normal_1/RandomStandardNormal"
  input: "layer_2_propagation/layer_2/weights_and_biases/random_normal_1/stddev"
  attr {
    key: "T"
    value {
      type: DT_FLOAT
    }
  }
}
node {
  name: "layer_2_propagation/layer_2/weights_and_biases/random_normal_1"
  op: "Add"
  input: "layer_2_propagation/layer_2/weights_and_biases/random_normal_1/mul"
  input: "layer_2_propagation/layer_2/weights_and_biases/random_normal_1/mean"
  attr {
    key: "T"
    value {
      type: DT_FLOAT
    }
  }
}
node {
  name: "layer_2_propagation/layer_2/weights_and_biases/output_weight"
  op: "VariableV2"
  attr {
    key: "container"
    value {
      s: ""
    }
  }
  attr {
    key: "dtype"
    value {
      type: DT_FLOAT
    }
  }
  attr {
    key: "shape"
    value {
      shape {
        dim {
          size: 26
        }
        dim {
          size: 25
        }
      }
    }
  }
  attr {
    key: "shared_name"
    value {
      s: ""
    }
  }
}
node {
  name: "layer_2_propagation/layer_2/weights_and_biases/output_weight/Assign"
  op: "Assign"
  input: "layer_2_propagation/layer_2/weights_and_biases/output_weight"
  input: "layer_2_propagation/layer_2/weights_and_biases/random_normal_1"
  attr {
    key: "T"
    value {
      type: DT_FLOAT
    }
  }
  attr {
    key: "_class"
    value {
      list {
        s: "loc:@layer_2_propagation/layer_2/weights_and_biases/output_weight"
      }
    }
  }
  attr {
    key: "use_locking"
    value {
      b: true
    }
  }
  attr {
    key: "validate_shape"
    value {
      b: true
    }
  }
}
node {
  name: "layer_2_propagation/layer_2/weights_and_biases/output_weight/read"
  op: "Identity"
  input: "layer_2_propagation/layer_2/weights_and_biases/output_weight"
  attr {
    key: "T"
    value {
      type: DT_FLOAT
    }
  }
  attr {
    key: "_class"
    value {
      list {
        s: "loc:@layer_2_propagation/layer_2/weights_and_biases/output_weight"
      }
    }
  }
}
node {
  name: "layer_2_propagation/layer_2/weights_and_biases/random_normal_2/shape"
  op: "Const"
  attr {
    key: "dtype"
    value {
      type: DT_INT32
    }
  }
  attr {
    key: "value"
    value {
      tensor {
        dtype: DT_INT32
        tensor_shape {
          dim {
            size: 2
          }
        }
        tensor_content: "\032\000\000\000\031\000\000\000"
      }
    }
  }
}
node {
  name: "layer_2_propagation/layer_2/weights_and_biases/random_normal_2/mean"
  op: "Const"
  attr {
    key: "dtype"
    value {
      type: DT_FLOAT
    }
  }
  attr {
    key: "value"
    value {
      tensor {
        dtype: DT_FLOAT
        tensor_shape {
        }
        float_val: 0.0
      }
    }
  }
}
node {
  name: "layer_2_propagation/layer_2/weights_and_biases/random_normal_2/stddev"
  op: "Const"
  attr {
    key: "dtype"
    value {
      type: DT_FLOAT
    }
  }
  attr {
    key: "value"
    value {
      tensor {
        dtype: DT_FLOAT
        tensor_shape {
        }
        float_val: 1.0
      }
    }
  }
}
node {
  name: "layer_2_propagation/layer_2/weights_and_biases/random_normal_2/RandomStandardNormal"
  op: "RandomStandardNormal"
  input: "layer_2_propagation/layer_2/weights_and_biases/random_normal_2/shape"
  attr {
    key: "T"
    value {
      type: DT_INT32
    }
  }
  attr {
    key: "dtype"
    value {
      type: DT_FLOAT
    }
  }
  attr {
    key: "seed"
    value {
      i: 0
    }
  }
  attr {
    key: "seed2"
    value {
      i: 0
    }
  }
}
node {
  name: "layer_2_propagation/layer_2/weights_and_biases/random_normal_2/mul"
  op: "Mul"
  input: "layer_2_propagation/layer_2/weights_and_biases/random_normal_2/RandomStandardNormal"
  input: "layer_2_propagation/layer_2/weights_and_biases/random_normal_2/stddev"
  attr {
    key: "T"
    value {
      type: DT_FLOAT
    }
  }
}
node {
  name: "layer_2_propagation/layer_2/weights_and_biases/random_normal_2"
  op: "Add"
  input: "layer_2_propagation/layer_2/weights_and_biases/random_normal_2/mul"
  input: "layer_2_propagation/layer_2/weights_and_biases/random_normal_2/mean"
  attr {
    key: "T"
    value {
      type: DT_FLOAT
    }
  }
}
node {
  name: "layer_2_propagation/layer_2/weights_and_biases/gate_weight"
  op: "VariableV2"
  attr {
    key: "container"
    value {
      s: ""
    }
  }
  attr {
    key: "dtype"
    value {
      type: DT_FLOAT
    }
  }
  attr {
    key: "shape"
    value {
      shape {
        dim {
          size: 26
        }
        dim {
          size: 25
        }
      }
    }
  }
  attr {
    key: "shared_name"
    value {
      s: ""
    }
  }
}
node {
  name: "layer_2_propagation/layer_2/weights_and_biases/gate_weight/Assign"
  op: "Assign"
  input: "layer_2_propagation/layer_2/weights_and_biases/gate_weight"
  input: "layer_2_propagation/layer_2/weights_and_biases/random_normal_2"
  attr {
    key: "T"
    value {
      type: DT_FLOAT
    }
  }
  attr {
    key: "_class"
    value {
      list {
        s: "loc:@layer_2_propagation/layer_2/weights_and_biases/gate_weight"
      }
    }
  }
  attr {
    key: "use_locking"
    value {
      b: true
    }
  }
  attr {
    key: "validate_shape"
    value {
      b: true
    }
  }
}
node {
  name: "layer_2_propagation/layer_2/weights_and_biases/gate_weight/read"
  op: "Identity"
  input: "layer_2_propagation/layer_2/weights_and_biases/gate_weight"
  attr {
    key: "T"
    value {
      type: DT_FLOAT
    }
  }
  attr {
    key: "_class"
    value {
      list {
        s: "loc:@layer_2_propagation/layer_2/weights_and_biases/gate_weight"
      }
    }
  }
}
node {
  name: "layer_2_propagation/layer_2/weights_and_biases/random_normal_3/shape"
  op: "Const"
  attr {
    key: "dtype"
    value {
      type: DT_INT32
    }
  }
  attr {
    key: "value"
    value {
      tensor {
        dtype: DT_INT32
        tensor_shape {
          dim {
            size: 2
          }
        }
        tensor_content: "\032\000\000\000\031\000\000\000"
      }
    }
  }
}
node {
  name: "layer_2_propagation/layer_2/weights_and_biases/random_normal_3/mean"
  op: "Const"
  attr {
    key: "dtype"
    value {
      type: DT_FLOAT
    }
  }
  attr {
    key: "value"
    value {
      tensor {
        dtype: DT_FLOAT
        tensor_shape {
        }
        float_val: 0.0
      }
    }
  }
}
node {
  name: "layer_2_propagation/layer_2/weights_and_biases/random_normal_3/stddev"
  op: "Const"
  attr {
    key: "dtype"
    value {
      type: DT_FLOAT
    }
  }
  attr {
    key: "value"
    value {
      tensor {
        dtype: DT_FLOAT
        tensor_shape {
        }
        float_val: 1.0
      }
    }
  }
}
node {
  name: "layer_2_propagation/layer_2/weights_and_biases/random_normal_3/RandomStandardNormal"
  op: "RandomStandardNormal"
  input: "layer_2_propagation/layer_2/weights_and_biases/random_normal_3/shape"
  attr {
    key: "T"
    value {
      type: DT_INT32
    }
  }
  attr {
    key: "dtype"
    value {
      type: DT_FLOAT
    }
  }
  attr {
    key: "seed"
    value {
      i: 0
    }
  }
  attr {
    key: "seed2"
    value {
      i: 0
    }
  }
}
node {
  name: "layer_2_propagation/layer_2/weights_and_biases/random_normal_3/mul"
  op: "Mul"
  input: "layer_2_propagation/layer_2/weights_and_biases/random_normal_3/RandomStandardNormal"
  input: "layer_2_propagation/layer_2/weights_and_biases/random_normal_3/stddev"
  attr {
    key: "T"
    value {
      type: DT_FLOAT
    }
  }
}
node {
  name: "layer_2_propagation/layer_2/weights_and_biases/random_normal_3"
  op: "Add"
  input: "layer_2_propagation/layer_2/weights_and_biases/random_normal_3/mul"
  input: "layer_2_propagation/layer_2/weights_and_biases/random_normal_3/mean"
  attr {
    key: "T"
    value {
      type: DT_FLOAT
    }
  }
}
node {
  name: "layer_2_propagation/layer_2/weights_and_biases/input_weight"
  op: "VariableV2"
  attr {
    key: "container"
    value {
      s: ""
    }
  }
  attr {
    key: "dtype"
    value {
      type: DT_FLOAT
    }
  }
  attr {
    key: "shape"
    value {
      shape {
        dim {
          size: 26
        }
        dim {
          size: 25
        }
      }
    }
  }
  attr {
    key: "shared_name"
    value {
      s: ""
    }
  }
}
node {
  name: "layer_2_propagation/layer_2/weights_and_biases/input_weight/Assign"
  op: "Assign"
  input: "layer_2_propagation/layer_2/weights_and_biases/input_weight"
  input: "layer_2_propagation/layer_2/weights_and_biases/random_normal_3"
  attr {
    key: "T"
    value {
      type: DT_FLOAT
    }
  }
  attr {
    key: "_class"
    value {
      list {
        s: "loc:@layer_2_propagation/layer_2/weights_and_biases/input_weight"
      }
    }
  }
  attr {
    key: "use_locking"
    value {
      b: true
    }
  }
  attr {
    key: "validate_shape"
    value {
      b: true
    }
  }
}
node {
  name: "layer_2_propagation/layer_2/weights_and_biases/input_weight/read"
  op: "Identity"
  input: "layer_2_propagation/layer_2/weights_and_biases/input_weight"
  attr {
    key: "T"
    value {
      type: DT_FLOAT
    }
  }
  attr {
    key: "_class"
    value {
      list {
        s: "loc:@layer_2_propagation/layer_2/weights_and_biases/input_weight"
      }
    }
  }
}
node {
  name: "layer_2_propagation/layer_2/weights_and_biases/random_normal_4/shape"
  op: "Const"
  attr {
    key: "dtype"
    value {
      type: DT_INT32
    }
  }
  attr {
    key: "value"
    value {
      tensor {
        dtype: DT_INT32
        tensor_shape {
          dim {
            size: 2
          }
        }
        tensor_content: "\031\000\000\000\001\000\000\000"
      }
    }
  }
}
node {
  name: "layer_2_propagation/layer_2/weights_and_biases/random_normal_4/mean"
  op: "Const"
  attr {
    key: "dtype"
    value {
      type: DT_FLOAT
    }
  }
  attr {
    key: "value"
    value {
      tensor {
        dtype: DT_FLOAT
        tensor_shape {
        }
        float_val: 0.0
      }
    }
  }
}
node {
  name: "layer_2_propagation/layer_2/weights_and_biases/random_normal_4/stddev"
  op: "Const"
  attr {
    key: "dtype"
    value {
      type: DT_FLOAT
    }
  }
  attr {
    key: "value"
    value {
      tensor {
        dtype: DT_FLOAT
        tensor_shape {
        }
        float_val: 1.0
      }
    }
  }
}
node {
  name: "layer_2_propagation/layer_2/weights_and_biases/random_normal_4/RandomStandardNormal"
  op: "RandomStandardNormal"
  input: "layer_2_propagation/layer_2/weights_and_biases/random_normal_4/shape"
  attr {
    key: "T"
    value {
      type: DT_INT32
    }
  }
  attr {
    key: "dtype"
    value {
      type: DT_FLOAT
    }
  }
  attr {
    key: "seed"
    value {
      i: 0
    }
  }
  attr {
    key: "seed2"
    value {
      i: 0
    }
  }
}
node {
  name: "layer_2_propagation/layer_2/weights_and_biases/random_normal_4/mul"
  op: "Mul"
  input: "layer_2_propagation/layer_2/weights_and_biases/random_normal_4/RandomStandardNormal"
  input: "layer_2_propagation/layer_2/weights_and_biases/random_normal_4/stddev"
  attr {
    key: "T"
    value {
      type: DT_FLOAT
    }
  }
}
node {
  name: "layer_2_propagation/layer_2/weights_and_biases/random_normal_4"
  op: "Add"
  input: "layer_2_propagation/layer_2/weights_and_biases/random_normal_4/mul"
  input: "layer_2_propagation/layer_2/weights_and_biases/random_normal_4/mean"
  attr {
    key: "T"
    value {
      type: DT_FLOAT
    }
  }
}
node {
  name: "layer_2_propagation/layer_2/weights_and_biases/outwards_propagating_weight"
  op: "VariableV2"
  attr {
    key: "container"
    value {
      s: ""
    }
  }
  attr {
    key: "dtype"
    value {
      type: DT_FLOAT
    }
  }
  attr {
    key: "shape"
    value {
      shape {
        dim {
          size: 25
        }
        dim {
          size: 1
        }
      }
    }
  }
  attr {
    key: "shared_name"
    value {
      s: ""
    }
  }
}
node {
  name: "layer_2_propagation/layer_2/weights_and_biases/outwards_propagating_weight/Assign"
  op: "Assign"
  input: "layer_2_propagation/layer_2/weights_and_biases/outwards_propagating_weight"
  input: "layer_2_propagation/layer_2/weights_and_biases/random_normal_4"
  attr {
    key: "T"
    value {
      type: DT_FLOAT
    }
  }
  attr {
    key: "_class"
    value {
      list {
        s: "loc:@layer_2_propagation/layer_2/weights_and_biases/outwards_propagating_weight"
      }
    }
  }
  attr {
    key: "use_locking"
    value {
      b: true
    }
  }
  attr {
    key: "validate_shape"
    value {
      b: true
    }
  }
}
node {
  name: "layer_2_propagation/layer_2/weights_and_biases/outwards_propagating_weight/read"
  op: "Identity"
  input: "layer_2_propagation/layer_2/weights_and_biases/outwards_propagating_weight"
  attr {
    key: "T"
    value {
      type: DT_FLOAT
    }
  }
  attr {
    key: "_class"
    value {
      list {
        s: "loc:@layer_2_propagation/layer_2/weights_and_biases/outwards_propagating_weight"
      }
    }
  }
}
node {
  name: "layer_2_propagation/layer_2/weights_and_biases/zeros"
  op: "Const"
  attr {
    key: "dtype"
    value {
      type: DT_FLOAT
    }
  }
  attr {
    key: "value"
    value {
      tensor {
        dtype: DT_FLOAT
        tensor_shape {
          dim {
            size: 1
          }
          dim {
            size: 25
          }
        }
        float_val: 0.0
      }
    }
  }
}
node {
  name: "layer_2_propagation/layer_2/weights_and_biases/forget_bias"
  op: "VariableV2"
  attr {
    key: "container"
    value {
      s: ""
    }
  }
  attr {
    key: "dtype"
    value {
      type: DT_FLOAT
    }
  }
  attr {
    key: "shape"
    value {
      shape {
        dim {
          size: 1
        }
        dim {
          size: 25
        }
      }
    }
  }
  attr {
    key: "shared_name"
    value {
      s: ""
    }
  }
}
node {
  name: "layer_2_propagation/layer_2/weights_and_biases/forget_bias/Assign"
  op: "Assign"
  input: "layer_2_propagation/layer_2/weights_and_biases/forget_bias"
  input: "layer_2_propagation/layer_2/weights_and_biases/zeros"
  attr {
    key: "T"
    value {
      type: DT_FLOAT
    }
  }
  attr {
    key: "_class"
    value {
      list {
        s: "loc:@layer_2_propagation/layer_2/weights_and_biases/forget_bias"
      }
    }
  }
  attr {
    key: "use_locking"
    value {
      b: true
    }
  }
  attr {
    key: "validate_shape"
    value {
      b: true
    }
  }
}
node {
  name: "layer_2_propagation/layer_2/weights_and_biases/forget_bias/read"
  op: "Identity"
  input: "layer_2_propagation/layer_2/weights_and_biases/forget_bias"
  attr {
    key: "T"
    value {
      type: DT_FLOAT
    }
  }
  attr {
    key: "_class"
    value {
      list {
        s: "loc:@layer_2_propagation/layer_2/weights_and_biases/forget_bias"
      }
    }
  }
}
node {
  name: "layer_2_propagation/layer_2/weights_and_biases/zeros_1"
  op: "Const"
  attr {
    key: "dtype"
    value {
      type: DT_FLOAT
    }
  }
  attr {
    key: "value"
    value {
      tensor {
        dtype: DT_FLOAT
        tensor_shape {
          dim {
            size: 1
          }
          dim {
            size: 25
          }
        }
        float_val: 0.0
      }
    }
  }
}
node {
  name: "layer_2_propagation/layer_2/weights_and_biases/output_bias"
  op: "VariableV2"
  attr {
    key: "container"
    value {
      s: ""
    }
  }
  attr {
    key: "dtype"
    value {
      type: DT_FLOAT
    }
  }
  attr {
    key: "shape"
    value {
      shape {
        dim {
          size: 1
        }
        dim {
          size: 25
        }
      }
    }
  }
  attr {
    key: "shared_name"
    value {
      s: ""
    }
  }
}
node {
  name: "layer_2_propagation/layer_2/weights_and_biases/output_bias/Assign"
  op: "Assign"
  input: "layer_2_propagation/layer_2/weights_and_biases/output_bias"
  input: "layer_2_propagation/layer_2/weights_and_biases/zeros_1"
  attr {
    key: "T"
    value {
      type: DT_FLOAT
    }
  }
  attr {
    key: "_class"
    value {
      list {
        s: "loc:@layer_2_propagation/layer_2/weights_and_biases/output_bias"
      }
    }
  }
  attr {
    key: "use_locking"
    value {
      b: true
    }
  }
  attr {
    key: "validate_shape"
    value {
      b: true
    }
  }
}
node {
  name: "layer_2_propagation/layer_2/weights_and_biases/output_bias/read"
  op: "Identity"
  input: "layer_2_propagation/layer_2/weights_and_biases/output_bias"
  attr {
    key: "T"
    value {
      type: DT_FLOAT
    }
  }
  attr {
    key: "_class"
    value {
      list {
        s: "loc:@layer_2_propagation/layer_2/weights_and_biases/output_bias"
      }
    }
  }
}
node {
  name: "layer_2_propagation/layer_2/weights_and_biases/zeros_2"
  op: "Const"
  attr {
    key: "dtype"
    value {
      type: DT_FLOAT
    }
  }
  attr {
    key: "value"
    value {
      tensor {
        dtype: DT_FLOAT
        tensor_shape {
          dim {
            size: 1
          }
          dim {
            size: 25
          }
        }
        float_val: 0.0
      }
    }
  }
}
node {
  name: "layer_2_propagation/layer_2/weights_and_biases/gate_bias"
  op: "VariableV2"
  attr {
    key: "container"
    value {
      s: ""
    }
  }
  attr {
    key: "dtype"
    value {
      type: DT_FLOAT
    }
  }
  attr {
    key: "shape"
    value {
      shape {
        dim {
          size: 1
        }
        dim {
          size: 25
        }
      }
    }
  }
  attr {
    key: "shared_name"
    value {
      s: ""
    }
  }
}
node {
  name: "layer_2_propagation/layer_2/weights_and_biases/gate_bias/Assign"
  op: "Assign"
  input: "layer_2_propagation/layer_2/weights_and_biases/gate_bias"
  input: "layer_2_propagation/layer_2/weights_and_biases/zeros_2"
  attr {
    key: "T"
    value {
      type: DT_FLOAT
    }
  }
  attr {
    key: "_class"
    value {
      list {
        s: "loc:@layer_2_propagation/layer_2/weights_and_biases/gate_bias"
      }
    }
  }
  attr {
    key: "use_locking"
    value {
      b: true
    }
  }
  attr {
    key: "validate_shape"
    value {
      b: true
    }
  }
}
node {
  name: "layer_2_propagation/layer_2/weights_and_biases/gate_bias/read"
  op: "Identity"
  input: "layer_2_propagation/layer_2/weights_and_biases/gate_bias"
  attr {
    key: "T"
    value {
      type: DT_FLOAT
    }
  }
  attr {
    key: "_class"
    value {
      list {
        s: "loc:@layer_2_propagation/layer_2/weights_and_biases/gate_bias"
      }
    }
  }
}
node {
  name: "layer_2_propagation/layer_2/weights_and_biases/zeros_3"
  op: "Const"
  attr {
    key: "dtype"
    value {
      type: DT_FLOAT
    }
  }
  attr {
    key: "value"
    value {
      tensor {
        dtype: DT_FLOAT
        tensor_shape {
          dim {
            size: 1
          }
          dim {
            size: 25
          }
        }
        float_val: 0.0
      }
    }
  }
}
node {
  name: "layer_2_propagation/layer_2/weights_and_biases/input_bias"
  op: "VariableV2"
  attr {
    key: "container"
    value {
      s: ""
    }
  }
  attr {
    key: "dtype"
    value {
      type: DT_FLOAT
    }
  }
  attr {
    key: "shape"
    value {
      shape {
        dim {
          size: 1
        }
        dim {
          size: 25
        }
      }
    }
  }
  attr {
    key: "shared_name"
    value {
      s: ""
    }
  }
}
node {
  name: "layer_2_propagation/layer_2/weights_and_biases/input_bias/Assign"
  op: "Assign"
  input: "layer_2_propagation/layer_2/weights_and_biases/input_bias"
  input: "layer_2_propagation/layer_2/weights_and_biases/zeros_3"
  attr {
    key: "T"
    value {
      type: DT_FLOAT
    }
  }
  attr {
    key: "_class"
    value {
      list {
        s: "loc:@layer_2_propagation/layer_2/weights_and_biases/input_bias"
      }
    }
  }
  attr {
    key: "use_locking"
    value {
      b: true
    }
  }
  attr {
    key: "validate_shape"
    value {
      b: true
    }
  }
}
node {
  name: "layer_2_propagation/layer_2/weights_and_biases/input_bias/read"
  op: "Identity"
  input: "layer_2_propagation/layer_2/weights_and_biases/input_bias"
  attr {
    key: "T"
    value {
      type: DT_FLOAT
    }
  }
  attr {
    key: "_class"
    value {
      list {
        s: "loc:@layer_2_propagation/layer_2/weights_and_biases/input_bias"
      }
    }
  }
}
node {
  name: "layer_2_propagation/layer_2/weights_and_biases/zeros_4"
  op: "Const"
  attr {
    key: "dtype"
    value {
      type: DT_FLOAT
    }
  }
  attr {
    key: "value"
    value {
      tensor {
        dtype: DT_FLOAT
        tensor_shape {
          dim {
            size: 1
          }
          dim {
            size: 1
          }
        }
        float_val: 0.0
      }
    }
  }
}
node {
  name: "layer_2_propagation/layer_2/weights_and_biases/outwards_propagating_bias"
  op: "VariableV2"
  attr {
    key: "container"
    value {
      s: ""
    }
  }
  attr {
    key: "dtype"
    value {
      type: DT_FLOAT
    }
  }
  attr {
    key: "shape"
    value {
      shape {
        dim {
          size: 1
        }
        dim {
          size: 1
        }
      }
    }
  }
  attr {
    key: "shared_name"
    value {
      s: ""
    }
  }
}
node {
  name: "layer_2_propagation/layer_2/weights_and_biases/outwards_propagating_bias/Assign"
  op: "Assign"
  input: "layer_2_propagation/layer_2/weights_and_biases/outwards_propagating_bias"
  input: "layer_2_propagation/layer_2/weights_and_biases/zeros_4"
  attr {
    key: "T"
    value {
      type: DT_FLOAT
    }
  }
  attr {
    key: "_class"
    value {
      list {
        s: "loc:@layer_2_propagation/layer_2/weights_and_biases/outwards_propagating_bias"
      }
    }
  }
  attr {
    key: "use_locking"
    value {
      b: true
    }
  }
  attr {
    key: "validate_shape"
    value {
      b: true
    }
  }
}
node {
  name: "layer_2_propagation/layer_2/weights_and_biases/outwards_propagating_bias/read"
  op: "Identity"
  input: "layer_2_propagation/layer_2/weights_and_biases/outwards_propagating_bias"
  attr {
    key: "T"
    value {
      type: DT_FLOAT
    }
  }
  attr {
    key: "_class"
    value {
      list {
        s: "loc:@layer_2_propagation/layer_2/weights_and_biases/outwards_propagating_bias"
      }
    }
  }
}
node {
  name: "layer_2_propagation/layer_2/forward_roll/scan/TensorArray/size"
  op: "Const"
  attr {
    key: "dtype"
    value {
      type: DT_INT32
    }
  }
  attr {
    key: "value"
    value {
      tensor {
        dtype: DT_INT32
        tensor_shape {
        }
        int_val: 9
      }
    }
  }
}
node {
  name: "layer_2_propagation/layer_2/forward_roll/scan/TensorArray"
  op: "TensorArrayV3"
  input: "layer_2_propagation/layer_2/forward_roll/scan/TensorArray/size"
  attr {
    key: "clear_after_read"
    value {
      b: true
    }
  }
  attr {
    key: "dtype"
    value {
      type: DT_FLOAT
    }
  }
  attr {
    key: "dynamic_size"
    value {
      b: false
    }
  }
  attr {
    key: "element_shape"
    value {
      shape {
        unknown_rank: true
      }
    }
  }
  attr {
    key: "identical_element_shapes"
    value {
      b: true
    }
  }
  attr {
    key: "tensor_array_name"
    value {
      s: ""
    }
  }
}
node {
  name: "layer_2_propagation/layer_2/forward_roll/scan/TensorArrayUnstack/Shape"
  op: "Const"
  attr {
    key: "dtype"
    value {
      type: DT_INT32
    }
  }
  attr {
    key: "value"
    value {
      tensor {
        dtype: DT_INT32
        tensor_shape {
          dim {
            size: 3
          }
        }
        tensor_content: "\t\000\000\000\001\000\000\000\001\000\000\000"
      }
    }
  }
}
node {
  name: "layer_2_propagation/layer_2/forward_roll/scan/TensorArrayUnstack/strided_slice/stack"
  op: "Const"
  attr {
    key: "dtype"
    value {
      type: DT_INT32
    }
  }
  attr {
    key: "value"
    value {
      tensor {
        dtype: DT_INT32
        tensor_shape {
          dim {
            size: 1
          }
        }
        int_val: 0
      }
    }
  }
}
node {
  name: "layer_2_propagation/layer_2/forward_roll/scan/TensorArrayUnstack/strided_slice/stack_1"
  op: "Const"
  attr {
    key: "dtype"
    value {
      type: DT_INT32
    }
  }
  attr {
    key: "value"
    value {
      tensor {
        dtype: DT_INT32
        tensor_shape {
          dim {
            size: 1
          }
        }
        int_val: 1
      }
    }
  }
}
node {
  name: "layer_2_propagation/layer_2/forward_roll/scan/TensorArrayUnstack/strided_slice/stack_2"
  op: "Const"
  attr {
    key: "dtype"
    value {
      type: DT_INT32
    }
  }
  attr {
    key: "value"
    value {
      tensor {
        dtype: DT_INT32
        tensor_shape {
          dim {
            size: 1
          }
        }
        int_val: 1
      }
    }
  }
}
node {
  name: "layer_2_propagation/layer_2/forward_roll/scan/TensorArrayUnstack/strided_slice"
  op: "StridedSlice"
  input: "layer_2_propagation/layer_2/forward_roll/scan/TensorArrayUnstack/Shape"
  input: "layer_2_propagation/layer_2/forward_roll/scan/TensorArrayUnstack/strided_slice/stack"
  input: "layer_2_propagation/layer_2/forward_roll/scan/TensorArrayUnstack/strided_slice/stack_1"
  input: "layer_2_propagation/layer_2/forward_roll/scan/TensorArrayUnstack/strided_slice/stack_2"
  attr {
    key: "Index"
    value {
      type: DT_INT32
    }
  }
  attr {
    key: "T"
    value {
      type: DT_INT32
    }
  }
  attr {
    key: "begin_mask"
    value {
      i: 0
    }
  }
  attr {
    key: "ellipsis_mask"
    value {
      i: 0
    }
  }
  attr {
    key: "end_mask"
    value {
      i: 0
    }
  }
  attr {
    key: "new_axis_mask"
    value {
      i: 0
    }
  }
  attr {
    key: "shrink_axis_mask"
    value {
      i: 1
    }
  }
}
node {
  name: "layer_2_propagation/layer_2/forward_roll/scan/TensorArrayUnstack/range/start"
  op: "Const"
  attr {
    key: "dtype"
    value {
      type: DT_INT32
    }
  }
  attr {
    key: "value"
    value {
      tensor {
        dtype: DT_INT32
        tensor_shape {
        }
        int_val: 0
      }
    }
  }
}
node {
  name: "layer_2_propagation/layer_2/forward_roll/scan/TensorArrayUnstack/range/delta"
  op: "Const"
  attr {
    key: "dtype"
    value {
      type: DT_INT32
    }
  }
  attr {
    key: "value"
    value {
      tensor {
        dtype: DT_INT32
        tensor_shape {
        }
        int_val: 1
      }
    }
  }
}
node {
  name: "layer_2_propagation/layer_2/forward_roll/scan/TensorArrayUnstack/range"
  op: "Range"
  input: "layer_2_propagation/layer_2/forward_roll/scan/TensorArrayUnstack/range/start"
  input: "layer_2_propagation/layer_2/forward_roll/scan/TensorArrayUnstack/strided_slice"
  input: "layer_2_propagation/layer_2/forward_roll/scan/TensorArrayUnstack/range/delta"
  attr {
    key: "Tidx"
    value {
      type: DT_INT32
    }
  }
}
node {
  name: "layer_2_propagation/layer_2/forward_roll/scan/TensorArrayUnstack/TensorArrayScatter/TensorArrayScatterV3"
  op: "TensorArrayScatterV3"
  input: "layer_2_propagation/layer_2/forward_roll/scan/TensorArray"
  input: "layer_2_propagation/layer_2/forward_roll/scan/TensorArrayUnstack/range"
  input: "layer_1_propagation/Reshape"
  input: "layer_2_propagation/layer_2/forward_roll/scan/TensorArray:1"
  attr {
    key: "T"
    value {
      type: DT_FLOAT
    }
  }
  attr {
    key: "_class"
    value {
      list {
        s: "loc:@layer_1_propagation/Reshape"
      }
    }
  }
}
node {
  name: "layer_2_propagation/layer_2/forward_roll/scan/Const"
  op: "Const"
  attr {
    key: "dtype"
    value {
      type: DT_INT32
    }
  }
  attr {
    key: "value"
    value {
      tensor {
        dtype: DT_INT32
        tensor_shape {
        }
        int_val: 0
      }
    }
  }
}
node {
  name: "layer_2_propagation/layer_2/forward_roll/scan/TensorArray_1/size"
  op: "Const"
  attr {
    key: "dtype"
    value {
      type: DT_INT32
    }
  }
  attr {
    key: "value"
    value {
      tensor {
        dtype: DT_INT32
        tensor_shape {
        }
        int_val: 9
      }
    }
  }
}
node {
  name: "layer_2_propagation/layer_2/forward_roll/scan/TensorArray_1"
  op: "TensorArrayV3"
  input: "layer_2_propagation/layer_2/forward_roll/scan/TensorArray_1/size"
  attr {
    key: "clear_after_read"
    value {
      b: true
    }
  }
  attr {
    key: "dtype"
    value {
      type: DT_FLOAT
    }
  }
  attr {
    key: "dynamic_size"
    value {
      b: false
    }
  }
  attr {
    key: "element_shape"
    value {
      shape {
        dim {
          size: 2
        }
        dim {
          size: 1
        }
        dim {
          size: 25
        }
      }
    }
  }
  attr {
    key: "identical_element_shapes"
    value {
      b: true
    }
  }
  attr {
    key: "tensor_array_name"
    value {
      s: ""
    }
  }
}
node {
  name: "layer_2_propagation/layer_2/forward_roll/scan/while/maximum_iterations"
  op: "Const"
  attr {
    key: "dtype"
    value {
      type: DT_INT32
    }
  }
  attr {
    key: "value"
    value {
      tensor {
        dtype: DT_INT32
        tensor_shape {
        }
        int_val: 9
      }
    }
  }
}
node {
  name: "layer_2_propagation/layer_2/forward_roll/scan/while/iteration_counter"
  op: "Const"
  attr {
    key: "dtype"
    value {
      type: DT_INT32
    }
  }
  attr {
    key: "value"
    value {
      tensor {
        dtype: DT_INT32
        tensor_shape {
        }
        int_val: 0
      }
    }
  }
}
node {
  name: "layer_2_propagation/layer_2/forward_roll/scan/while/Enter"
  op: "Enter"
  input: "layer_2_propagation/layer_2/forward_roll/scan/while/iteration_counter"
  attr {
    key: "T"
    value {
      type: DT_INT32
    }
  }
  attr {
    key: "frame_name"
    value {
      s: "layer_2_propagation/layer_2/forward_roll/scan/while/while_context"
    }
  }
  attr {
    key: "is_constant"
    value {
      b: false
    }
  }
  attr {
    key: "parallel_iterations"
    value {
      i: 10
    }
  }
}
node {
  name: "layer_2_propagation/layer_2/forward_roll/scan/while/Enter_1"
  op: "Enter"
  input: "layer_2_propagation/layer_2/forward_roll/scan/Const"
  attr {
    key: "T"
    value {
      type: DT_INT32
    }
  }
  attr {
    key: "frame_name"
    value {
      s: "layer_2_propagation/layer_2/forward_roll/scan/while/while_context"
    }
  }
  attr {
    key: "is_constant"
    value {
      b: false
    }
  }
  attr {
    key: "parallel_iterations"
    value {
      i: 10
    }
  }
}
node {
  name: "layer_2_propagation/layer_2/forward_roll/scan/while/Enter_2"
  op: "Enter"
  input: "placeholders/initial_states_2"
  attr {
    key: "T"
    value {
      type: DT_FLOAT
    }
  }
  attr {
    key: "frame_name"
    value {
      s: "layer_2_propagation/layer_2/forward_roll/scan/while/while_context"
    }
  }
  attr {
    key: "is_constant"
    value {
      b: false
    }
  }
  attr {
    key: "parallel_iterations"
    value {
      i: 10
    }
  }
}
node {
  name: "layer_2_propagation/layer_2/forward_roll/scan/while/Enter_3"
  op: "Enter"
  input: "layer_2_propagation/layer_2/forward_roll/scan/TensorArray_1:1"
  attr {
    key: "T"
    value {
      type: DT_FLOAT
    }
  }
  attr {
    key: "frame_name"
    value {
      s: "layer_2_propagation/layer_2/forward_roll/scan/while/while_context"
    }
  }
  attr {
    key: "is_constant"
    value {
      b: false
    }
  }
  attr {
    key: "parallel_iterations"
    value {
      i: 10
    }
  }
}
node {
  name: "layer_2_propagation/layer_2/forward_roll/scan/while/Merge"
  op: "Merge"
  input: "layer_2_propagation/layer_2/forward_roll/scan/while/Enter"
  input: "layer_2_propagation/layer_2/forward_roll/scan/while/NextIteration"
  attr {
    key: "N"
    value {
      i: 2
    }
  }
  attr {
    key: "T"
    value {
      type: DT_INT32
    }
  }
}
node {
  name: "layer_2_propagation/layer_2/forward_roll/scan/while/Merge_1"
  op: "Merge"
  input: "layer_2_propagation/layer_2/forward_roll/scan/while/Enter_1"
  input: "layer_2_propagation/layer_2/forward_roll/scan/while/NextIteration_1"
  attr {
    key: "N"
    value {
      i: 2
    }
  }
  attr {
    key: "T"
    value {
      type: DT_INT32
    }
  }
}
node {
  name: "layer_2_propagation/layer_2/forward_roll/scan/while/Merge_2"
  op: "Merge"
  input: "layer_2_propagation/layer_2/forward_roll/scan/while/Enter_2"
  input: "layer_2_propagation/layer_2/forward_roll/scan/while/NextIteration_2"
  attr {
    key: "N"
    value {
      i: 2
    }
  }
  attr {
    key: "T"
    value {
      type: DT_FLOAT
    }
  }
}
node {
  name: "layer_2_propagation/layer_2/forward_roll/scan/while/Merge_3"
  op: "Merge"
  input: "layer_2_propagation/layer_2/forward_roll/scan/while/Enter_3"
  input: "layer_2_propagation/layer_2/forward_roll/scan/while/NextIteration_3"
  attr {
    key: "N"
    value {
      i: 2
    }
  }
  attr {
    key: "T"
    value {
      type: DT_FLOAT
    }
  }
}
node {
  name: "layer_2_propagation/layer_2/forward_roll/scan/while/Less"
  op: "Less"
  input: "layer_2_propagation/layer_2/forward_roll/scan/while/Merge"
  input: "layer_2_propagation/layer_2/forward_roll/scan/while/Less/Enter"
  attr {
    key: "T"
    value {
      type: DT_INT32
    }
  }
}
node {
  name: "layer_2_propagation/layer_2/forward_roll/scan/while/Less/Enter"
  op: "Enter"
  input: "layer_2_propagation/layer_2/forward_roll/scan/while/maximum_iterations"
  attr {
    key: "T"
    value {
      type: DT_INT32
    }
  }
  attr {
    key: "frame_name"
    value {
      s: "layer_2_propagation/layer_2/forward_roll/scan/while/while_context"
    }
  }
  attr {
    key: "is_constant"
    value {
      b: true
    }
  }
  attr {
    key: "parallel_iterations"
    value {
      i: 10
    }
  }
}
node {
  name: "layer_2_propagation/layer_2/forward_roll/scan/while/Less_1/y"
  op: "Const"
  input: "^layer_2_propagation/layer_2/forward_roll/scan/while/Merge"
  attr {
    key: "dtype"
    value {
      type: DT_INT32
    }
  }
  attr {
    key: "value"
    value {
      tensor {
        dtype: DT_INT32
        tensor_shape {
        }
        int_val: 9
      }
    }
  }
}
node {
  name: "layer_2_propagation/layer_2/forward_roll/scan/while/Less_1"
  op: "Less"
  input: "layer_2_propagation/layer_2/forward_roll/scan/while/Merge_1"
  input: "layer_2_propagation/layer_2/forward_roll/scan/while/Less_1/y"
  attr {
    key: "T"
    value {
      type: DT_INT32
    }
  }
}
node {
  name: "layer_2_propagation/layer_2/forward_roll/scan/while/LogicalAnd"
  op: "LogicalAnd"
  input: "layer_2_propagation/layer_2/forward_roll/scan/while/Less"
  input: "layer_2_propagation/layer_2/forward_roll/scan/while/Less_1"
}
node {
  name: "layer_2_propagation/layer_2/forward_roll/scan/while/LoopCond"
  op: "LoopCond"
  input: "layer_2_propagation/layer_2/forward_roll/scan/while/LogicalAnd"
}
node {
  name: "layer_2_propagation/layer_2/forward_roll/scan/while/Switch"
  op: "Switch"
  input: "layer_2_propagation/layer_2/forward_roll/scan/while/Merge"
  input: "layer_2_propagation/layer_2/forward_roll/scan/while/LoopCond"
  attr {
    key: "T"
    value {
      type: DT_INT32
    }
  }
  attr {
    key: "_class"
    value {
      list {
        s: "loc:@layer_2_propagation/layer_2/forward_roll/scan/while/Merge"
      }
    }
  }
}
node {
  name: "layer_2_propagation/layer_2/forward_roll/scan/while/Switch_1"
  op: "Switch"
  input: "layer_2_propagation/layer_2/forward_roll/scan/while/Merge_1"
  input: "layer_2_propagation/layer_2/forward_roll/scan/while/LoopCond"
  attr {
    key: "T"
    value {
      type: DT_INT32
    }
  }
  attr {
    key: "_class"
    value {
      list {
…
        string_val: "layer_2_propagation/layer_2/weights_and_biases/forget_weight"
        string_val: "layer_2_propagation/layer_2/weights_and_biases/forget_weight/Adam"
        string_val: "layer_2_propagation/layer_2/weights_and_biases/forget_weight/Adam_1"
        string_val: "layer_2_propagation/layer_2/weights_and_biases/gate_bias"
        string_val: "layer_2_propagation/layer_2/weights_and_biases/gate_bias/Adam"
        string_val: "layer_2_propagation/layer_2/weights_and_biases/gate_bias/Adam_1"
        string_val: "layer_2_propagation/layer_2/weights_and_biases/gate_weight"
        string_val: "layer_2_propagation/layer_2/weights_and_biases/gate_weight/Adam"
        string_val: "layer_2_propagation/layer_2/weights_and_biases/gate_weight/Adam_1"
        string_val: "layer_2_propagation/layer_2/weights_and_biases/input_bias"
        string_val: "layer_2_propagation/layer_2/weights_and_biases/input_bias/Adam"
        string_val: "layer_2_propagation/layer_2/weights_and_biases/input_bias/Adam_1"
        string_val: "layer_2_propagation/layer_2/weights_and_biases/input_weight"
        string_val: "layer_2_propagation/layer_2/weights_and_biases/input_weight/Adam"
        string_val: "layer_2_propagation/layer_2/weights_and_biases/input_weight/Adam_1"
        string_val: "layer_2_propagation/layer_2/weights_and_biases/output_bias"
        string_val: "layer_2_propagation/layer_2/weights_and_biases/output_bias/Adam"
        string_val: "layer_2_propagation/layer_2/weights_and_biases/output_bias/Adam_1"
        string_val: "layer_2_propagation/layer_2/weights_and_biases/output_weight"
        string_val: "layer_2_propagation/layer_2/weights_and_biases/output_weight/Adam"
        string_val: "layer_2_propagation/layer_2/weights_and_biases/output_weight/Adam_1"
        string_val: "layer_2_propagation/layer_2/weights_and_biases/outwards_propagating_bias"
        string_val: "layer_2_propagation/layer_2/weights_and_biases/outwards_propagating_weight"
        string_val: "optimizer/beta1_power"
        string_val: "optimizer/beta2_power"
      }
    }
  }
}
node {
  name: "summaries_and_saver/save/RestoreV2/shape_and_slices"
  op: "Const"
  device: "/device:CPU:0"
  attr {
    key: "dtype"
    value {
      type: DT_STRING
    }
  }
  attr {
    key: "value"
    value {
      tensor {
        dtype: DT_STRING
        tensor_shape {
          dim {
            size: 66
          }
        }
        string_val: ""
        string_val: ""
        string_val: ""
        string_val: ""
        string_val: ""
        string_val: ""
        string_val: ""
        string_val: ""
        string_val: ""
        string_val: ""
        string_val: ""
        string_val: ""
        string_val: ""
        string_val: ""
        string_val: ""
        string_val: ""
        string_val: ""
        string_val: ""
        string_val: ""
        string_val: ""
        string_val: ""
        string_val: ""
        string_val: ""
        string_val: ""
        string_val: ""
        string_val: ""
        string_val: ""
        string_val: ""
        string_val: ""
        string_val: ""
        string_val: ""
        string_val: ""
        string_val: ""
        string_val: ""
        string_val: ""
        string_val: ""
        string_val: ""
        string_val: ""
        string_val: ""
        string_val: ""
        string_val: ""
        string_val: ""
        string_val: ""
        string_val: ""
        string_val: ""
        string_val: ""
        string_val: ""
        string_val: ""
        string_val: ""
        string_val: ""
        string_val: ""
        string_val: ""
        string_val: ""
        string_val: ""
        string_val: ""
        string_val: ""
        string_val: ""
        string_val: ""
        string_val: ""
        string_val: ""
        string_val: ""
        string_val: ""
        string_val: ""
        string_val: ""
        string_val: ""
        string_val: ""
      }
    }
  }
}
node {
  name: "summaries_and_saver/save/RestoreV2"
  op: "RestoreV2"
  input: "summaries_and_saver/save/Const"
  input: "summaries_and_saver/save/RestoreV2/tensor_names"
  input: "summaries_and_saver/save/RestoreV2/shape_and_slices"
  device: "/device:CPU:0"
  attr {
    key: "dtypes"
    value {
      list {
        type: DT_FLOAT
        type: DT_FLOAT
        type: DT_FLOAT
        type: DT_FLOAT
        type: DT_FLOAT
        type: DT_FLOAT
        type: DT_FLOAT
        type: DT_FLOAT
        type: DT_FLOAT
        type: DT_FLOAT
        type: DT_FLOAT
        type: DT_FLOAT
        type: DT_FLOAT
        type: DT_FLOAT
        type: DT_FLOAT
        type: DT_FLOAT
        type: DT_FLOAT
        type: DT_FLOAT
        type: DT_FLOAT
        type: DT_FLOAT
        type: DT_FLOAT
        type: DT_FLOAT
        type: DT_FLOAT
        type: DT_FLOAT
        type: DT_FLOAT
        type: DT_FLOAT
        type: DT_FLOAT
        type: DT_FLOAT
        type: DT_FLOAT
        type: DT_FLOAT
        type: DT_FLOAT
        type: DT_FLOAT
        type: DT_FLOAT
        type: DT_FLOAT
        type: DT_FLOAT
        type: DT_FLOAT
        type: DT_FLOAT
        type: DT_FLOAT
        type: DT_FLOAT
        type: DT_FLOAT
        type: DT_FLOAT
        type: DT_FLOAT
        type: DT_FLOAT
        type: DT_FLOAT
        type: DT_FLOAT
        type: DT_FLOAT
        type: DT_FLOAT
        type: DT_FLOAT
        type: DT_FLOAT
        type: DT_FLOAT
        type: DT_FLOAT
        type: DT_FLOAT
        type: DT_FLOAT
        type: DT_FLOAT
        type: DT_FLOAT
        type: DT_FLOAT
        type: DT_FLOAT
        type: DT_FLOAT
        type: DT_FLOAT
        type: DT_FLOAT
        type: DT_FLOAT
        type: DT_FLOAT
        type: DT_FLOAT
        type: DT_FLOAT
        type: DT_FLOAT
        type: DT_FLOAT
      }
    }
  }
}
node {
  name: "summaries_and_saver/save/Assign"
  op: "Assign"
  input: "aux_weights_and_biases/outwards_propagating_bias_1"
  input: "summaries_and_saver/save/RestoreV2"
  attr {
    key: "T"
    value {
      type: DT_FLOAT
    }
  }
  attr {
    key: "_class"
    value {
      list {
        s: "loc:@aux_weights_and_biases/outwards_propagating_bias_1"
      }
    }
  }
  attr {
    key: "use_locking"
    value {
      b: true
    }
  }
  attr {
    key: "validate_shape"
    value {
      b: true
    }
  }
}
node {
  name: "summaries_and_saver/save/Assign_1"
  op: "Assign"
  input: "aux_weights_and_biases/outwards_propagating_bias_1/Adam"
  input: "summaries_and_saver/save/RestoreV2:1"
  attr {
    key: "T"
    value {
      type: DT_FLOAT
    }
  }
  attr {
    key: "_class"
    value {
      list {
        s: "loc:@aux_weights_and_biases/outwards_propagating_bias_1"
      }
    }
  }
  attr {
    key: "use_locking"
    value {
      b: true
    }
  }
  attr {
    key: "validate_shape"
    value {
      b: true
    }
  }
}
node {
  name: "summaries_and_saver/save/Assign_2"
  op: "Assign"
  input: "aux_weights_and_biases/outwards_propagating_bias_1/Adam_1"
  input: "summaries_and_saver/save/RestoreV2:2"
  attr {
    key: "T"
    value {
      type: DT_FLOAT
    }
  }
  attr {
    key: "_class"
    value {
      list {
        s: "loc:@aux_weights_and_biases/outwards_propagating_bias_1"
      }
    }
  }
  attr {
    key: "use_locking"
    value {
      b: true
    }
  }
  attr {
    key: "validate_shape"
    value {
      b: true
    }
  }
}
node {
  name: "summaries_and_saver/save/Assign_3"
  op: "Assign"
  input: "aux_weights_and_biases/outwards_propagating_bias_2"
  input: "summaries_and_saver/save/RestoreV2:3"
  attr {
    key: "T"
    value {
      type: DT_FLOAT
    }
  }
  attr {
    key: "_class"
    value {
      list {
        s: "loc:@aux_weights_and_biases/outwards_propagating_bias_2"
      }
    }
  }
  attr {
    key: "use_locking"
    value {
      b: true
    }
  }
  attr {
    key: "validate_shape"
    value {
      b: true
    }
  }
}
node {
  name: "summaries_and_saver/save/Assign_4"
  op: "Assign"
  input: "aux_weights_and_biases/outwards_propagating_bias_2/Adam"
  input: "summaries_and_saver/save/RestoreV2:4"
  attr {
    key: "T"
    value {
      type: DT_FLOAT
    }
  }
  attr {
    key: "_class"
    value {
      list {
        s: "loc:@aux_weights_and_biases/outwards_propagating_bias_2"
      }
    }
  }
  attr {
    key: "use_locking"
    value {
      b: true
    }
  }
  attr {
    key: "validate_shape"
    value {
      b: true
    }
  }
}
node {
  name: "summaries_and_saver/save/Assign_5"
  op: "Assign"
  input: "aux_weights_and_biases/outwards_propagating_bias_2/Adam_1"
  input: "summaries_and_saver/save/RestoreV2:5"
  attr {
    key: "T"
    value {
      type: DT_FLOAT
    }
  }
  attr {
    key: "_class"
    value {
      list {
        s: "loc:@aux_weights_and_biases/outwards_propagating_bias_2"
      }
    }
  }
  attr {
    key: "use_locking"
    value {
      b: true
    }
  }
  attr {
    key: "validate_shape"
    value {
      b: true
    }
  }
}
node {
  name: "summaries_and_saver/save/Assign_6"
  op: "Assign"
  input: "aux_weights_and_biases/outwards_propagating_weight_1"
  input: "summaries_and_saver/save/RestoreV2:6"
  attr {
    key: "T"
    value {
      type: DT_FLOAT
    }
  }
  attr {
    key: "_class"
    value {
      list {
        s: "loc:@aux_weights_and_biases/outwards_propagating_weight_1"
      }
    }
  }
  attr {
    key: "use_locking"
    value {
      b: true
    }
  }
  attr {
    key: "validate_shape"
    value {
      b: true
    }
  }
}
node {
  name: "summaries_and_saver/save/Assign_7"
  op: "Assign"
  input: "aux_weights_and_biases/outwards_propagating_weight_1/Adam"
  input: "summaries_and_saver/save/RestoreV2:7"
  attr {
    key: "T"
    value {
      type: DT_FLOAT
    }
  }
  attr {
    key: "_class"
    value {
      list {
        s: "loc:@aux_weights_and_biases/outwards_propagating_weight_1"
      }
    }
  }
  attr {
    key: "use_locking"
    value {
      b: true
    }
  }
  attr {
    key: "validate_shape"
    value {
      b: true
    }
  }
}
node {
  name: "summaries_and_saver/save/Assign_8"
  op: "Assign"
  input: "aux_weights_and_biases/outwards_propagating_weight_1/Adam_1"
  input: "summaries_and_saver/save/RestoreV2:8"
  attr {
    key: "T"
    value {
      type: DT_FLOAT
    }
  }
  attr {
    key: "_class"
    value {
      list {
        s: "loc:@aux_weights_and_biases/outwards_propagating_weight_1"
      }
    }
  }
  attr {
    key: "use_locking"
    value {
      b: true
    }
  }
  attr {
    key: "validate_shape"
    value {
      b: true
    }
  }
}
node {
  name: "summaries_and_saver/save/Assign_9"
  op: "Assign"
  input: "aux_weights_and_biases/outwards_propagating_weight_2"
  input: "summaries_and_saver/save/RestoreV2:9"
  attr {
    key: "T"
    value {
      type: DT_FLOAT
    }
  }
  attr {
    key: "_class"
    value {
      list {
        s: "loc:@aux_weights_and_biases/outwards_propagating_weight_2"
      }
    }
  }
  attr {
    key: "use_locking"
    value {
      b: true
    }
  }
  attr {
    key: "validate_shape"
    value {
      b: true
    }
  }
}
node {
  name: "summaries_and_saver/save/Assign_10"
  op: "Assign"
  input: "aux_weights_and_biases/outwards_propagating_weight_2/Adam"
  input: "summaries_and_saver/save/RestoreV2:10"
  attr {
    key: "T"
    value {
      type: DT_FLOAT
    }
  }
  attr {
    key: "_class"
    value {
      list {
        s: "loc:@aux_weights_and_biases/outwards_propagating_weight_2"
      }
    }
  }
  attr {
    key: "use_locking"
    value {
      b: true
    }
  }
  attr {
    key: "validate_shape"
    value {
      b: true
    }
  }
}
node {
  name: "summaries_and_saver/save/Assign_11"
  op: "Assign"
  input: "aux_weights_and_biases/outwards_propagating_weight_2/Adam_1"
  input: "summaries_and_saver/save/RestoreV2:11"
  attr {
    key: "T"
    value {
      type: DT_FLOAT
    }
  }
  attr {
    key: "_class"
    value {
      list {
        s: "loc:@aux_weights_and_biases/outwards_propagating_weight_2"
      }
    }
  }
  attr {
    key: "use_locking"
    value {
      b: true
    }
  }
  attr {
    key: "validate_shape"
    value {
      b: true
    }
  }
}
node {
  name: "summaries_and_saver/save/Assign_12"
  op: "Assign"
  input: "layer_1_propagation/layer_1/weights_and_biases/forget_bias"
  input: "summaries_and_saver/save/RestoreV2:12"
  attr {
    key: "T"
    value {
      type: DT_FLOAT
    }
  }
  attr {
    key: "_class"
    value {
      list {
        s: "loc:@layer_1_propagation/layer_1/weights_and_biases/forget_bias"
      }
    }
  }
  attr {
    key: "use_locking"
    value {
      b: true
    }
  }
  attr {
    key: "validate_shape"
    value {
      b: true
    }
  }
}
node {
  name: "summaries_and_saver/save/Assign_13"
  op: "Assign"
  input: "layer_1_propagation/layer_1/weights_and_biases/forget_bias/Adam"
  input: "summaries_and_saver/save/RestoreV2:13"
  attr {
    key: "T"
    value {
      type: DT_FLOAT
    }
  }
  attr {
    key: "_class"
    value {
      list {
        s: "loc:@layer_1_propagation/layer_1/weights_and_biases/forget_bias"
      }
    }
  }
  attr {
    key: "use_locking"
    value {
      b: true
    }
  }
  attr {
    key: "validate_shape"
    value {
      b: true
    }
  }
}
node {
  name: "summaries_and_saver/save/Assign_14"
  op: "Assign"
  input: "layer_1_propagation/layer_1/weights_and_biases/forget_bias/Adam_1"
  input: "summaries_and_saver/save/RestoreV2:14"
  attr {
    key: "T"
    value {
      type: DT_FLOAT
    }
  }
  attr {
    key: "_class"
    value {
      list {
        s: "loc:@layer_1_propagation/layer_1/weights_and_biases/forget_bias"
      }
    }
  }
  attr {
    key: "use_locking"
    value {
      b: true
    }
  }
  attr {
    key: "validate_shape"
    value {
      b: true
    }
  }
}
node {
  name: "summaries_and_saver/save/Assign_15"
  op: "Assign"
  input: "layer_1_propagation/layer_1/weights_and_biases/forget_weight"
  input: "summaries_and_saver/save/RestoreV2:15"
  attr {
    key: "T"
    value {
      type: DT_FLOAT
    }
  }
  attr {
    key: "_class"
    value {
      list {
        s: "loc:@layer_1_propagation/layer_1/weights_and_biases/forget_weight"
      }
    }
  }
  attr {
    key: "use_locking"
    value {
      b: true
    }
  }
  attr {
    key: "validate_shape"
    value {
      b: true
    }
  }
}
node {
  name: "summaries_and_saver/save/Assign_16"
  op: "Assign"
  input: "layer_1_propagation/layer_1/weights_and_biases/forget_weight/Adam"
  input: "summaries_and_saver/save/RestoreV2:16"
  attr {
    key: "T"
    value {
      type: DT_FLOAT
    }
  }
  attr {
    key: "_class"
    value {
      list {
        s: "loc:@layer_1_propagation/layer_1/weights_and_biases/forget_weight"
      }
    }
  }
  attr {
    key: "use_locking"
    value {
      b: true
    }
  }
  attr {
    key: "validate_shape"
    value {
      b: true
    }
  }
}
node {
  name: "summaries_and_saver/save/Assign_17"
  op: "Assign"
  input: "layer_1_propagation/layer_1/weights_and_biases/forget_weight/Adam_1"
  input: "summaries_and_saver/save/RestoreV2:17"
  attr {
    key: "T"
    value {
      type: DT_FLOAT
    }
  }
  attr {
    key: "_class"
    value {
      list {
        s: "loc:@layer_1_propagation/layer_1/weights_and_biases/forget_weight"
      }
    }
  }
  attr {
    key: "use_locking"
    value {
      b: true
    }
  }
  attr {
    key: "validate_shape"
    value {
      b: true
    }
  }
}
node {
  name: "summaries_and_saver/save/Assign_18"
  op: "Assign"
  input: "layer_1_propagation/layer_1/weights_and_biases/gate_bias"
  input: "summaries_and_saver/save/RestoreV2:18"
  attr {
    key: "T"
    value {
      type: DT_FLOAT
    }
  }
  attr {
    key: "_class"
    value {
      list {
        s: "loc:@layer_1_propagation/layer_1/weights_and_biases/gate_bias"
      }
    }
  }
  attr {
    key: "use_locking"
    value {
      b: true
    }
  }
  attr {
    key: "validate_shape"
    value {
      b: true
    }
  }
}
node {
  name: "summaries_and_saver/save/Assign_19"
  op: "Assign"
  input: "layer_1_propagation/layer_1/weights_and_biases/gate_bias/Adam"
  input: "summaries_and_saver/save/RestoreV2:19"
  attr {
    key: "T"
    value {
      type: DT_FLOAT
    }
  }
  attr {
    key: "_class"
    value {
      list {
        s: "loc:@layer_1_propagation/layer_1/weights_and_biases/gate_bias"
      }
    }
  }
  attr {
    key: "use_locking"
    value {
      b: true
    }
  }
  attr {
    key: "validate_shape"
    value {
      b: true
    }
  }
}
node {
  name: "summaries_and_saver/save/Assign_20"
  op: "Assign"
  input: "layer_1_propagation/layer_1/weights_and_biases/gate_bias/Adam_1"
  input: "summaries_and_saver/save/RestoreV2:20"
  attr {
    key: "T"
    value {
      type: DT_FLOAT
    }
  }
  attr {
    key: "_class"
    value {
      list {
        s: "loc:@layer_1_propagation/layer_1/weights_and_biases/gate_bias"
      }
    }
  }
  attr {
    key: "use_locking"
    value {
      b: true
    }
  }
  attr {
    key: "validate_shape"
    value {
      b: true
    }
  }
}
node {
  name: "summaries_and_saver/save/Assign_21"
  op: "Assign"
  input: "layer_1_propagation/layer_1/weights_and_biases/gate_weight"
  input: "summaries_and_saver/save/RestoreV2:21"
  attr {
    key: "T"
    value {
      type: DT_FLOAT
    }
  }
  attr {
    key: "_class"
    value {
      list {
        s: "loc:@layer_1_propagation/layer_1/weights_and_biases/gate_weight"
      }
    }
  }
  attr {
    key: "use_locking"
    value {
      b: true
    }
  }
  attr {
    key: "validate_shape"
    value {
      b: true
    }
  }
}
node {
  name: "summaries_and_saver/save/Assign_22"
  op: "Assign"
  input: "layer_1_propagation/layer_1/weights_and_biases/gate_weight/Adam"
  input: "summaries_and_saver/save/RestoreV2:22"
  attr {
    key: "T"
    value {
      type: DT_FLOAT
    }
  }
  attr {
    key: "_class"
    value {
      list {
        s: "loc:@layer_1_propagation/layer_1/weights_and_biases/gate_weight"
      }
    }
  }
  attr {
    key: "use_locking"
    value {
      b: true
    }
  }
  attr {
    key: "validate_shape"
    value {
      b: true
    }
  }
}
node {
  name: "summaries_and_saver/save/Assign_23"
  op: "Assign"
  input: "layer_1_propagation/layer_1/weights_and_biases/gate_weight/Adam_1"
  input: "summaries_and_saver/save/RestoreV2:23"
  attr {
    key: "T"
    value {
      type: DT_FLOAT
    }
  }
  attr {
    key: "_class"
    value {
      list {
        s: "loc:@layer_1_propagation/layer_1/weights_and_biases/gate_weight"
      }
    }
  }
  attr {
    key: "use_locking"
    value {
      b: true
    }
  }
  attr {
    key: "validate_shape"
    value {
      b: true
    }
  }
}
node {
  name: "summaries_and_saver/save/Assign_24"
  op: "Assign"
  input: "layer_1_propagation/layer_1/weights_and_biases/input_bias"
  input: "summaries_and_saver/save/RestoreV2:24"
  attr {
    key: "T"
    value {
      type: DT_FLOAT
    }
  }
  attr {
    key: "_class"
    value {
      list {
        s: "loc:@layer_1_propagation/layer_1/weights_and_biases/input_bias"
      }
    }
  }
  attr {
    key: "use_locking"
    value {
      b: true
    }
  }
  attr {
    key: "validate_shape"
    value {
      b: true
    }
  }
}
node {
  name: "summaries_and_saver/save/Assign_25"
  op: "Assign"
  input: "layer_1_propagation/layer_1/weights_and_biases/input_bias/Adam"
  input: "summaries_and_saver/save/RestoreV2:25"
  attr {
    key: "T"
    value {
      type: DT_FLOAT
    }
  }
  attr {
    key: "_class"
    value {
      list {
        s: "loc:@layer_1_propagation/layer_1/weights_and_biases/input_bias"
      }
    }
  }
  attr {
    key: "use_locking"
    value {
      b: true
    }
  }
  attr {
    key: "validate_shape"
    value {
      b: true
    }
  }
}
node {
  name: "summaries_and_saver/save/Assign_26"
  op: "Assign"
  input: "layer_1_propagation/layer_1/weights_and_biases/input_bias/Adam_1"
  input: "summaries_and_saver/save/RestoreV2:26"
  attr {
    key: "T"
    value {
      type: DT_FLOAT
    }
  }
  attr {
    key: "_class"
    value {
      list {
        s: "loc:@layer_1_propagation/layer_1/weights_and_biases/input_bias"
      }
    }
  }
  attr {
    key: "use_locking"
    value {
      b: true
    }
  }
  attr {
    key: "validate_shape"
    value {
      b: true
    }
  }
}
node {
  name: "summaries_and_saver/save/Assign_27"
  op: "Assign"
  input: "layer_1_propagation/layer_1/weights_and_biases/input_weight"
  input: "summaries_and_saver/save/RestoreV2:27"
  attr {
    key: "T"
    value {
      type: DT_FLOAT
    }
  }
  attr {
    key: "_class"
    value {
      list {
        s: "loc:@layer_1_propagation/layer_1/weights_and_biases/input_weight"
      }
    }
  }
  attr {
    key: "use_locking"
    value {
      b: true
    }
  }
  attr {
    key: "validate_shape"
    value {
      b: true
    }
  }
}
node {
  name: "summaries_and_saver/save/Assign_28"
  op: "Assign"
  input: "layer_1_propagation/layer_1/weights_and_biases/input_weight/Adam"
  input: "summaries_and_saver/save/RestoreV2:28"
  attr {
    key: "T"
    value {
      type: DT_FLOAT
    }
  }
  attr {
    key: "_class"
    value {
      list {
        s: "loc:@layer_1_propagation/layer_1/weights_and_biases/input_weight"
      }
    }
  }
  attr {
    key: "use_locking"
    value {
      b: true
    }
  }
  attr {
    key: "validate_shape"
    value {
      b: true
    }
  }
}
node {
  name: "summaries_and_saver/save/Assign_29"
  op: "Assign"
  input: "layer_1_propagation/layer_1/weights_and_biases/input_weight/Adam_1"
  input: "summaries_and_saver/save/RestoreV2:29"
  attr {
    key: "T"
    value {
      type: DT_FLOAT
    }
  }
  attr {
    key: "_class"
    value {
      list {
        s: "loc:@layer_1_propagation/layer_1/weights_and_biases/input_weight"
      }
    }
  }
  attr {
    key: "use_locking"
    value {
      b: true
    }
  }
  attr {
    key: "validate_shape"
    value {
      b: true
    }
  }
}
node {
  name: "summaries_and_saver/save/Assign_30"
  op: "Assign"
  input: "layer_1_propagation/layer_1/weights_and_biases/output_bias"
  input: "summaries_and_saver/save/RestoreV2:30"
  attr {
    key: "T"
    value {
      type: DT_FLOAT
    }
  }
  attr {
    key: "_class"
    value {
      list {
        s: "loc:@layer_1_propagation/layer_1/weights_and_biases/output_bias"
      }
    }
  }
  attr {
    key: "use_locking"
    value {
      b: true
    }
  }
  attr {
    key: "validate_shape"
    value {
      b: true
    }
  }
}
node {
  name: "summaries_and_saver/save/Assign_31"
  op: "Assign"
  input: "layer_1_propagation/layer_1/weights_and_biases/output_bias/Adam"
  input: "summaries_and_saver/save/RestoreV2:31"
  attr {
    key: "T"
    value {
      type: DT_FLOAT
    }
  }
  attr {
    key: "_class"
    value {
      list {
        s: "loc:@layer_1_propagation/layer_1/weights_and_biases/output_bias"
      }
    }
  }
  attr {
    key: "use_locking"
    value {
      b: true
    }
  }
  attr {
    key: "validate_shape"
    value {
      b: true
    }
  }
}
node {
  name: "summaries_and_saver/save/Assign_32"
  op: "Assign"
  input: "layer_1_propagation/layer_1/weights_and_biases/output_bias/Adam_1"
  input: "summaries_and_saver/save/RestoreV2:32"
  attr {
    key: "T"
    value {
      type: DT_FLOAT
    }
  }
  attr {
    key: "_class"
    value {
      list {
        s: "loc:@layer_1_propagation/layer_1/weights_and_biases/output_bias"
      }
    }
  }
  attr {
    key: "use_locking"
    value {
      b: true
    }
  }
  attr {
    key: "validate_shape"
    value {
      b: true
    }
  }
}
node {
  name: "summaries_and_saver/save/Assign_33"
  op: "Assign"
  input: "layer_1_propagation/layer_1/weights_and_biases/output_weight"
  input: "summaries_and_saver/save/RestoreV2:33"
  attr {
    key: "T"
    value {
      type: DT_FLOAT
    }
  }
  attr {
    key: "_class"
    value {
      list {
        s: "loc:@layer_1_propagation/layer_1/weights_and_biases/output_weight"
      }
    }
  }
  attr {
    key: "use_locking"
    value {
      b: true
    }
  }
  attr {
    key: "validate_shape"
    value {
      b: true
    }
  }
}
node {
  name: "summaries_and_saver/save/Assign_34"
  op: "Assign"
  input: "layer_1_propagation/layer_1/weights_and_biases/output_weight/Adam"
  input: "summaries_and_saver/save/RestoreV2:34"
  attr {
    key: "T"
    value {
      type: DT_FLOAT
    }
  }
  attr {
    key: "_class"
    value {
      list {
        s: "loc:@layer_1_propagation/layer_1/weights_and_biases/output_weight"
      }
    }
  }
  attr {
    key: "use_locking"
    value {
      b: true
    }
  }
  attr {
    key: "validate_shape"
    value {
      b: true
    }
  }
}
node {
  name: "summaries_and_saver/save/Assign_35"
  op: "Assign"
  input: "layer_1_propagation/layer_1/weights_and_biases/output_weight/Adam_1"
  input: "summaries_and_saver/save/RestoreV2:35"
  attr {
    key: "T"
    value {
      type: DT_FLOAT
    }
  }
  attr {
    key: "_class"
    value {
      list {
        s: "loc:@layer_1_propagation/layer_1/weights_and_biases/output_weight"
      }
    }
  }
  attr {
    key: "use_locking"
    value {
      b: true
    }
  }
  attr {
    key: "validate_shape"
    value {
      b: true
    }
  }
}
node {
  name: "summaries_and_saver/save/Assign_36"
  op: "Assign"
  input: "layer_1_propagation/layer_1/weights_and_biases/outwards_propagating_bias"
  input: "summaries_and_saver/save/RestoreV2:36"
  attr {
    key: "T"
    value {
      type: DT_FLOAT
    }
  }
  attr {
    key: "_class"
    value {
      list {
        s: "loc:@layer_1_propagation/layer_1/weights_and_biases/outwards_propagating_bias"
      }
    }
  }
  attr {
    key: "use_locking"
    value {
      b: true
    }
  }
  attr {
    key: "validate_shape"
    value {
      b: true
    }
  }
}
node {
  name: "summaries_and_saver/save/Assign_37"
  op: "Assign"
  input: "layer_1_propagation/layer_1/weights_and_biases/outwards_propagating_weight"
  input: "summaries_and_saver/save/RestoreV2:37"
  attr {
    key: "T"
    value {
      type: DT_FLOAT
    }
  }
  attr {
    key: "_class"
    value {
      list {
        s: "loc:@layer_1_propagation/layer_1/weights_and_biases/outwards_propagating_weight"
      }
    }
  }
  attr {
    key: "use_locking"
    value {
      b: true
    }
  }
  attr {
    key: "validate_shape"
    value {
      b: true
    }
  }
}
node {
  name: "summaries_and_saver/save/Assign_38"
  op: "Assign"
  input: "layer_2_propagation/layer_2/weights_and_biases/forget_bias"
  input: "summaries_and_saver/save/RestoreV2:38"
  attr {
    key: "T"
    value {
      type: DT_FLOAT
    }
  }
  attr {
    key: "_class"
    value {
      list {
        s: "loc:@layer_2_propagation/layer_2/weights_and_biases/forget_bias"
      }
    }
  }
  attr {
    key: "use_locking"
    value {
      b: true
    }
  }
  attr {
    key: "validate_shape"
    value {
      b: true
    }
  }
}
node {
  name: "summaries_and_saver/save/Assign_39"
  op: "Assign"
  input: "layer_2_propagation/layer_2/weights_and_biases/forget_bias/Adam"
  input: "summaries_and_saver/save/RestoreV2:39"
  attr {
    key: "T"
    value {
      type: DT_FLOAT
    }
  }
  attr {
    key: "_class"
    value {
      list {
        s: "loc:@layer_2_propagation/layer_2/weights_and_biases/forget_bias"
      }
    }
  }
  attr {
    key: "use_locking"
    value {
      b: true
    }
  }
  attr {
    key: "validate_shape"
    value {
      b: true
    }
  }
}
node {
  name: "summaries_and_saver/save/Assign_40"
  op: "Assign"
  input: "layer_2_propagation/layer_2/weights_and_biases/forget_bias/Adam_1"
  input: "summaries_and_saver/save/RestoreV2:40"
  attr {
    key: "T"
    value {
      type: DT_FLOAT
    }
  }
  attr {
    key: "_class"
    value {
      list {
        s: "loc:@layer_2_propagation/layer_2/weights_and_biases/forget_bias"
      }
    }
  }
  attr {
    key: "use_locking"
    value {
      b: true
    }
  }
  attr {
    key: "validate_shape"
    value {
      b: true
    }
  }
}
node {
  name: "summaries_and_saver/save/Assign_41"
  op: "Assign"
  input: "layer_2_propagation/layer_2/weights_and_biases/forget_weight"
  input: "summaries_and_saver/save/RestoreV2:41"
  attr {
    key: "T"
    value {
      type: DT_FLOAT
    }
  }
  attr {
    key: "_class"
    value {
      list {
        s: "loc:@layer_2_propagation/layer_2/weights_and_biases/forget_weight"
      }
    }
  }
  attr {
    key: "use_locking"
    value {
      b: true
    }
  }
  attr {
    key: "validate_shape"
    value {
      b: true
    }
  }
}
node {
  name: "summaries_and_saver/save/Assign_42"
  op: "Assign"
  input: "layer_2_propagation/layer_2/weights_and_biases/forget_weight/Adam"
  input: "summaries_and_saver/save/RestoreV2:42"
  attr {
    key: "T"
    value {
      type: DT_FLOAT
    }
  }
  attr {
    key: "_class"
    value {
      list {
        s: "loc:@layer_2_propagation/layer_2/weights_and_biases/forget_weight"
      }
    }
  }
  attr {
    key: "use_locking"
    value {
      b: true
    }
  }
  attr {
    key: "validate_shape"
    value {
      b: true
    }
  }
}
node {
  name: "summaries_and_saver/save/Assign_43"
  op: "Assign"
  input: "layer_2_propagation/layer_2/weights_and_biases/forget_weight/Adam_1"
  input: "summaries_and_saver/save/RestoreV2:43"
  attr {
    key: "T"
    value {
      type: DT_FLOAT
    }
  }
  attr {
    key: "_class"
    value {
      list {
        s: "loc:@layer_2_propagation/layer_2/weights_and_biases/forget_weight"
      }
    }
  }
  attr {
    key: "use_locking"
    value {
      b: true
    }
  }
  attr {
    key: "validate_shape"
    value {
      b: true
    }
  }
}
node {
  name: "summaries_and_saver/save/Assign_44"
  op: "Assign"
  input: "layer_2_propagation/layer_2/weights_and_biases/gate_bias"
  input: "summaries_and_saver/save/RestoreV2:44"
  attr {
    key: "T"
    value {
      type: DT_FLOAT
    }
  }
  attr {
    key: "_class"
    value {
      list {
        s: "loc:@layer_2_propagation/layer_2/weights_and_biases/gate_bias"
      }
    }
  }
  attr {
    key: "use_locking"
    value {
      b: true
    }
  }
  attr {
    key: "validate_shape"
    value {
      b: true
    }
  }
}
node {
  name: "summaries_and_saver/save/Assign_45"
  op: "Assign"
  input: "layer_2_propagation/layer_2/weights_and_biases/gate_bias/Adam"
  input: "summaries_and_saver/save/RestoreV2:45"
  attr {
    key: "T"
    value {
      type: DT_FLOAT
    }
  }
  attr {
    key: "_class"
    value {
      list {
        s: "loc:@layer_2_propagation/layer_2/weights_and_biases/gate_bias"
      }
    }
  }
  attr {
    key: "use_locking"
    value {
      b: true
    }
  }
  attr {
    key: "validate_shape"
    value {
      b: true
    }
  }
}
node {
  name: "summaries_and_saver/save/Assign_46"
  op: "Assign"
  input: "layer_2_propagation/layer_2/weights_and_biases/gate_bias/Adam_1"
  input: "summaries_and_saver/save/RestoreV2:46"
  attr {
    key: "T"
    value {
      type: DT_FLOAT
    }
  }
  attr {
    key: "_class"
    value {
      list {
        s: "loc:@layer_2_propagation/layer_2/weights_and_biases/gate_bias"
      }
    }
  }
  attr {
    key: "use_locking"
    value {
      b: true
    }
  }
  attr {
    key: "validate_shape"
    value {
      b: true
    }
  }
}
node {
  name: "summaries_and_saver/save/Assign_47"
  op: "Assign"
  input: "layer_2_propagation/layer_2/weights_and_biases/gate_weight"
  input: "summaries_and_saver/save/RestoreV2:47"
  attr {
    key: "T"
    value {
      type: DT_FLOAT
    }
  }
  attr {
    key: "_class"
    value {
      list {
        s: "loc:@layer_2_propagation/layer_2/weights_and_biases/gate_weight"
      }
    }
  }
  attr {
    key: "use_locking"
    value {
      b: true
    }
  }
  attr {
    key: "validate_shape"
    value {
      b: true
    }
  }
}
node {
  name: "summaries_and_saver/save/Assign_48"
  op: "Assign"
  input: "layer_2_propagation/layer_2/weights_and_biases/gate_weight/Adam"
  input: "summaries_and_saver/save/RestoreV2:48"
  attr {
    key: "T"
    value {
      type: DT_FLOAT
    }
  }
  attr {
    key: "_class"
    value {
      list {
        s: "loc:@layer_2_propagation/layer_2/weights_and_biases/gate_weight"
      }
    }
  }
  attr {
    key: "use_locking"
    value {
      b: true
    }
  }
  attr {
    key: "validate_shape"
    value {
      b: true
    }
  }
}
node {
  name: "summaries_and_saver/save/Assign_49"
  op: "Assign"
  input: "layer_2_propagation/layer_2/weights_and_biases/gate_weight/Adam_1"
  input: "summaries_and_saver/save/RestoreV2:49"
  attr {
    key: "T"
    value {
      type: DT_FLOAT
    }
  }
  attr {
    key: "_class"
    value {
      list {
        s: "loc:@layer_2_propagation/layer_2/weights_and_biases/gate_weight"
      }
    }
  }
  attr {
    key: "use_locking"
    value {
      b: true
    }
  }
  attr {
    key: "validate_shape"
    value {
      b: true
    }
  }
}
node {
  name: "summaries_and_saver/save/Assign_50"
  op: "Assign"
  input: "layer_2_propagation/layer_2/weights_and_biases/input_bias"
  input: "summaries_and_saver/save/RestoreV2:50"
  attr {
    key: "T"
    value {
      type: DT_FLOAT
    }
  }
  attr {
    key: "_class"
    value {
      list {
        s: "loc:@layer_2_propagation/layer_2/weights_and_biases/input_bias"
      }
    }
  }
  attr {
    key: "use_locking"
    value {
      b: true
    }
  }
  attr {
    key: "validate_shape"
    value {
      b: true
    }
  }
}
node {
  name: "summaries_and_saver/save/Assign_51"
  op: "Assign"
  input: "layer_2_propagation/layer_2/weights_and_biases/input_bias/Adam"
  input: "summaries_and_saver/save/RestoreV2:51"
  attr {
    key: "T"
    value {
      type: DT_FLOAT
    }
  }
  attr {
    key: "_class"
    value {
      list {
        s: "loc:@layer_2_propagation/layer_2/weights_and_biases/input_bias"
      }
    }
  }
  attr {
    key: "use_locking"
    value {
      b: true
    }
  }
  attr {
    key: "validate_shape"
    value {
      b: true
    }
  }
}
node {
  name: "summaries_and_saver/save/Assign_52"
  op: "Assign"
  input: "layer_2_propagation/layer_2/weights_and_biases/input_bias/Adam_1"
  input: "summaries_and_saver/save/RestoreV2:52"
  attr {
    key: "T"
    value {
      type: DT_FLOAT
    }
  }
  attr {
    key: "_class"
    value {
      list {
        s: "loc:@layer_2_propagation/layer_2/weights_and_biases/input_bias"
      }
    }
  }
  attr {
    key: "use_locking"
    value {
      b: true
    }
  }
  attr {
    key: "validate_shape"
    value {
      b: true
    }
  }
}
node {
  name: "summaries_and_saver/save/Assign_53"
  op: "Assign"
  input: "layer_2_propagation/layer_2/weights_and_biases/input_weight"
  input: "summaries_and_saver/save/RestoreV2:53"
  attr {
    key: "T"
    value {
      type: DT_FLOAT
    }
  }
  attr {
    key: "_class"
    value {
      list {
        s: "loc:@layer_2_propagation/layer_2/weights_and_biases/input_weight"
      }
    }
  }
  attr {
    key: "use_locking"
    value {
      b: true
    }
  }
  attr {
    key: "validate_shape"
    value {
      b: true
    }
  }
}
node {
  name: "summaries_and_saver/save/Assign_54"
  op: "Assign"
  input: "layer_2_propagation/layer_2/weights_and_biases/input_weight/Adam"
  input: "summaries_and_saver/save/RestoreV2:54"
  attr {
    key: "T"
    value {
      type: DT_FLOAT
    }
  }
  attr {
    key: "_class"
    value {
      list {
        s: "loc:@layer_2_propagation/layer_2/weights_and_biases/input_weight"
      }
    }
  }
  attr {
    key: "use_locking"
    value {
      b: true
    }
  }
  attr {
    key: "validate_shape"
    value {
      b: true
    }
  }
}
node {
  name: "summaries_and_saver/save/Assign_55"
  op: "Assign"
  input: "layer_2_propagation/layer_2/weights_and_biases/input_weight/Adam_1"
  input: "summaries_and_saver/save/RestoreV2:55"
  attr {
    key: "T"
    value {
      type: DT_FLOAT
    }
  }
  attr {
    key: "_class"
    value {
      list {
        s: "loc:@layer_2_propagation/layer_2/weights_and_biases/input_weight"
      }
    }
  }
  attr {
    key: "use_locking"
    value {
      b: true
    }
  }
  attr {
    key: "validate_shape"
    value {
      b: true
    }
  }
}
node {
  name: "summaries_and_saver/save/Assign_56"
  op: "Assign"
  input: "layer_2_propagation/layer_2/weights_and_biases/output_bias"
  input: "summaries_and_saver/save/RestoreV2:56"
  attr {
    key: "T"
    value {
      type: DT_FLOAT
    }
  }
  attr {
    key: "_class"
    value {
      list {
        s: "loc:@layer_2_propagation/layer_2/weights_and_biases/output_bias"
      }
    }
  }
  attr {
    key: "use_locking"
    value {
      b: true
    }
  }
  attr {
    key: "validate_shape"
    value {
      b: true
    }
  }
}
node {
  name: "summaries_and_saver/save/Assign_57"
  op: "Assign"
  input: "layer_2_propagation/layer_2/weights_and_biases/output_bias/Adam"
  input: "summaries_and_saver/save/RestoreV2:57"
  attr {
    key: "T"
    value {
      type: DT_FLOAT
    }
  }
  attr {
    key: "_class"
    value {
      list {
        s: "loc:@layer_2_propagation/layer_2/weights_and_biases/output_bias"
      }
    }
  }
  attr {
    key: "use_locking"
    value {
      b: true
    }
  }
  attr {
    key: "validate_shape"
    value {
      b: true
    }
  }
}
node {
  name: "summaries_and_saver/save/Assign_58"
  op: "Assign"
  input: "layer_2_propagation/layer_2/weights_and_biases/output_bias/Adam_1"
  input: "summaries_and_saver/save/RestoreV2:58"
  attr {
    key: "T"
    value {
      type: DT_FLOAT
    }
  }
  attr {
    key: "_class"
    value {
      list {
        s: "loc:@layer_2_propagation/layer_2/weights_and_biases/output_bias"
      }
    }
  }
  attr {
    key: "use_locking"
    value {
      b: true
    }
  }
  attr {
    key: "validate_shape"
    value {
      b: true
    }
  }
}
node {
  name: "summaries_and_saver/save/Assign_59"
  op: "Assign"
  input: "layer_2_propagation/layer_2/weights_and_biases/output_weight"
  input: "summaries_and_saver/save/RestoreV2:59"
  attr {
    key: "T"
    value {
      type: DT_FLOAT
    }
  }
  attr {
    key: "_class"
    value {
      list {
        s: "loc:@layer_2_propagation/layer_2/weights_and_biases/output_weight"
      }
    }
  }
  attr {
    key: "use_locking"
    value {
      b: true
    }
  }
  attr {
    key: "validate_shape"
    value {
      b: true
    }
  }
}
node {
  name: "summaries_and_saver/save/Assign_60"
  op: "Assign"
  input: "layer_2_propagation/layer_2/weights_and_biases/output_weight/Adam"
  input: "summaries_and_saver/save/RestoreV2:60"
  attr {
    key: "T"
    value {
      type: DT_FLOAT
    }
  }
  attr {
    key: "_class"
    value {
      list {
        s: "loc:@layer_2_propagation/layer_2/weights_and_biases/output_weight"
      }
    }
  }
  attr {
    key: "use_locking"
    value {
      b: true
    }
  }
  attr {
    key: "validate_shape"
    value {
      b: true
    }
  }
}
node {
  name: "summaries_and_saver/save/Assign_61"
  op: "Assign"
  input: "layer_2_propagation/layer_2/weights_and_biases/output_weight/Adam_1"
  input: "summaries_and_saver/save/RestoreV2:61"
  attr {
    key: "T"
    value {
      type: DT_FLOAT
    }
  }
  attr {
    key: "_class"
    value {
      list {
        s: "loc:@layer_2_propagation/layer_2/weights_and_biases/output_weight"
      }
    }
  }
  attr {
    key: "use_locking"
    value {
      b: true
    }
  }
  attr {
    key: "validate_shape"
    value {
      b: true
    }
  }
}
node {
  name: "summaries_and_saver/save/Assign_62"
  op: "Assign"
  input: "layer_2_propagation/layer_2/weights_and_biases/outwards_propagating_bias"
  input: "summaries_and_saver/save/RestoreV2:62"
  attr {
    key: "T"
    value {
      type: DT_FLOAT
    }
  }
  attr {
    key: "_class"
    value {
      list {
        s: "loc:@layer_2_propagation/layer_2/weights_and_biases/outwards_propagating_bias"
      }
    }
  }
  attr {
    key: "use_locking"
    value {
      b: true
    }
  }
  attr {
    key: "validate_shape"
    value {
      b: true
    }
  }
}
node {
  name: "summaries_and_saver/save/Assign_63"
  op: "Assign"
  input: "layer_2_propagation/layer_2/weights_and_biases/outwards_propagating_weight"
  input: "summaries_and_saver/save/RestoreV2:63"
  attr {
    key: "T"
    value {
      type: DT_FLOAT
    }
  }
  attr {
    key: "_class"
    value {
      list {
        s: "loc:@layer_2_propagation/layer_2/weights_and_biases/outwards_propagating_weight"
      }
    }
  }
  attr {
    key: "use_locking"
    value {
      b: true
    }
  }
  attr {
    key: "validate_shape"
    value {
      b: true
    }
  }
}
node {
  name: "summaries_and_saver/save/Assign_64"
  op: "Assign"
  input: "optimizer/beta1_power"
  input: "summaries_and_saver/save/RestoreV2:64"
  attr {
    key: "T"
    value {
      type: DT_FLOAT
    }
  }
  attr {
    key: "_class"
    value {
      list {
        s: "loc:@aux_weights_and_biases/outwards_propagating_bias_1"
      }
    }
  }
  attr {
    key: "use_locking"
    value {
      b: true
    }
  }
  attr {
    key: "validate_shape"
    value {
      b: true
    }
  }
}
node {
  name: "summaries_and_saver/save/Assign_65"
  op: "Assign"
  input: "optimizer/beta2_power"
  input: "summaries_and_saver/save/RestoreV2:65"
  attr {
    key: "T"
    value {
      type: DT_FLOAT
    }
  }
  attr {
    key: "_class"
    value {
      list {
        s: "loc:@aux_weights_and_biases/outwards_propagating_bias_1"
      }
    }
  }
  attr {
    key: "use_locking"
    value {
      b: true
    }
  }
  attr {
    key: "validate_shape"
    value {
      b: true
    }
  }
}
node {
  name: "summaries_and_saver/save/restore_all"
  op: "NoOp"
  input: "^summaries_and_saver/save/Assign"
  input: "^summaries_and_saver/save/Assign_1"
  input: "^summaries_and_saver/save/Assign_10"
  input: "^summaries_and_saver/save/Assign_11"
  input: "^summaries_and_saver/save/Assign_12"
  input: "^summaries_and_saver/save/Assign_13"
  input: "^summaries_and_saver/save/Assign_14"
  input: "^summaries_and_saver/save/Assign_15"
  input: "^summaries_and_saver/save/Assign_16"
  input: "^summaries_and_saver/save/Assign_17"
  input: "^summaries_and_saver/save/Assign_18"
  input: "^summaries_and_saver/save/Assign_19"
  input: "^summaries_and_saver/save/Assign_2"
  input: "^summaries_and_saver/save/Assign_20"
  input: "^summaries_and_saver/save/Assign_21"
  input: "^summaries_and_saver/save/Assign_22"
  input: "^summaries_and_saver/save/Assign_23"
  input: "^summaries_and_saver/save/Assign_24"
  input: "^summaries_and_saver/save/Assign_25"
  input: "^summaries_and_saver/save/Assign_26"
  input: "^summaries_and_saver/save/Assign_27"
  input: "^summaries_and_saver/save/Assign_28"
  input: "^summaries_and_saver/save/Assign_29"
  input: "^summaries_and_saver/save/Assign_3"
  input: "^summaries_and_saver/save/Assign_30"
  input: "^summaries_and_saver/save/Assign_31"
  input: "^summaries_and_saver/save/Assign_32"
  input: "^summaries_and_saver/save/Assign_33"
  input: "^summaries_and_saver/save/Assign_34"
  input: "^summaries_and_saver/save/Assign_35"
  input: "^summaries_and_saver/save/Assign_36"
  input: "^summaries_and_saver/save/Assign_37"
  input: "^summaries_and_saver/save/Assign_38"
  input: "^summaries_and_saver/save/Assign_39"
  input: "^summaries_and_saver/save/Assign_4"
  input: "^summaries_and_saver/save/Assign_40"
  input: "^summaries_and_saver/save/Assign_41"
  input: "^summaries_and_saver/save/Assign_42"
  input: "^summaries_and_saver/save/Assign_43"
  input: "^summaries_and_saver/save/Assign_44"
  input: "^summaries_and_saver/save/Assign_45"
  input: "^summaries_and_saver/save/Assign_46"
  input: "^summaries_and_saver/save/Assign_47"
  input: "^summaries_and_saver/save/Assign_48"
  input: "^summaries_and_saver/save/Assign_49"
  input: "^summaries_and_saver/save/Assign_5"
  input: "^summaries_and_saver/save/Assign_50"
  input: "^summaries_and_saver/save/Assign_51"
  input: "^summaries_and_saver/save/Assign_52"
  input: "^summaries_and_saver/save/Assign_53"
  input: "^summaries_and_saver/save/Assign_54"
  input: "^summaries_and_saver/save/Assign_55"
  input: "^summaries_and_saver/save/Assign_56"
  input: "^summaries_and_saver/save/Assign_57"
  input: "^summaries_and_saver/save/Assign_58"
  input: "^summaries_and_saver/save/Assign_59"
  input: "^summaries_and_saver/save/Assign_6"
  input: "^summaries_and_saver/save/Assign_60"
  input: "^summaries_and_saver/save/Assign_61"
  input: "^summaries_and_saver/save/Assign_62"
  input: "^summaries_and_saver/save/Assign_63"
  input: "^summaries_and_saver/save/Assign_64"
  input: "^summaries_and_saver/save/Assign_65"
  input: "^summaries_and_saver/save/Assign_7"
  input: "^summaries_and_saver/save/Assign_8"
  input: "^summaries_and_saver/save/Assign_9"
}
node {
  name: "init"
  op: "NoOp"
  input: "^aux_weights_and_biases/outwards_propagating_bias_1/Adam/Assign"
  input: "^aux_weights_and_biases/outwards_propagating_bias_1/Adam_1/Assign"
  input: "^aux_weights_and_biases/outwards_propagating_bias_1/Assign"
  input: "^aux_weights_and_biases/outwards_propagating_bias_2/Adam/Assign"
  input: "^aux_weights_and_biases/outwards_propagating_bias_2/Adam_1/Assign"
  input: "^aux_weights_and_biases/outwards_propagating_bias_2/Assign"
  input: "^aux_weights_and_biases/outwards_propagating_weight_1/Adam/Assign"
  input: "^aux_weights_and_biases/outwards_propagating_weight_1/Adam_1/Assign"
  input: "^aux_weights_and_biases/outwards_propagating_weight_1/Assign"
  input: "^aux_weights_and_biases/outwards_propagating_weight_2/Adam/Assign"
  input: "^aux_weights_and_biases/outwards_propagating_weight_2/Adam_1/Assign"
  input: "^aux_weights_and_biases/outwards_propagating_weight_2/Assign"
  input: "^layer_1_propagation/layer_1/weights_and_biases/forget_bias/Adam/Assign"
  input: "^layer_1_propagation/layer_1/weights_and_biases/forget_bias/Adam_1/Assign"
  input: "^layer_1_propagation/layer_1/weights_and_biases/forget_bias/Assign"
  input: "^layer_1_propagation/layer_1/weights_and_biases/forget_weight/Adam/Assign"
  input: "^layer_1_propagation/layer_1/weights_and_biases/forget_weight/Adam_1/Assign"
  input: "^layer_1_propagation/layer_1/weights_and_biases/forget_weight/Assign"
  input: "^layer_1_propagation/layer_1/weights_and_biases/gate_bias/Adam/Assign"
  input: "^layer_1_propagation/layer_1/weights_and_biases/gate_bias/Adam_1/Assign"
  input: "^layer_1_propagation/layer_1/weights_and_biases/gate_bias/Assign"
  input: "^layer_1_propagation/layer_1/weights_and_biases/gate_weight/Adam/Assign"
  input: "^layer_1_propagation/layer_1/weights_and_biases/gate_weight/Adam_1/Assign"
  input: "^layer_1_propagation/layer_1/weights_and_biases/gate_weight/Assign"
  input: "^layer_1_propagation/layer_1/weights_and_biases/input_bias/Adam/Assign"
  input: "^layer_1_propagation/layer_1/weights_and_biases/input_bias/Adam_1/Assign"
  input: "^layer_1_propagation/layer_1/weights_and_biases/input_bias/Assign"
  input: "^layer_1_propagation/layer_1/weights_and_biases/input_weight/Adam/Assign"
  input: "^layer_1_propagation/layer_1/weights_and_biases/input_weight/Adam_1/Assign"
  input: "^layer_1_propagation/layer_1/weights_and_biases/input_weight/Assign"
  input: "^layer_1_propagation/layer_1/weights_and_biases/output_bias/Adam/Assign"
  input: "^layer_1_propagation/layer_1/weights_and_biases/output_bias/Adam_1/Assign"
  input: "^layer_1_propagation/layer_1/weights_and_biases/output_bias/Assign"
  input: "^layer_1_propagation/layer_1/weights_and_biases/output_weight/Adam/Assign"
  input: "^layer_1_propagation/layer_1/weights_and_biases/output_weight/Adam_1/Assign"
  input: "^layer_1_propagation/layer_1/weights_and_biases/output_weight/Assign"
  input: "^layer_1_propagation/layer_1/weights_and_biases/outwards_propagating_bias/Assign"
  input: "^layer_1_propagation/layer_1/weights_and_biases/outwards_propagating_weight/Assign"
  input: "^layer_2_propagation/layer_2/weights_and_biases/forget_bias/Adam/Assign"
  input: "^layer_2_propagation/layer_2/weights_and_biases/forget_bias/Adam_1/Assign"
  input: "^layer_2_propagation/layer_2/weights_and_biases/forget_bias/Assign"
  input: "^layer_2_propagation/layer_2/weights_and_biases/forget_weight/Adam/Assign"
  input: "^layer_2_propagation/layer_2/weights_and_biases/forget_weight/Adam_1/Assign"
  input: "^layer_2_propagation/layer_2/weights_and_biases/forget_weight/Assign"
  input: "^layer_2_propagation/layer_2/weights_and_biases/gate_bias/Adam/Assign"
  input: "^layer_2_propagation/layer_2/weights_and_biases/gate_bias/Adam_1/Assign"
  input: "^layer_2_propagation/layer_2/weights_and_biases/gate_bias/Assign"
  input: "^layer_2_propagation/layer_2/weights_and_biases/gate_weight/Adam/Assign"
  input: "^layer_2_propagation/layer_2/weights_and_biases/gate_weight/Adam_1/Assign"
  input: "^layer_2_propagation/layer_2/weights_and_biases/gate_weight/Assign"
  input: "^layer_2_propagation/layer_2/weights_and_biases/input_bias/Adam/Assign"
  input: "^layer_2_propagation/layer_2/weights_and_biases/input_bias/Adam_1/Assign"
  input: "^layer_2_propagation/layer_2/weights_and_biases/input_bias/Assign"
  input: "^layer_2_propagation/layer_2/weights_and_biases/input_weight/Adam/Assign"
  input: "^layer_2_propagation/layer_2/weights_and_biases/input_weight/Adam_1/Assign"
  input: "^layer_2_propagation/layer_2/weights_and_biases/input_weight/Assign"
  input: "^layer_2_propagation/layer_2/weights_and_biases/output_bias/Adam/Assign"
  input: "^layer_2_propagation/layer_2/weights_and_biases/output_bias/Adam_1/Assign"
  input: "^layer_2_propagation/layer_2/weights_and_biases/output_bias/Assign"
  input: "^layer_2_propagation/layer_2/weights_and_biases/output_weight/Adam/Assign"
  input: "^layer_2_propagation/layer_2/weights_and_biases/output_weight/Adam_1/Assign"
  input: "^layer_2_propagation/layer_2/weights_and_biases/output_weight/Assign"
  input: "^layer_2_propagation/layer_2/weights_and_biases/outwards_propagating_bias/Assign"
  input: "^layer_2_propagation/layer_2/weights_and_biases/outwards_propagating_weight/Assign"
  input: "^optimizer/beta1_power/Assign"
  input: "^optimizer/beta2_power/Assign"
}
versions {
  producer: 26
}
