node {
  name: "layer_1/weights_and_biases/random_normal/shape"
  op: "Const"
  attr {
    key: "dtype"
    value {
      type: DT_INT32
    }
  }
  attr {
    key: "value"
    value {
      tensor {
        dtype: DT_INT32
        tensor_shape {
          dim {
            size: 2
          }
        }
        tensor_content: "\032\000\000\000\031\000\000\000"
      }
    }
  }
}
node {
  name: "layer_1/weights_and_biases/random_normal/mean"
  op: "Const"
  attr {
    key: "dtype"
    value {
      type: DT_FLOAT
    }
  }
  attr {
    key: "value"
    value {
      tensor {
        dtype: DT_FLOAT
        tensor_shape {
        }
        float_val: 0.0
      }
    }
  }
}
node {
  name: "layer_1/weights_and_biases/random_normal/stddev"
  op: "Const"
  attr {
    key: "dtype"
    value {
      type: DT_FLOAT
    }
  }
  attr {
    key: "value"
    value {
      tensor {
        dtype: DT_FLOAT
        tensor_shape {
        }
        float_val: 1.0
      }
    }
  }
}
node {
  name: "layer_1/weights_and_biases/random_normal/RandomStandardNormal"
  op: "RandomStandardNormal"
  input: "layer_1/weights_and_biases/random_normal/shape"
  attr {
    key: "T"
    value {
      type: DT_INT32
    }
  }
  attr {
    key: "dtype"
    value {
      type: DT_FLOAT
    }
  }
  attr {
    key: "seed"
    value {
      i: 0
    }
  }
  attr {
    key: "seed2"
    value {
      i: 0
    }
  }
}
node {
  name: "layer_1/weights_and_biases/random_normal/mul"
  op: "Mul"
  input: "layer_1/weights_and_biases/random_normal/RandomStandardNormal"
  input: "layer_1/weights_and_biases/random_normal/stddev"
  attr {
    key: "T"
    value {
      type: DT_FLOAT
    }
  }
}
node {
  name: "layer_1/weights_and_biases/random_normal"
  op: "Add"
  input: "layer_1/weights_and_biases/random_normal/mul"
  input: "layer_1/weights_and_biases/random_normal/mean"
  attr {
    key: "T"
    value {
      type: DT_FLOAT
    }
  }
}
node {
  name: "layer_1/weights_and_biases/forget_weight"
  op: "VariableV2"
  attr {
    key: "container"
    value {
      s: ""
    }
  }
  attr {
    key: "dtype"
    value {
      type: DT_FLOAT
    }
  }
  attr {
    key: "shape"
    value {
      shape {
        dim {
          size: 26
        }
        dim {
          size: 25
        }
      }
    }
  }
  attr {
    key: "shared_name"
    value {
      s: ""
    }
  }
}
node {
  name: "layer_1/weights_and_biases/forget_weight/Assign"
  op: "Assign"
  input: "layer_1/weights_and_biases/forget_weight"
  input: "layer_1/weights_and_biases/random_normal"
  attr {
    key: "T"
    value {
      type: DT_FLOAT
    }
  }
  attr {
    key: "_class"
    value {
      list {
        s: "loc:@layer_1/weights_and_biases/forget_weight"
      }
    }
  }
  attr {
    key: "use_locking"
    value {
      b: true
    }
  }
  attr {
    key: "validate_shape"
    value {
      b: true
    }
  }
}
node {
  name: "layer_1/weights_and_biases/forget_weight/read"
  op: "Identity"
  input: "layer_1/weights_and_biases/forget_weight"
  attr {
    key: "T"
    value {
      type: DT_FLOAT
    }
  }
  attr {
    key: "_class"
    value {
      list {
        s: "loc:@layer_1/weights_and_biases/forget_weight"
      }
    }
  }
}
node {
  name: "layer_1/weights_and_biases/random_normal_1/shape"
  op: "Const"
  attr {
    key: "dtype"
    value {
      type: DT_INT32
    }
  }
  attr {
    key: "value"
    value {
      tensor {
        dtype: DT_INT32
        tensor_shape {
          dim {
            size: 2
          }
        }
        tensor_content: "\032\000\000\000\031\000\000\000"
      }
    }
  }
}
node {
  name: "layer_1/weights_and_biases/random_normal_1/mean"
  op: "Const"
  attr {
    key: "dtype"
    value {
      type: DT_FLOAT
    }
  }
  attr {
    key: "value"
    value {
      tensor {
        dtype: DT_FLOAT
        tensor_shape {
        }
        float_val: 0.0
      }
    }
  }
}
node {
  name: "layer_1/weights_and_biases/random_normal_1/stddev"
  op: "Const"
  attr {
    key: "dtype"
    value {
      type: DT_FLOAT
    }
  }
  attr {
    key: "value"
    value {
      tensor {
        dtype: DT_FLOAT
        tensor_shape {
        }
        float_val: 1.0
      }
    }
  }
}
node {
  name: "layer_1/weights_and_biases/random_normal_1/RandomStandardNormal"
  op: "RandomStandardNormal"
  input: "layer_1/weights_and_biases/random_normal_1/shape"
  attr {
    key: "T"
    value {
      type: DT_INT32
    }
  }
  attr {
    key: "dtype"
    value {
      type: DT_FLOAT
    }
  }
  attr {
    key: "seed"
    value {
      i: 0
    }
  }
  attr {
    key: "seed2"
    value {
      i: 0
    }
  }
}
node {
  name: "layer_1/weights_and_biases/random_normal_1/mul"
  op: "Mul"
  input: "layer_1/weights_and_biases/random_normal_1/RandomStandardNormal"
  input: "layer_1/weights_and_biases/random_normal_1/stddev"
  attr {
    key: "T"
    value {
      type: DT_FLOAT
    }
  }
}
node {
  name: "layer_1/weights_and_biases/random_normal_1"
  op: "Add"
  input: "layer_1/weights_and_biases/random_normal_1/mul"
  input: "layer_1/weights_and_biases/random_normal_1/mean"
  attr {
    key: "T"
    value {
      type: DT_FLOAT
    }
  }
}
node {
  name: "layer_1/weights_and_biases/output_weight"
  op: "VariableV2"
  attr {
    key: "container"
    value {
      s: ""
    }
  }
  attr {
    key: "dtype"
    value {
      type: DT_FLOAT
    }
  }
  attr {
    key: "shape"
    value {
      shape {
        dim {
          size: 26
        }
        dim {
          size: 25
        }
      }
    }
  }
  attr {
    key: "shared_name"
    value {
      s: ""
    }
  }
}
node {
  name: "layer_1/weights_and_biases/output_weight/Assign"
  op: "Assign"
  input: "layer_1/weights_and_biases/output_weight"
  input: "layer_1/weights_and_biases/random_normal_1"
  attr {
    key: "T"
    value {
      type: DT_FLOAT
    }
  }
  attr {
    key: "_class"
    value {
      list {
        s: "loc:@layer_1/weights_and_biases/output_weight"
      }
    }
  }
  attr {
    key: "use_locking"
    value {
      b: true
    }
  }
  attr {
    key: "validate_shape"
    value {
      b: true
    }
  }
}
node {
  name: "layer_1/weights_and_biases/output_weight/read"
  op: "Identity"
  input: "layer_1/weights_and_biases/output_weight"
  attr {
    key: "T"
    value {
      type: DT_FLOAT
    }
  }
  attr {
    key: "_class"
    value {
      list {
        s: "loc:@layer_1/weights_and_biases/output_weight"
      }
    }
  }
}
node {
  name: "layer_1/weights_and_biases/random_normal_2/shape"
  op: "Const"
  attr {
    key: "dtype"
    value {
      type: DT_INT32
    }
  }
  attr {
    key: "value"
    value {
      tensor {
        dtype: DT_INT32
        tensor_shape {
          dim {
            size: 2
          }
        }
        tensor_content: "\032\000\000\000\031\000\000\000"
      }
    }
  }
}
node {
  name: "layer_1/weights_and_biases/random_normal_2/mean"
  op: "Const"
  attr {
    key: "dtype"
    value {
      type: DT_FLOAT
    }
  }
  attr {
    key: "value"
    value {
      tensor {
        dtype: DT_FLOAT
        tensor_shape {
        }
        float_val: 0.0
      }
    }
  }
}
node {
  name: "layer_1/weights_and_biases/random_normal_2/stddev"
  op: "Const"
  attr {
    key: "dtype"
    value {
      type: DT_FLOAT
    }
  }
  attr {
    key: "value"
    value {
      tensor {
        dtype: DT_FLOAT
        tensor_shape {
        }
        float_val: 1.0
      }
    }
  }
}
node {
  name: "layer_1/weights_and_biases/random_normal_2/RandomStandardNormal"
  op: "RandomStandardNormal"
  input: "layer_1/weights_and_biases/random_normal_2/shape"
  attr {
    key: "T"
    value {
      type: DT_INT32
    }
  }
  attr {
    key: "dtype"
    value {
      type: DT_FLOAT
    }
  }
  attr {
    key: "seed"
    value {
      i: 0
    }
  }
  attr {
    key: "seed2"
    value {
      i: 0
    }
  }
}
node {
  name: "layer_1/weights_and_biases/random_normal_2/mul"
  op: "Mul"
  input: "layer_1/weights_and_biases/random_normal_2/RandomStandardNormal"
  input: "layer_1/weights_and_biases/random_normal_2/stddev"
  attr {
    key: "T"
    value {
      type: DT_FLOAT
    }
  }
}
node {
  name: "layer_1/weights_and_biases/random_normal_2"
  op: "Add"
  input: "layer_1/weights_and_biases/random_normal_2/mul"
  input: "layer_1/weights_and_biases/random_normal_2/mean"
  attr {
    key: "T"
    value {
      type: DT_FLOAT
    }
  }
}
node {
  name: "layer_1/weights_and_biases/gate_weight"
  op: "VariableV2"
  attr {
    key: "container"
    value {
      s: ""
    }
  }
  attr {
    key: "dtype"
    value {
      type: DT_FLOAT
    }
  }
  attr {
    key: "shape"
    value {
      shape {
        dim {
          size: 26
        }
        dim {
          size: 25
        }
      }
    }
  }
  attr {
    key: "shared_name"
    value {
      s: ""
    }
  }
}
node {
  name: "layer_1/weights_and_biases/gate_weight/Assign"
  op: "Assign"
  input: "layer_1/weights_and_biases/gate_weight"
  input: "layer_1/weights_and_biases/random_normal_2"
  attr {
    key: "T"
    value {
      type: DT_FLOAT
    }
  }
  attr {
    key: "_class"
    value {
      list {
        s: "loc:@layer_1/weights_and_biases/gate_weight"
      }
    }
  }
  attr {
    key: "use_locking"
    value {
      b: true
    }
  }
  attr {
    key: "validate_shape"
    value {
      b: true
    }
  }
}
node {
  name: "layer_1/weights_and_biases/gate_weight/read"
  op: "Identity"
  input: "layer_1/weights_and_biases/gate_weight"
  attr {
    key: "T"
    value {
      type: DT_FLOAT
    }
  }
  attr {
    key: "_class"
    value {
      list {
        s: "loc:@layer_1/weights_and_biases/gate_weight"
      }
    }
  }
}
node {
  name: "layer_1/weights_and_biases/random_normal_3/shape"
  op: "Const"
  attr {
    key: "dtype"
    value {
      type: DT_INT32
    }
  }
  attr {
    key: "value"
    value {
      tensor {
        dtype: DT_INT32
        tensor_shape {
          dim {
            size: 2
          }
        }
        tensor_content: "\032\000\000\000\031\000\000\000"
      }
    }
  }
}
node {
  name: "layer_1/weights_and_biases/random_normal_3/mean"
  op: "Const"
  attr {
    key: "dtype"
    value {
      type: DT_FLOAT
    }
  }
  attr {
    key: "value"
    value {
      tensor {
        dtype: DT_FLOAT
        tensor_shape {
        }
        float_val: 0.0
      }
    }
  }
}
node {
  name: "layer_1/weights_and_biases/random_normal_3/stddev"
  op: "Const"
  attr {
    key: "dtype"
    value {
      type: DT_FLOAT
    }
  }
  attr {
    key: "value"
    value {
      tensor {
        dtype: DT_FLOAT
        tensor_shape {
        }
        float_val: 1.0
      }
    }
  }
}
node {
  name: "layer_1/weights_and_biases/random_normal_3/RandomStandardNormal"
  op: "RandomStandardNormal"
  input: "layer_1/weights_and_biases/random_normal_3/shape"
  attr {
    key: "T"
    value {
      type: DT_INT32
    }
  }
  attr {
    key: "dtype"
    value {
      type: DT_FLOAT
    }
  }
  attr {
    key: "seed"
    value {
      i: 0
    }
  }
  attr {
    key: "seed2"
    value {
      i: 0
    }
  }
}
node {
  name: "layer_1/weights_and_biases/random_normal_3/mul"
  op: "Mul"
  input: "layer_1/weights_and_biases/random_normal_3/RandomStandardNormal"
  input: "layer_1/weights_and_biases/random_normal_3/stddev"
  attr {
    key: "T"
    value {
      type: DT_FLOAT
    }
  }
}
node {
  name: "layer_1/weights_and_biases/random_normal_3"
  op: "Add"
  input: "layer_1/weights_and_biases/random_normal_3/mul"
  input: "layer_1/weights_and_biases/random_normal_3/mean"
  attr {
    key: "T"
    value {
      type: DT_FLOAT
    }
  }
}
node {
  name: "layer_1/weights_and_biases/input_weight"
  op: "VariableV2"
  attr {
    key: "container"
    value {
      s: ""
    }
  }
  attr {
    key: "dtype"
    value {
      type: DT_FLOAT
    }
  }
  attr {
    key: "shape"
    value {
      shape {
        dim {
          size: 26
        }
        dim {
          size: 25
        }
      }
    }
  }
  attr {
    key: "shared_name"
    value {
      s: ""
    }
  }
}
node {
  name: "layer_1/weights_and_biases/input_weight/Assign"
  op: "Assign"
  input: "layer_1/weights_and_biases/input_weight"
  input: "layer_1/weights_and_biases/random_normal_3"
  attr {
    key: "T"
    value {
      type: DT_FLOAT
    }
  }
  attr {
    key: "_class"
    value {
      list {
        s: "loc:@layer_1/weights_and_biases/input_weight"
      }
    }
  }
  attr {
    key: "use_locking"
    value {
      b: true
    }
  }
  attr {
    key: "validate_shape"
    value {
      b: true
    }
  }
}
node {
  name: "layer_1/weights_and_biases/input_weight/read"
  op: "Identity"
  input: "layer_1/weights_and_biases/input_weight"
  attr {
    key: "T"
    value {
      type: DT_FLOAT
    }
  }
  attr {
    key: "_class"
    value {
      list {
        s: "loc:@layer_1/weights_and_biases/input_weight"
      }
    }
  }
}
node {
  name: "layer_1/weights_and_biases/random_normal_4/shape"
  op: "Const"
  attr {
    key: "dtype"
    value {
      type: DT_INT32
    }
  }
  attr {
    key: "value"
    value {
      tensor {
        dtype: DT_INT32
        tensor_shape {
          dim {
            size: 2
          }
        }
        tensor_content: "\031\000\000\000\001\000\000\000"
      }
    }
  }
}
node {
  name: "layer_1/weights_and_biases/random_normal_4/mean"
  op: "Const"
  attr {
    key: "dtype"
    value {
      type: DT_FLOAT
    }
  }
  attr {
    key: "value"
    value {
      tensor {
        dtype: DT_FLOAT
        tensor_shape {
        }
        float_val: 0.0
      }
    }
  }
}
node {
  name: "layer_1/weights_and_biases/random_normal_4/stddev"
  op: "Const"
  attr {
    key: "dtype"
    value {
      type: DT_FLOAT
    }
  }
  attr {
    key: "value"
    value {
      tensor {
        dtype: DT_FLOAT
        tensor_shape {
        }
        float_val: 1.0
      }
    }
  }
}
node {
  name: "layer_1/weights_and_biases/random_normal_4/RandomStandardNormal"
  op: "RandomStandardNormal"
  input: "layer_1/weights_and_biases/random_normal_4/shape"
  attr {
    key: "T"
    value {
      type: DT_INT32
    }
  }
  attr {
    key: "dtype"
    value {
      type: DT_FLOAT
    }
  }
  attr {
    key: "seed"
    value {
      i: 0
    }
  }
  attr {
    key: "seed2"
    value {
      i: 0
    }
  }
}
node {
  name: "layer_1/weights_and_biases/random_normal_4/mul"
  op: "Mul"
  input: "layer_1/weights_and_biases/random_normal_4/RandomStandardNormal"
  input: "layer_1/weights_and_biases/random_normal_4/stddev"
  attr {
    key: "T"
    value {
      type: DT_FLOAT
    }
  }
}
node {
  name: "layer_1/weights_and_biases/random_normal_4"
  op: "Add"
  input: "layer_1/weights_and_biases/random_normal_4/mul"
  input: "layer_1/weights_and_biases/random_normal_4/mean"
  attr {
    key: "T"
    value {
      type: DT_FLOAT
    }
  }
}
node {
  name: "layer_1/weights_and_biases/outwards_propagating_weight"
  op: "VariableV2"
  attr {
    key: "container"
    value {
      s: ""
    }
  }
  attr {
    key: "dtype"
    value {
      type: DT_FLOAT
    }
  }
  attr {
    key: "shape"
    value {
      shape {
        dim {
          size: 25
        }
        dim {
          size: 1
        }
      }
    }
  }
  attr {
    key: "shared_name"
    value {
      s: ""
    }
  }
}
node {
  name: "layer_1/weights_and_biases/outwards_propagating_weight/Assign"
  op: "Assign"
  input: "layer_1/weights_and_biases/outwards_propagating_weight"
  input: "layer_1/weights_and_biases/random_normal_4"
  attr {
    key: "T"
    value {
      type: DT_FLOAT
    }
  }
  attr {
    key: "_class"
    value {
      list {
        s: "loc:@layer_1/weights_and_biases/outwards_propagating_weight"
      }
    }
  }
  attr {
    key: "use_locking"
    value {
      b: true
    }
  }
  attr {
    key: "validate_shape"
    value {
      b: true
    }
  }
}
node {
  name: "layer_1/weights_and_biases/outwards_propagating_weight/read"
  op: "Identity"
  input: "layer_1/weights_and_biases/outwards_propagating_weight"
  attr {
    key: "T"
    value {
      type: DT_FLOAT
    }
  }
  attr {
    key: "_class"
    value {
      list {
        s: "loc:@layer_1/weights_and_biases/outwards_propagating_weight"
      }
    }
  }
}
node {
  name: "layer_1/weights_and_biases/zeros"
  op: "Const"
  attr {
    key: "dtype"
    value {
      type: DT_FLOAT
    }
  }
  attr {
    key: "value"
    value {
      tensor {
        dtype: DT_FLOAT
        tensor_shape {
          dim {
            size: 1
          }
          dim {
            size: 25
          }
        }
        float_val: 0.0
      }
    }
  }
}
node {
  name: "layer_1/weights_and_biases/forget_bias"
  op: "VariableV2"
  attr {
    key: "container"
    value {
      s: ""
    }
  }
  attr {
    key: "dtype"
    value {
      type: DT_FLOAT
    }
  }
  attr {
    key: "shape"
    value {
      shape {
        dim {
          size: 1
        }
        dim {
          size: 25
        }
      }
    }
  }
  attr {
    key: "shared_name"
    value {
      s: ""
    }
  }
}
node {
  name: "layer_1/weights_and_biases/forget_bias/Assign"
  op: "Assign"
  input: "layer_1/weights_and_biases/forget_bias"
  input: "layer_1/weights_and_biases/zeros"
  attr {
    key: "T"
    value {
      type: DT_FLOAT
    }
  }
  attr {
    key: "_class"
    value {
      list {
        s: "loc:@layer_1/weights_and_biases/forget_bias"
      }
    }
  }
  attr {
    key: "use_locking"
    value {
      b: true
    }
  }
  attr {
    key: "validate_shape"
    value {
      b: true
    }
  }
}
node {
  name: "layer_1/weights_and_biases/forget_bias/read"
  op: "Identity"
  input: "layer_1/weights_and_biases/forget_bias"
  attr {
    key: "T"
    value {
      type: DT_FLOAT
    }
  }
  attr {
    key: "_class"
    value {
      list {
        s: "loc:@layer_1/weights_and_biases/forget_bias"
      }
    }
  }
}
node {
  name: "layer_1/weights_and_biases/zeros_1"
  op: "Const"
  attr {
    key: "dtype"
    value {
      type: DT_FLOAT
    }
  }
  attr {
    key: "value"
    value {
      tensor {
        dtype: DT_FLOAT
        tensor_shape {
          dim {
            size: 1
          }
          dim {
            size: 25
          }
        }
        float_val: 0.0
      }
    }
  }
}
node {
  name: "layer_1/weights_and_biases/output_bias"
  op: "VariableV2"
  attr {
    key: "container"
    value {
      s: ""
    }
  }
  attr {
    key: "dtype"
    value {
      type: DT_FLOAT
    }
  }
  attr {
    key: "shape"
    value {
      shape {
        dim {
          size: 1
        }
        dim {
          size: 25
        }
      }
    }
  }
  attr {
    key: "shared_name"
    value {
      s: ""
    }
  }
}
node {
  name: "layer_1/weights_and_biases/output_bias/Assign"
  op: "Assign"
  input: "layer_1/weights_and_biases/output_bias"
  input: "layer_1/weights_and_biases/zeros_1"
  attr {
    key: "T"
    value {
      type: DT_FLOAT
    }
  }
  attr {
    key: "_class"
    value {
      list {
        s: "loc:@layer_1/weights_and_biases/output_bias"
      }
    }
  }
  attr {
    key: "use_locking"
    value {
      b: true
    }
  }
  attr {
    key: "validate_shape"
    value {
      b: true
    }
  }
}
node {
  name: "layer_1/weights_and_biases/output_bias/read"
  op: "Identity"
  input: "layer_1/weights_and_biases/output_bias"
  attr {
    key: "T"
    value {
      type: DT_FLOAT
    }
  }
  attr {
    key: "_class"
    value {
      list {
        s: "loc:@layer_1/weights_and_biases/output_bias"
      }
    }
  }
}
node {
  name: "layer_1/weights_and_biases/zeros_2"
  op: "Const"
  attr {
    key: "dtype"
    value {
      type: DT_FLOAT
    }
  }
  attr {
    key: "value"
    value {
      tensor {
        dtype: DT_FLOAT
        tensor_shape {
          dim {
            size: 1
          }
          dim {
            size: 25
          }
        }
        float_val: 0.0
      }
    }
  }
}
node {
  name: "layer_1/weights_and_biases/gate_bias"
  op: "VariableV2"
  attr {
    key: "container"
    value {
      s: ""
    }
  }
  attr {
    key: "dtype"
    value {
      type: DT_FLOAT
    }
  }
  attr {
    key: "shape"
    value {
      shape {
        dim {
          size: 1
        }
        dim {
          size: 25
        }
      }
    }
  }
  attr {
    key: "shared_name"
    value {
      s: ""
    }
  }
}
node {
  name: "layer_1/weights_and_biases/gate_bias/Assign"
  op: "Assign"
  input: "layer_1/weights_and_biases/gate_bias"
  input: "layer_1/weights_and_biases/zeros_2"
  attr {
    key: "T"
    value {
      type: DT_FLOAT
    }
  }
  attr {
    key: "_class"
    value {
      list {
        s: "loc:@layer_1/weights_and_biases/gate_bias"
      }
    }
  }
  attr {
    key: "use_locking"
    value {
      b: true
    }
  }
  attr {
    key: "validate_shape"
    value {
      b: true
    }
  }
}
node {
  name: "layer_1/weights_and_biases/gate_bias/read"
  op: "Identity"
  input: "layer_1/weights_and_biases/gate_bias"
  attr {
    key: "T"
    value {
      type: DT_FLOAT
    }
  }
  attr {
    key: "_class"
    value {
      list {
        s: "loc:@layer_1/weights_and_biases/gate_bias"
      }
    }
  }
}
node {
  name: "layer_1/weights_and_biases/zeros_3"
  op: "Const"
  attr {
    key: "dtype"
    value {
      type: DT_FLOAT
    }
  }
  attr {
    key: "value"
    value {
      tensor {
        dtype: DT_FLOAT
        tensor_shape {
          dim {
            size: 1
          }
          dim {
            size: 25
          }
        }
        float_val: 0.0
      }
    }
  }
}
node {
  name: "layer_1/weights_and_biases/input_bias"
  op: "VariableV2"
  attr {
    key: "container"
    value {
      s: ""
    }
  }
  attr {
    key: "dtype"
    value {
      type: DT_FLOAT
    }
  }
  attr {
    key: "shape"
    value {
      shape {
        dim {
          size: 1
        }
        dim {
          size: 25
        }
      }
    }
  }
  attr {
    key: "shared_name"
    value {
      s: ""
    }
  }
}
node {
  name: "layer_1/weights_and_biases/input_bias/Assign"
  op: "Assign"
  input: "layer_1/weights_and_biases/input_bias"
  input: "layer_1/weights_and_biases/zeros_3"
  attr {
    key: "T"
    value {
      type: DT_FLOAT
    }
  }
  attr {
    key: "_class"
    value {
      list {
        s: "loc:@layer_1/weights_and_biases/input_bias"
      }
    }
  }
  attr {
    key: "use_locking"
    value {
      b: true
    }
  }
  attr {
    key: "validate_shape"
    value {
      b: true
    }
  }
}
node {
  name: "layer_1/weights_and_biases/input_bias/read"
  op: "Identity"
  input: "layer_1/weights_and_biases/input_bias"
  attr {
    key: "T"
    value {
      type: DT_FLOAT
    }
  }
  attr {
    key: "_class"
    value {
      list {
        s: "loc:@layer_1/weights_and_biases/input_bias"
      }
    }
  }
}
node {
  name: "layer_1/weights_and_biases/zeros_4"
  op: "Const"
  attr {
    key: "dtype"
    value {
      type: DT_FLOAT
    }
  }
  attr {
    key: "value"
    value {
      tensor {
        dtype: DT_FLOAT
        tensor_shape {
          dim {
            size: 1
          }
          dim {
            size: 1
          }
        }
        float_val: 0.0
      }
    }
  }
}
node {
  name: "layer_1/weights_and_biases/outwards_propagating_bias"
  op: "VariableV2"
  attr {
    key: "container"
    value {
      s: ""
    }
  }
  attr {
    key: "dtype"
    value {
      type: DT_FLOAT
    }
  }
  attr {
    key: "shape"
    value {
      shape {
        dim {
          size: 1
        }
        dim {
          size: 1
        }
      }
    }
  }
  attr {
    key: "shared_name"
    value {
      s: ""
    }
  }
}
node {
  name: "layer_1/weights_and_biases/outwards_propagating_bias/Assign"
  op: "Assign"
  input: "layer_1/weights_and_biases/outwards_propagating_bias"
  input: "layer_1/weights_and_biases/zeros_4"
  attr {
    key: "T"
    value {
      type: DT_FLOAT
    }
  }
  attr {
    key: "_class"
    value {
      list {
        s: "loc:@layer_1/weights_and_biases/outwards_propagating_bias"
      }
    }
  }
  attr {
    key: "use_locking"
    value {
      b: true
    }
  }
  attr {
    key: "validate_shape"
    value {
      b: true
    }
  }
}
node {
  name: "layer_1/weights_and_biases/outwards_propagating_bias/read"
  op: "Identity"
  input: "layer_1/weights_and_biases/outwards_propagating_bias"
  attr {
    key: "T"
    value {
      type: DT_FLOAT
    }
  }
  attr {
    key: "_class"
    value {
      list {
        s: "loc:@layer_1/weights_and_biases/outwards_propagating_bias"
      }
    }
  }
}
node {
  name: "layer_1/placeholders/input_placeholder"
  op: "Placeholder"
  attr {
    key: "dtype"
    value {
      type: DT_FLOAT
    }
  }
  attr {
    key: "shape"
    value {
      shape {
        dim {
          size: 1
        }
        dim {
          size: 1
        }
      }
    }
  }
}
node {
  name: "layer_1/placeholders/last_hidden"
  op: "Placeholder"
  attr {
    key: "dtype"
    value {
      type: DT_FLOAT
    }
  }
  attr {
    key: "shape"
    value {
      shape {
        dim {
          size: 1
        }
        dim {
          size: 25
        }
      }
    }
  }
}
node {
  name: "layer_1/placeholders/last_cell"
  op: "Placeholder"
  attr {
    key: "dtype"
    value {
      type: DT_FLOAT
    }
  }
  attr {
    key: "shape"
    value {
      shape {
        dim {
          size: 1
        }
        dim {
          size: 25
        }
      }
    }
  }
}
node {
  name: "layer_1/to_gates/input_concat/axis"
  op: "Const"
  attr {
    key: "dtype"
    value {
      type: DT_INT32
    }
  }
  attr {
    key: "value"
    value {
      tensor {
        dtype: DT_INT32
        tensor_shape {
        }
        int_val: 1
      }
    }
  }
}
node {
  name: "layer_1/to_gates/input_concat"
  op: "ConcatV2"
  input: "layer_1/placeholders/input_placeholder"
  input: "layer_1/placeholders/last_hidden"
  input: "layer_1/to_gates/input_concat/axis"
  attr {
    key: "N"
    value {
      i: 2
    }
  }
  attr {
    key: "T"
    value {
      type: DT_FLOAT
    }
  }
  attr {
    key: "Tidx"
    value {
      type: DT_INT32
    }
  }
}
node {
  name: "layer_1/to_gates/f_w_m"
  op: "MatMul"
  input: "layer_1/to_gates/input_concat"
  input: "layer_1/weights_and_biases/forget_weight/read"
  attr {
    key: "T"
    value {
      type: DT_FLOAT
    }
  }
  attr {
    key: "transpose_a"
    value {
      b: false
    }
  }
  attr {
    key: "transpose_b"
    value {
      b: false
    }
  }
}
node {
  name: "layer_1/to_gates/f_b_a"
  op: "Add"
  input: "layer_1/to_gates/f_w_m"
  input: "layer_1/weights_and_biases/forget_bias/read"
  attr {
    key: "T"
    value {
      type: DT_FLOAT
    }
  }
}
node {
  name: "layer_1/to_gates/o_w_m"
  op: "MatMul"
  input: "layer_1/to_gates/input_concat"
  input: "layer_1/weights_and_biases/output_weight/read"
  attr {
    key: "T"
    value {
      type: DT_FLOAT
    }
  }
  attr {
    key: "transpose_a"
    value {
      b: false
    }
  }
  attr {
    key: "transpose_b"
    value {
      b: false
    }
  }
}
node {
  name: "layer_1/to_gates/o_b_a"
  op: "Add"
  input: "layer_1/to_gates/o_w_m"
  input: "layer_1/weights_and_biases/output_bias/read"
  attr {
    key: "T"
    value {
      type: DT_FLOAT
    }
  }
}
node {
  name: "layer_1/to_gates/g_w_m"
  op: "MatMul"
  input: "layer_1/to_gates/input_concat"
  input: "layer_1/weights_and_biases/gate_weight/read"
  attr {
    key: "T"
    value {
      type: DT_FLOAT
    }
  }
  attr {
    key: "transpose_a"
    value {
      b: false
    }
  }
  attr {
    key: "transpose_b"
    value {
      b: false
    }
  }
}
node {
  name: "layer_1/to_gates/g_b_a"
  op: "Add"
  input: "layer_1/to_gates/g_w_m"
  input: "layer_1/weights_and_biases/gate_bias/read"
  attr {
    key: "T"
    value {
      type: DT_FLOAT
    }
  }
}
node {
  name: "layer_1/to_gates/i_w_m"
  op: "MatMul"
  input: "layer_1/to_gates/input_concat"
  input: "layer_1/weights_and_biases/input_weight/read"
  attr {
    key: "T"
    value {
      type: DT_FLOAT
    }
  }
  attr {
    key: "transpose_a"
    value {
      b: false
    }
  }
  attr {
    key: "transpose_b"
    value {
      b: false
    }
  }
}
node {
  name: "layer_1/to_gates/i_b_a"
  op: "Add"
  input: "layer_1/to_gates/i_w_m"
  input: "layer_1/weights_and_biases/input_bias/read"
  attr {
    key: "T"
    value {
      type: DT_FLOAT
    }
  }
}
node {
  name: "layer_1/non-linearity/sigmoid_forget"
  op: "Sigmoid"
  input: "layer_1/to_gates/f_b_a"
  attr {
    key: "T"
    value {
      type: DT_FLOAT
    }
  }
}
node {
  name: "layer_1/non-linearity/sigmoid_output"
  op: "Sigmoid"
  input: "layer_1/to_gates/o_b_a"
  attr {
    key: "T"
    value {
      type: DT_FLOAT
    }
  }
}
node {
  name: "layer_1/non-linearity/sigmoid_input"
  op: "Sigmoid"
  input: "layer_1/to_gates/i_b_a"
  attr {
    key: "T"
    value {
      type: DT_FLOAT
    }
  }
}
node {
  name: "layer_1/non-linearity/tanh_gate"
  op: "Tanh"
  input: "layer_1/to_gates/g_b_a"
  attr {
    key: "T"
    value {
      type: DT_FLOAT
    }
  }
}
node {
  name: "layer_1/forget_gate/forget_gating"
  op: "Mul"
  input: "layer_1/non-linearity/sigmoid_forget"
  input: "layer_1/placeholders/last_cell"
  attr {
    key: "T"
    value {
      type: DT_FLOAT
    }
  }
}
node {
  name: "layer_1/suggestion_node/input_determiner"
  op: "Mul"
  input: "layer_1/non-linearity/sigmoid_input"
  input: "layer_1/non-linearity/tanh_gate"
  attr {
    key: "T"
    value {
      type: DT_FLOAT
    }
  }
}
node {
  name: "layer_1/suggestion_node/input_and_gate_gating"
  op: "Add"
  input: "layer_1/suggestion_node/input_determiner"
  input: "layer_1/forget_gate/forget_gating"
  attr {
    key: "T"
    value {
      type: DT_FLOAT
    }
  }
}
node {
  name: "layer_1/output_gate/output_presquashing"
  op: "Tanh"
  input: "layer_1/suggestion_node/input_and_gate_gating"
  attr {
    key: "T"
    value {
      type: DT_FLOAT
    }
  }
}
node {
  name: "layer_1/output_gate/next_hidden"
  op: "Mul"
  input: "layer_1/non-linearity/sigmoid_output"
  input: "layer_1/output_gate/output_presquashing"
  attr {
    key: "T"
    value {
      type: DT_FLOAT
    }
  }
}
node {
  name: "layer_1/output_gate/WHTO_w_m"
  op: "MatMul"
  input: "layer_1/output_gate/next_hidden"
  input: "layer_1/weights_and_biases/outwards_propagating_weight/read"
  attr {
    key: "T"
    value {
      type: DT_FLOAT
    }
  }
  attr {
    key: "transpose_a"
    value {
      b: false
    }
  }
  attr {
    key: "transpose_b"
    value {
      b: false
    }
  }
}
node {
  name: "layer_1/output_gate/BHTO_b_a"
  op: "Add"
  input: "layer_1/output_gate/WHTO_w_m"
  input: "layer_1/weights_and_biases/outwards_propagating_bias/read"
  attr {
    key: "T"
    value {
      type: DT_FLOAT
    }
  }
}
node {
  name: "layer_1/output_gate/output"
  op: "Relu"
  input: "layer_1/output_gate/BHTO_b_a"
  attr {
    key: "T"
    value {
      type: DT_FLOAT
    }
  }
}
node {
  name: "layer_1/summaries_and_saver/W_Forget/tag"
  op: "Const"
  attr {
    key: "dtype"
    value {
      type: DT_STRING
    }
  }
  attr {
    key: "value"
    value {
      tensor {
        dtype: DT_STRING
        tensor_shape {
        }
        string_val: "layer_1/summaries_and_saver/W_Forget"
      }
    }
  }
}
node {
  name: "layer_1/summaries_and_saver/W_Forget"
  op: "HistogramSummary"
  input: "layer_1/summaries_and_saver/W_Forget/tag"
  input: "layer_1/weights_and_biases/forget_weight/read"
  attr {
    key: "T"
    value {
      type: DT_FLOAT
    }
  }
}
node {
  name: "layer_1/summaries_and_saver/W_Input/tag"
  op: "Const"
  attr {
    key: "dtype"
    value {
      type: DT_STRING
    }
  }
  attr {
    key: "value"
    value {
      tensor {
        dtype: DT_STRING
        tensor_shape {
        }
        string_val: "layer_1/summaries_and_saver/W_Input"
      }
    }
  }
}
node {
  name: "layer_1/summaries_and_saver/W_Input"
  op: "HistogramSummary"
  input: "layer_1/summaries_and_saver/W_Input/tag"
  input: "layer_1/weights_and_biases/input_weight/read"
  attr {
    key: "T"
    value {
      type: DT_FLOAT
    }
  }
}
node {
  name: "layer_1/summaries_and_saver/W_Output/tag"
  op: "Const"
  attr {
    key: "dtype"
    value {
      type: DT_STRING
    }
  }
  attr {
    key: "value"
    value {
      tensor {
        dtype: DT_STRING
        tensor_shape {
        }
        string_val: "layer_1/summaries_and_saver/W_Output"
      }
    }
  }
}
node {
  name: "layer_1/summaries_and_saver/W_Output"
  op: "HistogramSummary"
  input: "layer_1/summaries_and_saver/W_Output/tag"
  input: "layer_1/weights_and_biases/output_weight/read"
  attr {
    key: "T"
    value {
      type: DT_FLOAT
    }
  }
}
node {
  name: "layer_1/summaries_and_saver/W_Gate/tag"
  op: "Const"
  attr {
    key: "dtype"
    value {
      type: DT_STRING
    }
  }
  attr {
    key: "value"
    value {
      tensor {
        dtype: DT_STRING
        tensor_shape {
        }
        string_val: "layer_1/summaries_and_saver/W_Gate"
      }
    }
  }
}
node {
  name: "layer_1/summaries_and_saver/W_Gate"
  op: "HistogramSummary"
  input: "layer_1/summaries_and_saver/W_Gate/tag"
  input: "layer_1/weights_and_biases/gate_weight/read"
  attr {
    key: "T"
    value {
      type: DT_FLOAT
    }
  }
}
node {
  name: "layer_1/summaries_and_saver/W_Hidden_to_Out/tag"
  op: "Const"
  attr {
    key: "dtype"
    value {
      type: DT_STRING
    }
  }
  attr {
    key: "value"
    value {
      tensor {
        dtype: DT_STRING
        tensor_shape {
        }
        string_val: "layer_1/summaries_and_saver/W_Hidden_to_Out"
      }
    }
  }
}
node {
  name: "layer_1/summaries_and_saver/W_Hidden_to_Out"
  op: "HistogramSummary"
  input: "layer_1/summaries_and_saver/W_Hidden_to_Out/tag"
  input: "layer_1/weights_and_biases/outwards_propagating_weight/read"
  attr {
    key: "T"
    value {
      type: DT_FLOAT
    }
  }
}
node {
  name: "layer_1/summaries_and_saver/Cell_State/tag"
  op: "Const"
  attr {
    key: "dtype"
    value {
      type: DT_STRING
    }
  }
  attr {
    key: "value"
    value {
      tensor {
        dtype: DT_STRING
        tensor_shape {
        }
        string_val: "layer_1/summaries_and_saver/Cell_State"
      }
    }
  }
}
node {
  name: "layer_1/summaries_and_saver/Cell_State"
  op: "HistogramSummary"
  input: "layer_1/summaries_and_saver/Cell_State/tag"
  input: "layer_1/output_gate/output_presquashing"
  attr {
    key: "T"
    value {
      type: DT_FLOAT
    }
  }
}
node {
  name: "layer_1/summaries_and_saver/B_Forget/tag"
  op: "Const"
  attr {
    key: "dtype"
    value {
      type: DT_STRING
    }
  }
  attr {
    key: "value"
    value {
      tensor {
        dtype: DT_STRING
        tensor_shape {
        }
        string_val: "layer_1/summaries_and_saver/B_Forget"
      }
    }
  }
}
node {
  name: "layer_1/summaries_and_saver/B_Forget"
  op: "HistogramSummary"
  input: "layer_1/summaries_and_saver/B_Forget/tag"
  input: "layer_1/weights_and_biases/forget_bias/read"
  attr {
    key: "T"
    value {
      type: DT_FLOAT
    }
  }
}
node {
  name: "layer_1/summaries_and_saver/B_Input/tag"
  op: "Const"
  attr {
    key: "dtype"
    value {
      type: DT_STRING
    }
  }
  attr {
    key: "value"
    value {
      tensor {
        dtype: DT_STRING
        tensor_shape {
        }
        string_val: "layer_1/summaries_and_saver/B_Input"
      }
    }
  }
}
node {
  name: "layer_1/summaries_and_saver/B_Input"
  op: "HistogramSummary"
  input: "layer_1/summaries_and_saver/B_Input/tag"
  input: "layer_1/weights_and_biases/input_bias/read"
  attr {
    key: "T"
    value {
      type: DT_FLOAT
    }
  }
}
node {
  name: "layer_1/summaries_and_saver/B_Output/tag"
  op: "Const"
  attr {
    key: "dtype"
    value {
      type: DT_STRING
    }
  }
  attr {
    key: "value"
    value {
      tensor {
        dtype: DT_STRING
        tensor_shape {
        }
        string_val: "layer_1/summaries_and_saver/B_Output"
      }
    }
  }
}
node {
  name: "layer_1/summaries_and_saver/B_Output"
  op: "HistogramSummary"
  input: "layer_1/summaries_and_saver/B_Output/tag"
  input: "layer_1/weights_and_biases/output_bias/read"
  attr {
    key: "T"
    value {
      type: DT_FLOAT
    }
  }
}
node {
  name: "layer_1/summaries_and_saver/B_Gate/tag"
  op: "Const"
  attr {
    key: "dtype"
    value {
      type: DT_STRING
    }
  }
  attr {
    key: "value"
    value {
      tensor {
        dtype: DT_STRING
        tensor_shape {
        }
        string_val: "layer_1/summaries_and_saver/B_Gate"
      }
    }
  }
}
node {
  name: "layer_1/summaries_and_saver/B_Gate"
  op: "HistogramSummary"
  input: "layer_1/summaries_and_saver/B_Gate/tag"
  input: "layer_1/weights_and_biases/gate_bias/read"
  attr {
    key: "T"
    value {
      type: DT_FLOAT
    }
  }
}
node {
  name: "layer_1/summaries_and_saver/B_Hidden_to_Out/tag"
  op: "Const"
  attr {
    key: "dtype"
    value {
      type: DT_STRING
    }
  }
  attr {
    key: "value"
    value {
      tensor {
        dtype: DT_STRING
        tensor_shape {
        }
        string_val: "layer_1/summaries_and_saver/B_Hidden_to_Out"
      }
    }
  }
}
node {
  name: "layer_1/summaries_and_saver/B_Hidden_to_Out"
  op: "HistogramSummary"
  input: "layer_1/summaries_and_saver/B_Hidden_to_Out/tag"
  input: "layer_1/weights_and_biases/outwards_propagating_bias/read"
  attr {
    key: "T"
    value {
      type: DT_FLOAT
    }
  }
}
node {
  name: "layer_2/weights_and_biases/random_normal/shape"
  op: "Const"
  attr {
    key: "dtype"
    value {
      type: DT_INT32
    }
  }
  attr {
    key: "value"
    value {
      tensor {
        dtype: DT_INT32
        tensor_shape {
          dim {
            size: 2
          }
        }
        tensor_content: "\032\000\000\000\031\000\000\000"
      }
    }
  }
}
node {
  name: "layer_2/weights_and_biases/random_normal/mean"
  op: "Const"
  attr {
    key: "dtype"
    value {
      type: DT_FLOAT
    }
  }
  attr {
    key: "value"
    value {
      tensor {
        dtype: DT_FLOAT
        tensor_shape {
        }
        float_val: 0.0
      }
    }
  }
}
node {
  name: "layer_2/weights_and_biases/random_normal/stddev"
  op: "Const"
  attr {
    key: "dtype"
    value {
      type: DT_FLOAT
    }
  }
  attr {
    key: "value"
    value {
      tensor {
        dtype: DT_FLOAT
        tensor_shape {
        }
        float_val: 1.0
      }
    }
  }
}
node {
  name: "layer_2/weights_and_biases/random_normal/RandomStandardNormal"
  op: "RandomStandardNormal"
  input: "layer_2/weights_and_biases/random_normal/shape"
  attr {
    key: "T"
    value {
      type: DT_INT32
    }
  }
  attr {
    key: "dtype"
    value {
      type: DT_FLOAT
    }
  }
  attr {
    key: "seed"
    value {
      i: 0
    }
  }
  attr {
    key: "seed2"
    value {
      i: 0
    }
  }
}
node {
  name: "layer_2/weights_and_biases/random_normal/mul"
  op: "Mul"
  input: "layer_2/weights_and_biases/random_normal/RandomStandardNormal"
  input: "layer_2/weights_and_biases/random_normal/stddev"
  attr {
    key: "T"
    value {
      type: DT_FLOAT
    }
  }
}
node {
  name: "layer_2/weights_and_biases/random_normal"
  op: "Add"
  input: "layer_2/weights_and_biases/random_normal/mul"
  input: "layer_2/weights_and_biases/random_normal/mean"
  attr {
    key: "T"
    value {
      type: DT_FLOAT
    }
  }
}
node {
  name: "layer_2/weights_and_biases/forget_weight"
  op: "VariableV2"
  attr {
    key: "container"
    value {
      s: ""
    }
  }
  attr {
    key: "dtype"
    value {
      type: DT_FLOAT
    }
  }
  attr {
    key: "shape"
    value {
      shape {
        dim {
          size: 26
        }
        dim {
          size: 25
        }
      }
    }
  }
  attr {
    key: "shared_name"
    value {
      s: ""
    }
  }
}
node {
  name: "layer_2/weights_and_biases/forget_weight/Assign"
  op: "Assign"
  input: "layer_2/weights_and_biases/forget_weight"
  input: "layer_2/weights_and_biases/random_normal"
  attr {
    key: "T"
    value {
      type: DT_FLOAT
    }
  }
  attr {
    key: "_class"
    value {
      list {
        s: "loc:@layer_2/weights_and_biases/forget_weight"
      }
    }
  }
  attr {
    key: "use_locking"
    value {
      b: true
    }
  }
  attr {
    key: "validate_shape"
    value {
      b: true
    }
  }
}
node {
  name: "layer_2/weights_and_biases/forget_weight/read"
  op: "Identity"
  input: "layer_2/weights_and_biases/forget_weight"
  attr {
    key: "T"
    value {
      type: DT_FLOAT
    }
  }
  attr {
    key: "_class"
    value {
      list {
        s: "loc:@layer_2/weights_and_biases/forget_weight"
      }
    }
  }
}
node {
  name: "layer_2/weights_and_biases/random_normal_1/shape"
  op: "Const"
  attr {
    key: "dtype"
    value {
      type: DT_INT32
    }
  }
  attr {
    key: "value"
    value {
      tensor {
        dtype: DT_INT32
        tensor_shape {
          dim {
            size: 2
          }
        }
        tensor_content: "\032\000\000\000\031\000\000\000"
      }
    }
  }
}
node {
  name: "layer_2/weights_and_biases/random_normal_1/mean"
  op: "Const"
  attr {
    key: "dtype"
    value {
      type: DT_FLOAT
    }
  }
  attr {
    key: "value"
    value {
      tensor {
        dtype: DT_FLOAT
        tensor_shape {
        }
        float_val: 0.0
      }
    }
  }
}
node {
  name: "layer_2/weights_and_biases/random_normal_1/stddev"
  op: "Const"
  attr {
    key: "dtype"
    value {
      type: DT_FLOAT
    }
  }
  attr {
    key: "value"
    value {
      tensor {
        dtype: DT_FLOAT
        tensor_shape {
        }
        float_val: 1.0
      }
    }
  }
}
node {
  name: "layer_2/weights_and_biases/random_normal_1/RandomStandardNormal"
  op: "RandomStandardNormal"
  input: "layer_2/weights_and_biases/random_normal_1/shape"
  attr {
    key: "T"
    value {
      type: DT_INT32
    }
  }
  attr {
    key: "dtype"
    value {
      type: DT_FLOAT
    }
  }
  attr {
    key: "seed"
    value {
      i: 0
    }
  }
  attr {
    key: "seed2"
    value {
      i: 0
    }
  }
}
node {
  name: "layer_2/weights_and_biases/random_normal_1/mul"
  op: "Mul"
  input: "layer_2/weights_and_biases/random_normal_1/RandomStandardNormal"
  input: "layer_2/weights_and_biases/random_normal_1/stddev"
  attr {
    key: "T"
    value {
      type: DT_FLOAT
    }
  }
}
node {
  name: "layer_2/weights_and_biases/random_normal_1"
  op: "Add"
  input: "layer_2/weights_and_biases/random_normal_1/mul"
  input: "layer_2/weights_and_biases/random_normal_1/mean"
  attr {
    key: "T"
    value {
      type: DT_FLOAT
    }
  }
}
node {
  name: "layer_2/weights_and_biases/output_weight"
  op: "VariableV2"
  attr {
    key: "container"
    value {
      s: ""
    }
  }
  attr {
    key: "dtype"
    value {
      type: DT_FLOAT
    }
  }
  attr {
    key: "shape"
    value {
      shape {
        dim {
          size: 26
        }
        dim {
          size: 25
        }
      }
    }
  }
  attr {
    key: "shared_name"
    value {
      s: ""
    }
  }
}
node {
  name: "layer_2/weights_and_biases/output_weight/Assign"
  op: "Assign"
  input: "layer_2/weights_and_biases/output_weight"
  input: "layer_2/weights_and_biases/random_normal_1"
  attr {
    key: "T"
    value {
      type: DT_FLOAT
    }
  }
  attr {
    key: "_class"
    value {
      list {
        s: "loc:@layer_2/weights_and_biases/output_weight"
      }
    }
  }
  attr {
    key: "use_locking"
    value {
      b: true
    }
  }
  attr {
    key: "validate_shape"
    value {
      b: true
    }
  }
}
node {
  name: "layer_2/weights_and_biases/output_weight/read"
  op: "Identity"
  input: "layer_2/weights_and_biases/output_weight"
  attr {
    key: "T"
    value {
      type: DT_FLOAT
    }
  }
  attr {
    key: "_class"
    value {
      list {
        s: "loc:@layer_2/weights_and_biases/output_weight"
      }
    }
  }
}
node {
  name: "layer_2/weights_and_biases/random_normal_2/shape"
  op: "Const"
  attr {
    key: "dtype"
    value {
      type: DT_INT32
    }
  }
  attr {
    key: "value"
    value {
      tensor {
        dtype: DT_INT32
        tensor_shape {
          dim {
            size: 2
          }
        }
        tensor_content: "\032\000\000\000\031\000\000\000"
      }
    }
  }
}
node {
  name: "layer_2/weights_and_biases/random_normal_2/mean"
  op: "Const"
  attr {
    key: "dtype"
    value {
      type: DT_FLOAT
    }
  }
  attr {
    key: "value"
    value {
      tensor {
        dtype: DT_FLOAT
        tensor_shape {
        }
        float_val: 0.0
      }
    }
  }
}
node {
  name: "layer_2/weights_and_biases/random_normal_2/stddev"
  op: "Const"
  attr {
    key: "dtype"
    value {
      type: DT_FLOAT
    }
  }
  attr {
    key: "value"
    value {
      tensor {
        dtype: DT_FLOAT
        tensor_shape {
        }
        float_val: 1.0
      }
    }
  }
}
node {
  name: "layer_2/weights_and_biases/random_normal_2/RandomStandardNormal"
  op: "RandomStandardNormal"
  input: "layer_2/weights_and_biases/random_normal_2/shape"
  attr {
    key: "T"
    value {
      type: DT_INT32
    }
  }
  attr {
    key: "dtype"
    value {
      type: DT_FLOAT
    }
  }
  attr {
    key: "seed"
    value {
      i: 0
    }
  }
  attr {
    key: "seed2"
    value {
      i: 0
    }
  }
}
node {
  name: "layer_2/weights_and_biases/random_normal_2/mul"
  op: "Mul"
  input: "layer_2/weights_and_biases/random_normal_2/RandomStandardNormal"
  input: "layer_2/weights_and_biases/random_normal_2/stddev"
  attr {
    key: "T"
    value {
      type: DT_FLOAT
    }
  }
}
node {
  name: "layer_2/weights_and_biases/random_normal_2"
  op: "Add"
  input: "layer_2/weights_and_biases/random_normal_2/mul"
  input: "layer_2/weights_and_biases/random_normal_2/mean"
  attr {
    key: "T"
    value {
      type: DT_FLOAT
    }
  }
}
node {
  name: "layer_2/weights_and_biases/gate_weight"
  op: "VariableV2"
  attr {
    key: "container"
    value {
      s: ""
    }
  }
  attr {
    key: "dtype"
    value {
      type: DT_FLOAT
    }
  }
  attr {
    key: "shape"
    value {
      shape {
        dim {
          size: 26
        }
        dim {
          size: 25
        }
      }
    }
  }
  attr {
    key: "shared_name"
    value {
      s: ""
    }
  }
}
node {
  name: "layer_2/weights_and_biases/gate_weight/Assign"
  op: "Assign"
  input: "layer_2/weights_and_biases/gate_weight"
  input: "layer_2/weights_and_biases/random_normal_2"
  attr {
    key: "T"
    value {
      type: DT_FLOAT
    }
  }
  attr {
    key: "_class"
    value {
      list {
        s: "loc:@layer_2/weights_and_biases/gate_weight"
      }
    }
  }
  attr {
    key: "use_locking"
    value {
      b: true
    }
  }
  attr {
    key: "validate_shape"
    value {
      b: true
    }
  }
}
node {
  name: "layer_2/weights_and_biases/gate_weight/read"
  op: "Identity"
  input: "layer_2/weights_and_biases/gate_weight"
  attr {
    key: "T"
    value {
      type: DT_FLOAT
    }
  }
  attr {
    key: "_class"
    value {
      list {
        s: "loc:@layer_2/weights_and_biases/gate_weight"
      }
    }
  }
}
node {
  name: "layer_2/weights_and_biases/random_normal_3/shape"
  op: "Const"
  attr {
    key: "dtype"
    value {
      type: DT_INT32
    }
  }
  attr {
    key: "value"
    value {
      tensor {
        dtype: DT_INT32
        tensor_shape {
          dim {
            size: 2
          }
        }
        tensor_content: "\032\000\000\000\031\000\000\000"
      }
    }
  }
}
node {
  name: "layer_2/weights_and_biases/random_normal_3/mean"
  op: "Const"
  attr {
    key: "dtype"
    value {
      type: DT_FLOAT
    }
  }
  attr {
    key: "value"
    value {
      tensor {
        dtype: DT_FLOAT
        tensor_shape {
        }
        float_val: 0.0
      }
    }
  }
}
node {
  name: "layer_2/weights_and_biases/random_normal_3/stddev"
  op: "Const"
  attr {
    key: "dtype"
    value {
      type: DT_FLOAT
    }
  }
  attr {
    key: "value"
    value {
      tensor {
        dtype: DT_FLOAT
        tensor_shape {
        }
        float_val: 1.0
      }
    }
  }
}
node {
  name: "layer_2/weights_and_biases/random_normal_3/RandomStandardNormal"
  op: "RandomStandardNormal"
  input: "layer_2/weights_and_biases/random_normal_3/shape"
  attr {
    key: "T"
    value {
      type: DT_INT32
    }
  }
  attr {
    key: "dtype"
    value {
      type: DT_FLOAT
    }
  }
  attr {
    key: "seed"
    value {
      i: 0
    }
  }
  attr {
    key: "seed2"
    value {
      i: 0
    }
  }
}
node {
  name: "layer_2/weights_and_biases/random_normal_3/mul"
  op: "Mul"
  input: "layer_2/weights_and_biases/random_normal_3/RandomStandardNormal"
  input: "layer_2/weights_and_biases/random_normal_3/stddev"
  attr {
    key: "T"
    value {
      type: DT_FLOAT
    }
  }
}
node {
  name: "layer_2/weights_and_biases/random_normal_3"
  op: "Add"
  input: "layer_2/weights_and_biases/random_normal_3/mul"
  input: "layer_2/weights_and_biases/random_normal_3/mean"
  attr {
    key: "T"
    value {
      type: DT_FLOAT
    }
  }
}
node {
  name: "layer_2/weights_and_biases/input_weight"
  op: "VariableV2"
  attr {
    key: "container"
    value {
      s: ""
    }
  }
  attr {
    key: "dtype"
    value {
      type: DT_FLOAT
    }
  }
  attr {
    key: "shape"
    value {
      shape {
        dim {
          size: 26
        }
        dim {
          size: 25
        }
      }
    }
  }
  attr {
    key: "shared_name"
    value {
      s: ""
    }
  }
}
node {
  name: "layer_2/weights_and_biases/input_weight/Assign"
  op: "Assign"
  input: "layer_2/weights_and_biases/input_weight"
  input: "layer_2/weights_and_biases/random_normal_3"
  attr {
    key: "T"
    value {
      type: DT_FLOAT
    }
  }
  attr {
    key: "_class"
    value {
      list {
        s: "loc:@layer_2/weights_and_biases/input_weight"
      }
    }
  }
  attr {
    key: "use_locking"
    value {
      b: true
    }
  }
  attr {
    key: "validate_shape"
    value {
      b: true
    }
  }
}
node {
  name: "layer_2/weights_and_biases/input_weight/read"
  op: "Identity"
  input: "layer_2/weights_and_biases/input_weight"
  attr {
    key: "T"
    value {
      type: DT_FLOAT
    }
  }
  attr {
    key: "_class"
    value {
      list {
        s: "loc:@layer_2/weights_and_biases/input_weight"
      }
    }
  }
}
node {
  name: "layer_2/weights_and_biases/random_normal_4/shape"
  op: "Const"
  attr {
    key: "dtype"
    value {
      type: DT_INT32
    }
  }
  attr {
    key: "value"
    value {
      tensor {
        dtype: DT_INT32
        tensor_shape {
          dim {
            size: 2
          }
        }
        tensor_content: "\031\000\000\000\001\000\000\000"
      }
    }
  }
}
node {
  name: "layer_2/weights_and_biases/random_normal_4/mean"
  op: "Const"
  attr {
    key: "dtype"
    value {
      type: DT_FLOAT
    }
  }
  attr {
    key: "value"
    value {
      tensor {
        dtype: DT_FLOAT
        tensor_shape {
        }
        float_val: 0.0
      }
    }
  }
}
node {
  name: "layer_2/weights_and_biases/random_normal_4/stddev"
  op: "Const"
  attr {
    key: "dtype"
    value {
      type: DT_FLOAT
    }
  }
  attr {
    key: "value"
    value {
      tensor {
        dtype: DT_FLOAT
        tensor_shape {
        }
        float_val: 1.0
      }
    }
  }
}
node {
  name: "layer_2/weights_and_biases/random_normal_4/RandomStandardNormal"
  op: "RandomStandardNormal"
  input: "layer_2/weights_and_biases/random_normal_4/shape"
  attr {
    key: "T"
    value {
      type: DT_INT32
    }
  }
  attr {
    key: "dtype"
    value {
      type: DT_FLOAT
    }
  }
  attr {
    key: "seed"
    value {
      i: 0
    }
  }
  attr {
    key: "seed2"
    value {
      i: 0
    }
  }
}
node {
  name: "layer_2/weights_and_biases/random_normal_4/mul"
  op: "Mul"
  input: "layer_2/weights_and_biases/random_normal_4/RandomStandardNormal"
  input: "layer_2/weights_and_biases/random_normal_4/stddev"
  attr {
    key: "T"
    value {
      type: DT_FLOAT
    }
  }
}
node {
  name: "layer_2/weights_and_biases/random_normal_4"
  op: "Add"
  input: "layer_2/weights_and_biases/random_normal_4/mul"
  input: "layer_2/weights_and_biases/random_normal_4/mean"
  attr {
    key: "T"
    value {
      type: DT_FLOAT
    }
  }
}
node {
  name: "layer_2/weights_and_biases/outwards_propagating_weight"
  op: "VariableV2"
  attr {
    key: "container"
    value {
      s: ""
    }
  }
  attr {
    key: "dtype"
    value {
      type: DT_FLOAT
    }
  }
  attr {
    key: "shape"
    value {
      shape {
        dim {
          size: 25
        }
        dim {
          size: 1
        }
      }
    }
  }
  attr {
    key: "shared_name"
    value {
      s: ""
    }
  }
}
node {
  name: "layer_2/weights_and_biases/outwards_propagating_weight/Assign"
  op: "Assign"
  input: "layer_2/weights_and_biases/outwards_propagating_weight"
  input: "layer_2/weights_and_biases/random_normal_4"
  attr {
    key: "T"
    value {
      type: DT_FLOAT
    }
  }
  attr {
    key: "_class"
    value {
      list {
        s: "loc:@layer_2/weights_and_biases/outwards_propagating_weight"
      }
    }
  }
  attr {
    key: "use_locking"
    value {
      b: true
    }
  }
  attr {
    key: "validate_shape"
    value {
      b: true
    }
  }
}
node {
  name: "layer_2/weights_and_biases/outwards_propagating_weight/read"
  op: "Identity"
  input: "layer_2/weights_and_biases/outwards_propagating_weight"
  attr {
    key: "T"
    value {
      type: DT_FLOAT
    }
  }
  attr {
    key: "_class"
    value {
      list {
        s: "loc:@layer_2/weights_and_biases/outwards_propagating_weight"
      }
    }
  }
}
node {
  name: "layer_2/weights_and_biases/zeros"
  op: "Const"
  attr {
    key: "dtype"
    value {
      type: DT_FLOAT
    }
  }
  attr {
    key: "value"
    value {
      tensor {
        dtype: DT_FLOAT
        tensor_shape {
          dim {
            size: 1
          }
          dim {
            size: 25
          }
        }
        float_val: 0.0
      }
    }
  }
}
node {
  name: "layer_2/weights_and_biases/forget_bias"
  op: "VariableV2"
  attr {
    key: "container"
    value {
      s: ""
    }
  }
  attr {
    key: "dtype"
    value {
      type: DT_FLOAT
    }
  }
  attr {
    key: "shape"
    value {
      shape {
        dim {
          size: 1
        }
        dim {
          size: 25
        }
      }
    }
  }
  attr {
    key: "shared_name"
    value {
      s: ""
    }
  }
}
node {
  name: "layer_2/weights_and_biases/forget_bias/Assign"
  op: "Assign"
  input: "layer_2/weights_and_biases/forget_bias"
  input: "layer_2/weights_and_biases/zeros"
  attr {
    key: "T"
    value {
      type: DT_FLOAT
    }
  }
  attr {
    key: "_class"
    value {
      list {
        s: "loc:@layer_2/weights_and_biases/forget_bias"
      }
    }
  }
  attr {
    key: "use_locking"
    value {
      b: true
    }
  }
  attr {
    key: "validate_shape"
    value {
      b: true
    }
  }
}
node {
  name: "layer_2/weights_and_biases/forget_bias/read"
  op: "Identity"
  input: "layer_2/weights_and_biases/forget_bias"
  attr {
    key: "T"
    value {
      type: DT_FLOAT
    }
  }
  attr {
    key: "_class"
    value {
      list {
        s: "loc:@layer_2/weights_and_biases/forget_bias"
      }
    }
  }
}
node {
  name: "layer_2/weights_and_biases/zeros_1"
  op: "Const"
  attr {
    key: "dtype"
    value {
      type: DT_FLOAT
    }
  }
  attr {
    key: "value"
    value {
      tensor {
        dtype: DT_FLOAT
        tensor_shape {
          dim {
            size: 1
          }
          dim {
            size: 25
          }
        }
        float_val: 0.0
      }
    }
  }
}
node {
  name: "layer_2/weights_and_biases/output_bias"
  op: "VariableV2"
  attr {
    key: "container"
    value {
      s: ""
    }
  }
  attr {
    key: "dtype"
    value {
      type: DT_FLOAT
    }
  }
  attr {
    key: "shape"
    value {
      shape {
        dim {
          size: 1
        }
        dim {
          size: 25
        }
      }
    }
  }
  attr {
    key: "shared_name"
    value {
      s: ""
    }
  }
}
node {
  name: "layer_2/weights_and_biases/output_bias/Assign"
  op: "Assign"
  input: "layer_2/weights_and_biases/output_bias"
  input: "layer_2/weights_and_biases/zeros_1"
  attr {
    key: "T"
    value {
      type: DT_FLOAT
    }
  }
  attr {
    key: "_class"
    value {
      list {
        s: "loc:@layer_2/weights_and_biases/output_bias"
      }
    }
  }
  attr {
    key: "use_locking"
    value {
      b: true
    }
  }
  attr {
    key: "validate_shape"
    value {
      b: true
    }
  }
}
node {
  name: "layer_2/weights_and_biases/output_bias/read"
  op: "Identity"
  input: "layer_2/weights_and_biases/output_bias"
  attr {
    key: "T"
    value {
      type: DT_FLOAT
    }
  }
  attr {
    key: "_class"
    value {
      list {
        s: "loc:@layer_2/weights_and_biases/output_bias"
      }
    }
  }
}
node {
  name: "layer_2/weights_and_biases/zeros_2"
  op: "Const"
  attr {
    key: "dtype"
    value {
      type: DT_FLOAT
    }
  }
  attr {
    key: "value"
    value {
      tensor {
        dtype: DT_FLOAT
        tensor_shape {
          dim {
            size: 1
          }
          dim {
            size: 25
          }
        }
        float_val: 0.0
      }
    }
  }
}
node {
  name: "layer_2/weights_and_biases/gate_bias"
  op: "VariableV2"
  attr {
    key: "container"
    value {
      s: ""
    }
  }
  attr {
    key: "dtype"
    value {
      type: DT_FLOAT
    }
  }
  attr {
    key: "shape"
    value {
      shape {
        dim {
          size: 1
        }
        dim {
          size: 25
        }
      }
    }
  }
  attr {
    key: "shared_name"
    value {
      s: ""
    }
  }
}
node {
  name: "layer_2/weights_and_biases/gate_bias/Assign"
  op: "Assign"
  input: "layer_2/weights_and_biases/gate_bias"
  input: "layer_2/weights_and_biases/zeros_2"
  attr {
    key: "T"
    value {
      type: DT_FLOAT
    }
  }
  attr {
    key: "_class"
    value {
      list {
        s: "loc:@layer_2/weights_and_biases/gate_bias"
      }
    }
  }
  attr {
    key: "use_locking"
    value {
      b: true
    }
  }
  attr {
    key: "validate_shape"
    value {
      b: true
    }
  }
}
node {
  name: "layer_2/weights_and_biases/gate_bias/read"
  op: "Identity"
  input: "layer_2/weights_and_biases/gate_bias"
  attr {
    key: "T"
    value {
      type: DT_FLOAT
    }
  }
  attr {
    key: "_class"
    value {
      list {
        s: "loc:@layer_2/weights_and_biases/gate_bias"
      }
    }
  }
}
node {
  name: "layer_2/weights_and_biases/zeros_3"
  op: "Const"
  attr {
    key: "dtype"
    value {
      type: DT_FLOAT
    }
  }
  attr {
    key: "value"
    value {
      tensor {
        dtype: DT_FLOAT
        tensor_shape {
          dim {
            size: 1
          }
          dim {
            size: 25
          }
        }
        float_val: 0.0
      }
    }
  }
}
node {
  name: "layer_2/weights_and_biases/input_bias"
  op: "VariableV2"
  attr {
    key: "container"
    value {
      s: ""
    }
  }
  attr {
    key: "dtype"
    value {
      type: DT_FLOAT
    }
  }
  attr {
    key: "shape"
    value {
      shape {
        dim {
          size: 1
        }
        dim {
          size: 25
        }
      }
    }
  }
  attr {
    key: "shared_name"
    value {
      s: ""
    }
  }
}
node {
  name: "layer_2/weights_and_biases/input_bias/Assign"
  op: "Assign"
  input: "layer_2/weights_and_biases/input_bias"
  input: "layer_2/weights_and_biases/zeros_3"
  attr {
    key: "T"
    value {
      type: DT_FLOAT
    }
  }
  attr {
    key: "_class"
    value {
      list {
        s: "loc:@layer_2/weights_and_biases/input_bias"
      }
    }
  }
  attr {
    key: "use_locking"
    value {
      b: true
    }
  }
  attr {
    key: "validate_shape"
    value {
      b: true
    }
  }
}
node {
  name: "layer_2/weights_and_biases/input_bias/read"
  op: "Identity"
  input: "layer_2/weights_and_biases/input_bias"
  attr {
    key: "T"
    value {
      type: DT_FLOAT
    }
  }
  attr {
    key: "_class"
    value {
      list {
        s: "loc:@layer_2/weights_and_biases/input_bias"
      }
    }
  }
}
node {
  name: "layer_2/weights_and_biases/zeros_4"
  op: "Const"
  attr {
    key: "dtype"
    value {
      type: DT_FLOAT
    }
  }
  attr {
    key: "value"
    value {
      tensor {
        dtype: DT_FLOAT
        tensor_shape {
          dim {
            size: 1
          }
          dim {
            size: 1
          }
        }
        float_val: 0.0
      }
    }
  }
}
node {
  name: "layer_2/weights_and_biases/outwards_propagating_bias"
  op: "VariableV2"
  attr {
    key: "container"
    value {
      s: ""
    }
  }
  attr {
    key: "dtype"
    value {
      type: DT_FLOAT
    }
  }
  attr {
    key: "shape"
    value {
      shape {
        dim {
          size: 1
        }
        dim {
          size: 1
        }
      }
    }
  }
  attr {
    key: "shared_name"
    value {
      s: ""
    }
  }
}
node {
  name: "layer_2/weights_and_biases/outwards_propagating_bias/Assign"
  op: "Assign"
  input: "layer_2/weights_and_biases/outwards_propagating_bias"
  input: "layer_2/weights_and_biases/zeros_4"
  attr {
    key: "T"
    value {
      type: DT_FLOAT
    }
  }
  attr {
    key: "_class"
    value {
      list {
        s: "loc:@layer_2/weights_and_biases/outwards_propagating_bias"
      }
    }
  }
  attr {
    key: "use_locking"
    value {
      b: true
    }
  }
  attr {
    key: "validate_shape"
    value {
      b: true
    }
  }
}
node {
  name: "layer_2/weights_and_biases/outwards_propagating_bias/read"
  op: "Identity"
  input: "layer_2/weights_and_biases/outwards_propagating_bias"
  attr {
    key: "T"
    value {
      type: DT_FLOAT
    }
  }
  attr {
    key: "_class"
    value {
      list {
        s: "loc:@layer_2/weights_and_biases/outwards_propagating_bias"
      }
    }
  }
}
node {
  name: "layer_2/placeholders/last_hidden"
  op: "Placeholder"
  attr {
    key: "dtype"
    value {
      type: DT_FLOAT
    }
  }
  attr {
    key: "shape"
    value {
      shape {
        dim {
          size: 1
        }
        dim {
          size: 25
        }
      }
    }
  }
}
node {
  name: "layer_2/placeholders/last_cell"
  op: "Placeholder"
  attr {
    key: "dtype"
    value {
      type: DT_FLOAT
    }
  }
  attr {
    key: "shape"
    value {
      shape {
        dim {
          size: 1
        }
        dim {
          size: 25
        }
      }
    }
  }
}
node {
  name: "layer_2/to_gates/input_concat/axis"
  op: "Const"
  attr {
    key: "dtype"
    value {
      type: DT_INT32
    }
  }
  attr {
    key: "value"
    value {
      tensor {
        dtype: DT_INT32
        tensor_shape {
        }
        int_val: 1
      }
    }
  }
}
node {
  name: "layer_2/to_gates/input_concat"
  op: "ConcatV2"
  input: "layer_1/output_gate/output"
  input: "layer_2/placeholders/last_hidden"
  input: "layer_2/to_gates/input_concat/axis"
  attr {
    key: "N"
    value {
      i: 2
    }
  }
  attr {
    key: "T"
    value {
      type: DT_FLOAT
    }
  }
  attr {
    key: "Tidx"
    value {
      type: DT_INT32
    }
  }
}
node {
  name: "layer_2/to_gates/f_w_m"
  op: "MatMul"
  input: "layer_2/to_gates/input_concat"
  input: "layer_2/weights_and_biases/forget_weight/read"
  attr {
    key: "T"
    value {
      type: DT_FLOAT
    }
  }
  attr {
    key: "transpose_a"
    value {
      b: false
    }
  }
  attr {
    key: "transpose_b"
    value {
      b: false
    }
  }
}
node {
  name: "layer_2/to_gates/f_b_a"
  op: "Add"
  input: "layer_2/to_gates/f_w_m"
  input: "layer_2/weights_and_biases/forget_bias/read"
  attr {
    key: "T"
    value {
      type: DT_FLOAT
    }
  }
}
node {
  name: "layer_2/to_gates/o_w_m"
  op: "MatMul"
  input: "layer_2/to_gates/input_concat"
  input: "layer_2/weights_and_biases/output_weight/read"
  attr {
    key: "T"
    value {
      type: DT_FLOAT
    }
  }
  attr {
    key: "transpose_a"
    value {
      b: false
    }
  }
  attr {
    key: "transpose_b"
    value {
      b: false
    }
  }
}
node {
  name: "layer_2/to_gates/o_b_a"
  op: "Add"
  input: "layer_2/to_gates/o_w_m"
  input: "layer_2/weights_and_biases/output_bias/read"
  attr {
    key: "T"
    value {
      type: DT_FLOAT
    }
  }
}
node {
  name: "layer_2/to_gates/g_w_m"
  op: "MatMul"
  input: "layer_2/to_gates/input_concat"
  input: "layer_2/weights_and_biases/gate_weight/read"
  attr {
    key: "T"
    value {
      type: DT_FLOAT
    }
  }
  attr {
    key: "transpose_a"
    value {
      b: false
    }
  }
  attr {
    key: "transpose_b"
    value {
      b: false
    }
  }
}
node {
  name: "layer_2/to_gates/g_b_a"
  op: "Add"
  input: "layer_2/to_gates/g_w_m"
  input: "layer_2/weights_and_biases/gate_bias/read"
  attr {
    key: "T"
    value {
      type: DT_FLOAT
    }
  }
}
node {
  name: "layer_2/to_gates/i_w_m"
  op: "MatMul"
  input: "layer_2/to_gates/input_concat"
  input: "layer_2/weights_and_biases/input_weight/read"
  attr {
    key: "T"
    value {
      type: DT_FLOAT
    }
  }
  attr {
    key: "transpose_a"
    value {
      b: false
    }
  }
  attr {
    key: "transpose_b"
    value {
      b: false
    }
  }
}
node {
  name: "layer_2/to_gates/i_b_a"
  op: "Add"
  input: "layer_2/to_gates/i_w_m"
  input: "layer_2/weights_and_biases/input_bias/read"
  attr {
    key: "T"
    value {
      type: DT_FLOAT
    }
  }
}
node {
  name: "layer_2/non-linearity/sigmoid_forget"
  op: "Sigmoid"
  input: "layer_2/to_gates/f_b_a"
  attr {
    key: "T"
    value {
      type: DT_FLOAT
    }
  }
}
node {
  name: "layer_2/non-linearity/sigmoid_output"
  op: "Sigmoid"
  input: "layer_2/to_gates/o_b_a"
  attr {
    key: "T"
    value {
      type: DT_FLOAT
    }
  }
}
node {
  name: "layer_2/non-linearity/sigmoid_input"
  op: "Sigmoid"
  input: "layer_2/to_gates/i_b_a"
  attr {
    key: "T"
    value {
      type: DT_FLOAT
    }
  }
}
node {
  name: "layer_2/non-linearity/tanh_gate"
  op: "Tanh"
  input: "layer_2/to_gates/g_b_a"
  attr {
    key: "T"
    value {
      type: DT_FLOAT
    }
  }
}
node {
  name: "layer_2/forget_gate/forget_gating"
  op: "Mul"
  input: "layer_2/non-linearity/sigmoid_forget"
  input: "layer_2/placeholders/last_cell"
  attr {
    key: "T"
    value {
      type: DT_FLOAT
    }
  }
}
node {
  name: "layer_2/suggestion_node/input_determiner"
  op: "Mul"
  input: "layer_2/non-linearity/sigmoid_input"
  input: "layer_2/non-linearity/tanh_gate"
  attr {
    key: "T"
    value {
      type: DT_FLOAT
    }
  }
}
node {
  name: "layer_2/suggestion_node/input_and_gate_gating"
  op: "Add"
  input: "layer_2/suggestion_node/input_determiner"
  input: "layer_2/forget_gate/forget_gating"
  attr {
    key: "T"
    value {
      type: DT_FLOAT
    }
  }
}
node {
  name: "layer_2/output_gate/output_presquashing"
  op: "Tanh"
  input: "layer_2/suggestion_node/input_and_gate_gating"
  attr {
    key: "T"
    value {
      type: DT_FLOAT
    }
  }
}
node {
  name: "layer_2/output_gate/next_hidden"
  op: "Mul"
  input: "layer_2/non-linearity/sigmoid_output"
  input: "layer_2/output_gate/output_presquashing"
  attr {
    key: "T"
    value {
      type: DT_FLOAT
    }
  }
}
node {
  name: "layer_2/output_gate/WHTO_w_m"
  op: "MatMul"
  input: "layer_2/output_gate/next_hidden"
  input: "layer_2/weights_and_biases/outwards_propagating_weight/read"
  attr {
    key: "T"
    value {
      type: DT_FLOAT
    }
  }
  attr {
    key: "transpose_a"
    value {
      b: false
    }
  }
  attr {
    key: "transpose_b"
    value {
      b: false
    }
  }
}
node {
  name: "layer_2/output_gate/BHTO_b_a"
  op: "Add"
  input: "layer_2/output_gate/WHTO_w_m"
  input: "layer_2/weights_and_biases/outwards_propagating_bias/read"
  attr {
    key: "T"
    value {
      type: DT_FLOAT
    }
  }
}
node {
  name: "layer_2/output_gate/output"
  op: "Relu"
  input: "layer_2/output_gate/BHTO_b_a"
  attr {
    key: "T"
    value {
      type: DT_FLOAT
    }
  }
}
node {
  name: "layer_2/summaries_and_saver/W_Forget/tag"
  op: "Const"
  attr {
    key: "dtype"
    value {
      type: DT_STRING
    }
  }
  attr {
    key: "value"
    value {
      tensor {
        dtype: DT_STRING
        tensor_shape {
        }
        string_val: "layer_2/summaries_and_saver/W_Forget"
      }
    }
  }
}
node {
  name: "layer_2/summaries_and_saver/W_Forget"
  op: "HistogramSummary"
  input: "layer_2/summaries_and_saver/W_Forget/tag"
  input: "layer_2/weights_and_biases/forget_weight/read"
  attr {
    key: "T"
    value {
      type: DT_FLOAT
    }
  }
}
node {
  name: "layer_2/summaries_and_saver/W_Input/tag"
  op: "Const"
  attr {
    key: "dtype"
    value {
      type: DT_STRING
    }
  }
  attr {
    key: "value"
    value {
      tensor {
        dtype: DT_STRING
        tensor_shape {
        }
        string_val: "layer_2/summaries_and_saver/W_Input"
      }
    }
  }
}
node {
  name: "layer_2/summaries_and_saver/W_Input"
  op: "HistogramSummary"
  input: "layer_2/summaries_and_saver/W_Input/tag"
  input: "layer_2/weights_and_biases/input_weight/read"
  attr {
    key: "T"
    value {
      type: DT_FLOAT
    }
  }
}
node {
  name: "layer_2/summaries_and_saver/W_Output/tag"
  op: "Const"
  attr {
    key: "dtype"
    value {
      type: DT_STRING
    }
  }
  attr {
    key: "value"
    value {
      tensor {
        dtype: DT_STRING
        tensor_shape {
        }
        string_val: "layer_2/summaries_and_saver/W_Output"
      }
    }
  }
}
node {
  name: "layer_2/summaries_and_saver/W_Output"
  op: "HistogramSummary"
  input: "layer_2/summaries_and_saver/W_Output/tag"
  input: "layer_2/weights_and_biases/output_weight/read"
  attr {
    key: "T"
    value {
      type: DT_FLOAT
    }
  }
}
node {
  name: "layer_2/summaries_and_saver/W_Gate/tag"
  op: "Const"
  attr {
    key: "dtype"
    value {
      type: DT_STRING
    }
  }
  attr {
    key: "value"
    value {
      tensor {
        dtype: DT_STRING
        tensor_shape {
        }
        string_val: "layer_2/summaries_and_saver/W_Gate"
      }
    }
  }
}
node {
  name: "layer_2/summaries_and_saver/W_Gate"
  op: "HistogramSummary"
  input: "layer_2/summaries_and_saver/W_Gate/tag"
  input: "layer_2/weights_and_biases/gate_weight/read"
  attr {
    key: "T"
    value {
      type: DT_FLOAT
    }
  }
}
node {
  name: "layer_2/summaries_and_saver/W_Hidden_to_Out/tag"
  op: "Const"
  attr {
    key: "dtype"
    value {
      type: DT_STRING
    }
  }
  attr {
    key: "value"
    value {
      tensor {
        dtype: DT_STRING
        tensor_shape {
        }
        string_val: "layer_2/summaries_and_saver/W_Hidden_to_Out"
      }
    }
  }
}
node {
  name: "layer_2/summaries_and_saver/W_Hidden_to_Out"
  op: "HistogramSummary"
  input: "layer_2/summaries_and_saver/W_Hidden_to_Out/tag"
  input: "layer_2/weights_and_biases/outwards_propagating_weight/read"
  attr {
    key: "T"
    value {
      type: DT_FLOAT
    }
  }
}
node {
  name: "layer_2/summaries_and_saver/Cell_State/tag"
  op: "Const"
  attr {
    key: "dtype"
    value {
      type: DT_STRING
    }
  }
  attr {
    key: "value"
    value {
      tensor {
        dtype: DT_STRING
        tensor_shape {
        }
        string_val: "layer_2/summaries_and_saver/Cell_State"
      }
    }
  }
}
node {
  name: "layer_2/summaries_and_saver/Cell_State"
  op: "HistogramSummary"
  input: "layer_2/summaries_and_saver/Cell_State/tag"
  input: "layer_2/output_gate/output_presquashing"
  attr {
    key: "T"
    value {
      type: DT_FLOAT
    }
  }
}
node {
  name: "layer_2/summaries_and_saver/B_Forget/tag"
  op: "Const"
  attr {
    key: "dtype"
    value {
      type: DT_STRING
    }
  }
  attr {
    key: "value"
    value {
      tensor {
        dtype: DT_STRING
        tensor_shape {
        }
        string_val: "layer_2/summaries_and_saver/B_Forget"
      }
    }
  }
}
node {
  name: "layer_2/summaries_and_saver/B_Forget"
  op: "HistogramSummary"
  input: "layer_2/summaries_and_saver/B_Forget/tag"
  input: "layer_2/weights_and_biases/forget_bias/read"
  attr {
    key: "T"
    value {
      type: DT_FLOAT
    }
  }
}
node {
  name: "layer_2/summaries_and_saver/B_Input/tag"
  op: "Const"
  attr {
    key: "dtype"
    value {
      type: DT_STRING
    }
  }
  attr {
    key: "value"
    value {
      tensor {
        dtype: DT_STRING
        tensor_shape {
        }
        string_val: "layer_2/summaries_and_saver/B_Input"
      }
    }
  }
}
node {
  name: "layer_2/summaries_and_saver/B_Input"
  op: "HistogramSummary"
  input: "layer_2/summaries_and_saver/B_Input/tag"
  input: "layer_2/weights_and_biases/input_bias/read"
  attr {
    key: "T"
    value {
      type: DT_FLOAT
    }
  }
}
node {
  name: "layer_2/summaries_and_saver/B_Output/tag"
  op: "Const"
  attr {
    key: "dtype"
    value {
      type: DT_STRING
    }
  }
  attr {
    key: "value"
    value {
      tensor {
        dtype: DT_STRING
        tensor_shape {
        }
        string_val: "layer_2/summaries_and_saver/B_Output"
      }
    }
  }
}
node {
  name: "layer_2/summaries_and_saver/B_Output"
  op: "HistogramSummary"
  input: "layer_2/summaries_and_saver/B_Output/tag"
  input: "layer_2/weights_and_biases/output_bias/read"
  attr {
    key: "T"
    value {
      type: DT_FLOAT
    }
  }
}
node {
  name: "layer_2/summaries_and_saver/B_Gate/tag"
  op: "Const"
  attr {
    key: "dtype"
    value {
      type: DT_STRING
    }
  }
  attr {
    key: "value"
    value {
      tensor {
        dtype: DT_STRING
        tensor_shape {
        }
        string_val: "layer_2/summaries_and_saver/B_Gate"
      }
    }
  }
}
node {
  name: "layer_2/summaries_and_saver/B_Gate"
  op: "HistogramSummary"
  input: "layer_2/summaries_and_saver/B_Gate/tag"
  input: "layer_2/weights_and_biases/gate_bias/read"
  attr {
    key: "T"
    value {
      type: DT_FLOAT
    }
  }
}
node {
  name: "layer_2/summaries_and_saver/B_Hidden_to_Out/tag"
  op: "Const"
  attr {
    key: "dtype"
    value {
      type: DT_STRING
    }
  }
  attr {
    key: "value"
    value {
      tensor {
        dtype: DT_STRING
        tensor_shape {
        }
        string_val: "layer_2/summaries_and_saver/B_Hidden_to_Out"
      }
    }
  }
}
node {
  name: "layer_2/summaries_and_saver/B_Hidden_to_Out"
  op: "HistogramSummary"
  input: "layer_2/summaries_and_saver/B_Hidden_to_Out/tag"
  input: "layer_2/weights_and_biases/outwards_propagating_bias/read"
  attr {
    key: "T"
    value {
      type: DT_FLOAT
    }
  }
}
node {
  name: "placeholders/label"
  op: "Placeholder"
  attr {
    key: "dtype"
    value {
      type: DT_FLOAT
    }
  }
  attr {
    key: "shape"
    value {
      shape {
        dim {
          size: 1
        }
        dim {
          size: 1
        }
      }
    }
  }
}
node {
  name: "loss/Sub"
  op: "Sub"
  input: "layer_2/output_gate/output"
  input: "placeholders/label"
  attr {
    key: "T"
    value {
      type: DT_FLOAT
    }
  }
}
node {
  name: "loss/Square"
  op: "Square"
  input: "loss/Sub"
  attr {
    key: "T"
    value {
      type: DT_FLOAT
    }
  }
}
node {
  name: "loss/Const"
  op: "Const"
  attr {
    key: "dtype"
    value {
      type: DT_INT32
    }
  }
  attr {
    key: "value"
    value {
      tensor {
        dtype: DT_INT32
        tensor_shape {
          dim {
            size: 2
          }
        }
        tensor_content: "\000\000\000\000\001\000\000\000"
      }
    }
  }
}
node {
  name: "loss/Sum"
  op: "Sum"
  input: "loss/Square"
  input: "loss/Const"
  attr {
    key: "T"
    value {
      type: DT_FLOAT
    }
  }
  attr {
    key: "Tidx"
    value {
      type: DT_INT32
    }
  }
  attr {
    key: "keep_dims"
    value {
      b: false
    }
  }
}
node {
  name: "optimizer/gradients/Shape"
  op: "Const"
  attr {
    key: "dtype"
    value {
      type: DT_INT32
    }
  }
  attr {
    key: "value"
    value {
      tensor {
        dtype: DT_INT32
        tensor_shape {
          dim {
          }
        }
      }
    }
  }
}
node {
  name: "optimizer/gradients/grad_ys_0"
  op: "Const"
  attr {
    key: "dtype"
    value {
      type: DT_FLOAT
    }
  }
  attr {
    key: "value"
    value {
      tensor {
        dtype: DT_FLOAT
        tensor_shape {
        }
        float_val: 1.0
      }
    }
  }
}
node {
  name: "optimizer/gradients/Fill"
  op: "Fill"
  input: "optimizer/gradients/Shape"
  input: "optimizer/gradients/grad_ys_0"
  attr {
    key: "T"
    value {
      type: DT_FLOAT
    }
  }
  attr {
    key: "index_type"
    value {
      type: DT_INT32
    }
  }
}
node {
  name: "optimizer/gradients/loss/Sum_grad/Reshape/shape"
  op: "Const"
  attr {
    key: "dtype"
    value {
      type: DT_INT32
    }
  }
  attr {
    key: "value"
    value {
      tensor {
        dtype: DT_INT32
        tensor_shape {
          dim {
            size: 2
          }
        }
        tensor_content: "\001\000\000\000\001\000\000\000"
      }
    }
  }
}
node {
  name: "optimizer/gradients/loss/Sum_grad/Reshape"
  op: "Reshape"
  input: "optimizer/gradients/Fill"
  input: "optimizer/gradients/loss/Sum_grad/Reshape/shape"
  attr {
    key: "T"
    value {
      type: DT_FLOAT
    }
  }
  attr {
    key: "Tshape"
    value {
      type: DT_INT32
    }
  }
}
node {
  name: "optimizer/gradients/loss/Sum_grad/Const"
  op: "Const"
  attr {
    key: "dtype"
    value {
      type: DT_INT32
    }
  }
  attr {
    key: "value"
    value {
      tensor {
        dtype: DT_INT32
        tensor_shape {
          dim {
            size: 2
          }
        }
        tensor_content: "\001\000\000\000\001\000\000\000"
      }
    }
  }
}
node {
  name: "optimizer/gradients/loss/Sum_grad/Tile"
  op: "Tile"
  input: "optimizer/gradients/loss/Sum_grad/Reshape"
  input: "optimizer/gradients/loss/Sum_grad/Const"
  attr {
    key: "T"
    value {
      type: DT_FLOAT
    }
  }
  attr {
    key: "Tmultiples"
    value {
      type: DT_INT32
    }
  }
}
node {
  name: "optimizer/gradients/loss/Square_grad/Const"
  op: "Const"
  input: "^optimizer/gradients/loss/Sum_grad/Tile"
  attr {
    key: "dtype"
    value {
      type: DT_FLOAT
    }
  }
  attr {
    key: "value"
    value {
      tensor {
        dtype: DT_FLOAT
        tensor_shape {
        }
        float_val: 2.0
      }
    }
  }
}
node {
  name: "optimizer/gradients/loss/Square_grad/Mul"
  op: "Mul"
  input: "loss/Sub"
  input: "optimizer/gradients/loss/Square_grad/Const"
  attr {
    key: "T"
    value {
      type: DT_FLOAT
    }
  }
}
node {
  name: "optimizer/gradients/loss/Square_grad/Mul_1"
  op: "Mul"
  input: "optimizer/gradients/loss/Sum_grad/Tile"
  input: "optimizer/gradients/loss/Square_grad/Mul"
  attr {
    key: "T"
    value {
      type: DT_FLOAT
    }
  }
}
node {
  name: "optimizer/gradients/loss/Sub_grad/Neg"
  op: "Neg"
  input: "optimizer/gradients/loss/Square_grad/Mul_1"
  attr {
    key: "T"
    value {
      type: DT_FLOAT
    }
  }
}
node {
  name: "optimizer/gradients/loss/Sub_grad/tuple/group_deps"
  op: "NoOp"
  input: "^optimizer/gradients/loss/Square_grad/Mul_1"
  input: "^optimizer/gradients/loss/Sub_grad/Neg"
}
node {
  name: "optimizer/gradients/loss/Sub_grad/tuple/control_dependency"
  op: "Identity"
  input: "optimizer/gradients/loss/Square_grad/Mul_1"
  input: "^optimizer/gradients/loss/Sub_grad/tuple/group_deps"
  attr {
    key: "T"
    value {
      type: DT_FLOAT
    }
  }
  attr {
    key: "_class"
    value {
      list {
        s: "loc:@optimizer/gradients/loss/Square_grad/Mul_1"
      }
    }
  }
}
node {
  name: "optimizer/gradients/loss/Sub_grad/tuple/control_dependency_1"
  op: "Identity"
  input: "optimizer/gradients/loss/Sub_grad/Neg"
  input: "^optimizer/gradients/loss/Sub_grad/tuple/group_deps"
  attr {
    key: "T"
    value {
      type: DT_FLOAT
    }
  }
  attr {
    key: "_class"
    value {
      list {
        s: "loc:@optimizer/gradients/loss/Sub_grad/Neg"
      }
    }
  }
}
node {
  name: "optimizer/gradients/layer_2/output_gate/output_grad/ReluGrad"
  op: "ReluGrad"
  input: "optimizer/gradients/loss/Sub_grad/tuple/control_dependency"
  input: "layer_2/output_gate/output"
  attr {
    key: "T"
    value {
      type: DT_FLOAT
    }
  }
}
node {
  name: "optimizer/gradients/layer_2/output_gate/BHTO_b_a_grad/tuple/group_deps"
  op: "NoOp"
  input: "^optimizer/gradients/layer_2/output_gate/output_grad/ReluGrad"
}
node {
  name: "optimizer/gradients/layer_2/output_gate/BHTO_b_a_grad/tuple/control_dependency"
  op: "Identity"
  input: "optimizer/gradients/layer_2/output_gate/output_grad/ReluGrad"
  input: "^optimizer/gradients/layer_2/output_gate/BHTO_b_a_grad/tuple/group_deps"
  attr {
    key: "T"
    value {
      type: DT_FLOAT
    }
  }
  attr {
    key: "_class"
    value {
      list {
        s: "loc:@optimizer/gradients/layer_2/output_gate/output_grad/ReluGrad"
      }
    }
  }
}
node {
  name: "optimizer/gradients/layer_2/output_gate/BHTO_b_a_grad/tuple/control_dependency_1"
  op: "Identity"
  input: "optimizer/gradients/layer_2/output_gate/output_grad/ReluGrad"
  input: "^optimizer/gradients/layer_2/output_gate/BHTO_b_a_grad/tuple/group_deps"
  attr {
    key: "T"
    value {
      type: DT_FLOAT
    }
  }
  attr {
    key: "_class"
    value {
      list {
        s: "loc:@optimizer/gradients/layer_2/output_gate/output_grad/ReluGrad"
      }
    }
  }
}
node {
  name: "optimizer/gradients/layer_2/output_gate/WHTO_w_m_grad/MatMul"
  op: "MatMul"
  input: "optimizer/gradients/layer_2/output_gate/BHTO_b_a_grad/tuple/control_dependency"
  input: "layer_2/weights_and_biases/outwards_propagating_weight/read"
  attr {
    key: "T"
    value {
      type: DT_FLOAT
    }
  }
  attr {
    key: "transpose_a"
    value {
      b: false
    }
  }
  attr {
    key: "transpose_b"
    value {
      b: true
    }
  }
}
node {
  name: "optimizer/gradients/layer_2/output_gate/WHTO_w_m_grad/MatMul_1"
  op: "MatMul"
  input: "layer_2/output_gate/next_hidden"
  input: "optimizer/gradients/layer_2/output_gate/BHTO_b_a_grad/tuple/control_dependency"
  attr {
    key: "T"
    value {
      type: DT_FLOAT
    }
  }
  attr {
    key: "transpose_a"
    value {
      b: true
    }
  }
  attr {
    key: "transpose_b"
    value {
      b: false
    }
  }
}
node {
  name: "optimizer/gradients/layer_2/output_gate/WHTO_w_m_grad/tuple/group_deps"
  op: "NoOp"
  input: "^optimizer/gradients/layer_2/output_gate/WHTO_w_m_grad/MatMul"
  input: "^optimizer/gradients/layer_2/output_gate/WHTO_w_m_grad/MatMul_1"
}
node {
  name: "optimizer/gradients/layer_2/output_gate/WHTO_w_m_grad/tuple/control_dependency"
  op: "Identity"
  input: "optimizer/gradients/layer_2/output_gate/WHTO_w_m_grad/MatMul"
  input: "^optimizer/gradients/layer_2/output_gate/WHTO_w_m_grad/tuple/group_deps"
  attr {
    key: "T"
    value {
      type: DT_FLOAT
    }
  }
  attr {
    key: "_class"
    value {
      list {
        s: "loc:@optimizer/gradients/layer_2/output_gate/WHTO_w_m_grad/MatMul"
      }
    }
  }
}
node {
  name: "optimizer/gradients/layer_2/output_gate/WHTO_w_m_grad/tuple/control_dependency_1"
  op: "Identity"
  input: "optimizer/gradients/layer_2/output_gate/WHTO_w_m_grad/MatMul_1"
  input: "^optimizer/gradients/layer_2/output_gate/WHTO_w_m_grad/tuple/group_deps"
  attr {
    key: "T"
    value {
      type: DT_FLOAT
    }
  }
  attr {
    key: "_class"
    value {
      list {
        s: "loc:@optimizer/gradients/layer_2/output_gate/WHTO_w_m_grad/MatMul_1"
      }
    }
  }
}
node {
  name: "optimizer/gradients/layer_2/output_gate/next_hidden_grad/Mul"
  op: "Mul"
  input: "optimizer/gradients/layer_2/output_gate/WHTO_w_m_grad/tuple/control_dependency"
  input: "layer_2/output_gate/output_presquashing"
  attr {
    key: "T"
    value {
      type: DT_FLOAT
    }
  }
}
node {
  name: "optimizer/gradients/layer_2/output_gate/next_hidden_grad/Mul_1"
  op: "Mul"
  input: "optimizer/gradients/layer_2/output_gate/WHTO_w_m_grad/tuple/control_dependency"
  input: "layer_2/non-linearity/sigmoid_output"
  attr {
    key: "T"
    value {
      type: DT_FLOAT
    }
  }
}
node {
  name: "optimizer/gradients/layer_2/output_gate/next_hidden_grad/tuple/group_deps"
  op: "NoOp"
  input: "^optimizer/gradients/layer_2/output_gate/next_hidden_grad/Mul"
  input: "^optimizer/gradients/layer_2/output_gate/next_hidden_grad/Mul_1"
}
node {
  name: "optimizer/gradients/layer_2/output_gate/next_hidden_grad/tuple/control_dependency"
  op: "Identity"
  input: "optimizer/gradients/layer_2/output_gate/next_hidden_grad/Mul"
  input: "^optimizer/gradients/layer_2/output_gate/next_hidden_grad/tuple/group_deps"
  attr {
    key: "T"
    value {
      type: DT_FLOAT
    }
  }
  attr {
    key: "_class"
    value {
      list {
        s: "loc:@optimizer/gradients/layer_2/output_gate/next_hidden_grad/Mul"
      }
    }
  }
}
node {
  name: "optimizer/gradients/layer_2/output_gate/next_hidden_grad/tuple/control_dependency_1"
  op: "Identity"
  input: "optimizer/gradients/layer_2/output_gate/next_hidden_grad/Mul_1"
  input: "^optimizer/gradients/layer_2/output_gate/next_hidden_grad/tuple/group_deps"
  attr {
    key: "T"
    value {
      type: DT_FLOAT
    }
  }
  attr {
    key: "_class"
    value {
      list {
        s: "loc:@optimizer/gradients/layer_2/output_gate/next_hidden_grad/Mul_1"
      }
    }
  }
}
node {
  name: "optimizer/gradients/layer_2/non-linearity/sigmoid_output_grad/SigmoidGrad"
  op: "SigmoidGrad"
  input: "layer_2/non-linearity/sigmoid_output"
  input: "optimizer/gradients/layer_2/output_gate/next_hidden_grad/tuple/control_dependency"
  attr {
    key: "T"
    value {
      type: DT_FLOAT
    }
  }
}
node {
  name: "optimizer/gradients/layer_2/output_gate/output_presquashing_grad/TanhGrad"
  op: "TanhGrad"
  input: "layer_2/output_gate/output_presquashing"
  input: "optimizer/gradients/layer_2/output_gate/next_hidden_grad/tuple/control_dependency_1"
  attr {
    key: "T"
    value {
      type: DT_FLOAT
    }
  }
}
node {
  name: "optimizer/gradients/layer_2/to_gates/o_b_a_grad/tuple/group_deps"
  op: "NoOp"
  input: "^optimizer/gradients/layer_2/non-linearity/sigmoid_output_grad/SigmoidGrad"
}
node {
  name: "optimizer/gradients/layer_2/to_gates/o_b_a_grad/tuple/control_dependency"
  op: "Identity"
  input: "optimizer/gradients/layer_2/non-linearity/sigmoid_output_grad/SigmoidGrad"
  input: "^optimizer/gradients/layer_2/to_gates/o_b_a_grad/tuple/group_deps"
  attr {
    key: "T"
    value {
      type: DT_FLOAT
    }
  }
  attr {
    key: "_class"
    value {
      list {
        s: "loc:@optimizer/gradients/layer_2/non-linearity/sigmoid_output_grad/SigmoidGrad"
      }
    }
  }
}
node {
  name: "optimizer/gradients/layer_2/to_gates/o_b_a_grad/tuple/control_dependency_1"
  op: "Identity"
  input: "optimizer/gradients/layer_2/non-linearity/sigmoid_output_grad/SigmoidGrad"
  input: "^optimizer/gradients/layer_2/to_gates/o_b_a_grad/tuple/group_deps"
  attr {
    key: "T"
    value {
      type: DT_FLOAT
    }
  }
  attr {
    key: "_class"
    value {
      list {
        s: "loc:@optimizer/gradients/layer_2/non-linearity/sigmoid_output_grad/SigmoidGrad"
      }
    }
  }
}
node {
  name: "optimizer/gradients/layer_2/suggestion_node/input_and_gate_gating_grad/tuple/group_deps"
  op: "NoOp"
  input: "^optimizer/gradients/layer_2/output_gate/output_presquashing_grad/TanhGrad"
}
node {
  name: "optimizer/gradients/layer_2/suggestion_node/input_and_gate_gating_grad/tuple/control_dependency"
  op: "Identity"
  input: "optimizer/gradients/layer_2/output_gate/output_presquashing_grad/TanhGrad"
  input: "^optimizer/gradients/layer_2/suggestion_node/input_and_gate_gating_grad/tuple/group_deps"
  attr {
    key: "T"
    value {
      type: DT_FLOAT
    }
  }
  attr {
    key: "_class"
    value {
      list {
        s: "loc:@optimizer/gradients/layer_2/output_gate/output_presquashing_grad/TanhGrad"
      }
    }
  }
}
node {
  name: "optimizer/gradients/layer_2/suggestion_node/input_and_gate_gating_grad/tuple/control_dependency_1"
  op: "Identity"
  input: "optimizer/gradients/layer_2/output_gate/output_presquashing_grad/TanhGrad"
  input: "^optimizer/gradients/layer_2/suggestion_node/input_and_gate_gating_grad/tuple/group_deps"
  attr {
    key: "T"
    value {
      type: DT_FLOAT
    }
  }
  attr {
    key: "_class"
    value {
      list {
        s: "loc:@optimizer/gradients/layer_2/output_gate/output_presquashing_grad/TanhGrad"
      }
    }
  }
}
node {
  name: "optimizer/gradients/layer_2/to_gates/o_w_m_grad/MatMul"
  op: "MatMul"
  input: "optimizer/gradients/layer_2/to_gates/o_b_a_grad/tuple/control_dependency"
  input: "layer_2/weights_and_biases/output_weight/read"
  attr {
    key: "T"
    value {
      type: DT_FLOAT
    }
  }
  attr {
    key: "transpose_a"
    value {
      b: false
    }
  }
  attr {
    key: "transpose_b"
    value {
      b: true
    }
  }
}
node {
  name: "optimizer/gradients/layer_2/to_gates/o_w_m_grad/MatMul_1"
  op: "MatMul"
  input: "layer_2/to_gates/input_concat"
  input: "optimizer/gradients/layer_2/to_gates/o_b_a_grad/tuple/control_dependency"
  attr {
    key: "T"
    value {
      type: DT_FLOAT
    }
  }
  attr {
    key: "transpose_a"
    value {
      b: true
    }
  }
  attr {
    key: "transpose_b"
    value {
      b: false
    }
  }
}
node {
  name: "optimizer/gradients/layer_2/to_gates/o_w_m_grad/tuple/group_deps"
  op: "NoOp"
  input: "^optimizer/gradients/layer_2/to_gates/o_w_m_grad/MatMul"
  input: "^optimizer/gradients/layer_2/to_gates/o_w_m_grad/MatMul_1"
}
node {
  name: "optimizer/gradients/layer_2/to_gates/o_w_m_grad/tuple/control_dependency"
  op: "Identity"
  input: "optimizer/gradients/layer_2/to_gates/o_w_m_grad/MatMul"
  input: "^optimizer/gradients/layer_2/to_gates/o_w_m_grad/tuple/group_deps"
  attr {
    key: "T"
    value {
      type: DT_FLOAT
    }
  }
  attr {
    key: "_class"
    value {
      list {
        s: "loc:@optimizer/gradients/layer_2/to_gates/o_w_m_grad/MatMul"
      }
    }
  }
}
node {
  name: "optimizer/gradients/layer_2/to_gates/o_w_m_grad/tuple/control_dependency_1"
  op: "Identity"
  input: "optimizer/gradients/layer_2/to_gates/o_w_m_grad/MatMul_1"
  input: "^optimizer/gradients/layer_2/to_gates/o_w_m_grad/tuple/group_deps"
  attr {
    key: "T"
    value {
      type: DT_FLOAT
    }
  }
  attr {
    key: "_class"
    value {
      list {
        s: "loc:@optimizer/gradients/layer_2/to_gates/o_w_m_grad/MatMul_1"
      }
    }
  }
}
node {
  name: "optimizer/gradients/layer_2/suggestion_node/input_determiner_grad/Mul"
  op: "Mul"
  input: "optimizer/gradients/layer_2/suggestion_node/input_and_gate_gating_grad/tuple/control_dependency"
  input: "layer_2/non-linearity/tanh_gate"
  attr {
    key: "T"
    value {
      type: DT_FLOAT
    }
  }
}
node {
  name: "optimizer/gradients/layer_2/suggestion_node/input_determiner_grad/Mul_1"
  op: "Mul"
  input: "optimizer/gradients/layer_2/suggestion_node/input_and_gate_gating_grad/tuple/control_dependency"
  input: "layer_2/non-linearity/sigmoid_input"
  attr {
    key: "T"
    value {
      type: DT_FLOAT
    }
  }
}
node {
  name: "optimizer/gradients/layer_2/suggestion_node/input_determiner_grad/tuple/group_deps"
  op: "NoOp"
  input: "^optimizer/gradients/layer_2/suggestion_node/input_determiner_grad/Mul"
  input: "^optimizer/gradients/layer_2/suggestion_node/input_determiner_grad/Mul_1"
}
node {
  name: "optimizer/gradients/layer_2/suggestion_node/input_determiner_grad/tuple/control_dependency"
  op: "Identity"
  input: "optimizer/gradients/layer_2/suggestion_node/input_determiner_grad/Mul"
  input: "^optimizer/gradients/layer_2/suggestion_node/input_determiner_grad/tuple/group_deps"
  attr {
    key: "T"
    value {
      type: DT_FLOAT
    }
  }
  attr {
    key: "_class"
    value {
      list {
        s: "loc:@optimizer/gradients/layer_2/suggestion_node/input_determiner_grad/Mul"
      }
    }
  }
}
node {
  name: "optimizer/gradients/layer_2/suggestion_node/input_determiner_grad/tuple/control_dependency_1"
  op: "Identity"
  input: "optimizer/gradients/layer_2/suggestion_node/input_determiner_grad/Mul_1"
  input: "^optimizer/gradients/layer_2/suggestion_node/input_determiner_grad/tuple/group_deps"
  attr {
    key: "T"
    value {
      type: DT_FLOAT
    }
  }
  attr {
    key: "_class"
    value {
      list {
        s: "loc:@optimizer/gradients/layer_2/suggestion_node/input_determiner_grad/Mul_1"
      }
    }
  }
}
node {
  name: "optimizer/gradients/layer_2/forget_gate/forget_gating_grad/Mul"
  op: "Mul"
  input: "optimizer/gradients/layer_2/suggestion_node/input_and_gate_gating_grad/tuple/control_dependency_1"
  input: "layer_2/placeholders/last_cell"
  attr {
    key: "T"
    value {
      type: DT_FLOAT
    }
  }
}
node {
  name: "optimizer/gradients/layer_2/forget_gate/forget_gating_grad/Mul_1"
  op: "Mul"
  input: "optimizer/gradients/layer_2/suggestion_node/input_and_gate_gating_grad/tuple/control_dependency_1"
  input: "layer_2/non-linearity/sigmoid_forget"
  attr {
    key: "T"
    value {
      type: DT_FLOAT
    }
  }
}
node {
  name: "optimizer/gradients/layer_2/forget_gate/forget_gating_grad/tuple/group_deps"
  op: "NoOp"
  input: "^optimizer/gradients/layer_2/forget_gate/forget_gating_grad/Mul"
  input: "^optimizer/gradients/layer_2/forget_gate/forget_gating_grad/Mul_1"
}
node {
  name: "optimizer/gradients/layer_2/forget_gate/forget_gating_grad/tuple/control_dependency"
  op: "Identity"
  input: "optimizer/gradients/layer_2/forget_gate/forget_gating_grad/Mul"
  input: "^optimizer/gradients/layer_2/forget_gate/forget_gating_grad/tuple/group_deps"
  attr {
    key: "T"
    value {
      type: DT_FLOAT
    }
  }
  attr {
    key: "_class"
    value {
      list {
        s: "loc:@optimizer/gradients/layer_2/forget_gate/forget_gating_grad/Mul"
      }
    }
  }
}
node {
  name: "optimizer/gradients/layer_2/forget_gate/forget_gating_grad/tuple/control_dependency_1"
  op: "Identity"
  input: "optimizer/gradients/layer_2/forget_gate/forget_gating_grad/Mul_1"
  input: "^optimizer/gradients/layer_2/forget_gate/forget_gating_grad/tuple/group_deps"
  attr {
    key: "T"
    value {
      type: DT_FLOAT
    }
  }
  attr {
    key: "_class"
    value {
      list {
        s: "loc:@optimizer/gradients/layer_2/forget_gate/forget_gating_grad/Mul_1"
      }
    }
  }
}
node {
  name: "optimizer/gradients/layer_2/non-linearity/sigmoid_input_grad/SigmoidGrad"
  op: "SigmoidGrad"
  input: "layer_2/non-linearity/sigmoid_input"
  input: "optimizer/gradients/layer_2/suggestion_node/input_determiner_grad/tuple/control_dependency"
  attr {
    key: "T"
    value {
      type: DT_FLOAT
    }
  }
}
node {
  name: "optimizer/gradients/layer_2/non-linearity/tanh_gate_grad/TanhGrad"
  op: "TanhGrad"
  input: "layer_2/non-linearity/tanh_gate"
  input: "optimizer/gradients/layer_2/suggestion_node/input_determiner_grad/tuple/control_dependency_1"
  attr {
    key: "T"
    value {
      type: DT_FLOAT
    }
  }
}
node {
  name: "optimizer/gradients/layer_2/non-linearity/sigmoid_forget_grad/SigmoidGrad"
  op: "SigmoidGrad"
  input: "layer_2/non-linearity/sigmoid_forget"
  input: "optimizer/gradients/layer_2/forget_gate/forget_gating_grad/tuple/control_dependency"
  attr {
    key: "T"
    value {
      type: DT_FLOAT
    }
  }
}
node {
  name: "optimizer/gradients/layer_2/to_gates/i_b_a_grad/tuple/group_deps"
  op: "NoOp"
  input: "^optimizer/gradients/layer_2/non-linearity/sigmoid_input_grad/SigmoidGrad"
}
node {
  name: "optimizer/gradients/layer_2/to_gates/i_b_a_grad/tuple/control_dependency"
  op: "Identity"
  input: "optimizer/gradients/layer_2/non-linearity/sigmoid_input_grad/SigmoidGrad"
  input: "^optimizer/gradients/layer_2/to_gates/i_b_a_grad/tuple/group_deps"
  attr {
    key: "T"
    value {
      type: DT_FLOAT
    }
  }
  attr {
    key: "_class"
    value {
      list {
        s: "loc:@optimizer/gradients/layer_2/non-linearity/sigmoid_input_grad/SigmoidGrad"
      }
    }
  }
}
node {
  name: "optimizer/gradients/layer_2/to_gates/i_b_a_grad/tuple/control_dependency_1"
  op: "Identity"
  input: "optimizer/gradients/layer_2/non-linearity/sigmoid_input_grad/SigmoidGrad"
  input: "^optimizer/gradients/layer_2/to_gates/i_b_a_grad/tuple/group_deps"
  attr {
    key: "T"
    value {
      type: DT_FLOAT
    }
  }
  attr {
    key: "_class"
    value {
      list {
        s: "loc:@optimizer/gradients/layer_2/non-linearity/sigmoid_input_grad/SigmoidGrad"
      }
    }
  }
}
node {
  name: "optimizer/gradients/layer_2/to_gates/g_b_a_grad/tuple/group_deps"
  op: "NoOp"
  input: "^optimizer/gradients/layer_2/non-linearity/tanh_gate_grad/TanhGrad"
}
node {
  name: "optimizer/gradients/layer_2/to_gates/g_b_a_grad/tuple/control_dependency"
  op: "Identity"
  input: "optimizer/gradients/layer_2/non-linearity/tanh_gate_grad/TanhGrad"
  input: "^optimizer/gradients/layer_2/to_gates/g_b_a_grad/tuple/group_deps"
  attr {
    key: "T"
    value {
      type: DT_FLOAT
    }
  }
  attr {
    key: "_class"
    value {
      list {
        s: "loc:@optimizer/gradients/layer_2/non-linearity/tanh_gate_grad/TanhGrad"
      }
    }
  }
}
node {
  name: "optimizer/gradients/layer_2/to_gates/g_b_a_grad/tuple/control_dependency_1"
  op: "Identity"
  input: "optimizer/gradients/layer_2/non-linearity/tanh_gate_grad/TanhGrad"
  input: "^optimizer/gradients/layer_2/to_gates/g_b_a_grad/tuple/group_deps"
  attr {
    key: "T"
    value {
      type: DT_FLOAT
    }
  }
  attr {
    key: "_class"
    value {
      list {
        s: "loc:@optimizer/gradients/layer_2/non-linearity/tanh_gate_grad/TanhGrad"
      }
    }
  }
}
node {
  name: "optimizer/gradients/layer_2/to_gates/f_b_a_grad/tuple/group_deps"
  op: "NoOp"
  input: "^optimizer/gradients/layer_2/non-linearity/sigmoid_forget_grad/SigmoidGrad"
}
node {
  name: "optimizer/gradients/layer_2/to_gates/f_b_a_grad/tuple/control_dependency"
  op: "Identity"
  input: "optimizer/gradients/layer_2/non-linearity/sigmoid_forget_grad/SigmoidGrad"
  input: "^optimizer/gradients/layer_2/to_gates/f_b_a_grad/tuple/group_deps"
  attr {
    key: "T"
    value {
      type: DT_FLOAT
    }
  }
  attr {
    key: "_class"
    value {
      list {
        s: "loc:@optimizer/gradients/layer_2/non-linearity/sigmoid_forget_grad/SigmoidGrad"
      }
    }
  }
}
node {
  name: "optimizer/gradients/layer_2/to_gates/f_b_a_grad/tuple/control_dependency_1"
  op: "Identity"
  input: "optimizer/gradients/layer_2/non-linearity/sigmoid_forget_grad/SigmoidGrad"
  input: "^optimizer/gradients/layer_2/to_gates/f_b_a_grad/tuple/group_deps"
  attr {
    key: "T"
    value {
      type: DT_FLOAT
    }
  }
  attr {
    key: "_class"
    value {
      list {
        s: "loc:@optimizer/gradients/layer_2/non-linearity/sigmoid_forget_grad/SigmoidGrad"
      }
    }
  }
}
node {
  name: "optimizer/gradients/layer_2/to_gates/i_w_m_grad/MatMul"
  op: "MatMul"
  input: "optimizer/gradients/layer_2/to_gates/i_b_a_grad/tuple/control_dependency"
  input: "layer_2/weights_and_biases/input_weight/read"
  attr {
    key: "T"
    value {
      type: DT_FLOAT
    }
  }
  attr {
    key: "transpose_a"
    value {
      b: false
    }
  }
  attr {
    key: "transpose_b"
    value {
      b: true
    }
  }
}
node {
  name: "optimizer/gradients/layer_2/to_gates/i_w_m_grad/MatMul_1"
  op: "MatMul"
  input: "layer_2/to_gates/input_concat"
  input: "optimizer/gradients/layer_2/to_gates/i_b_a_grad/tuple/control_dependency"
  attr {
    key: "T"
    value {
      type: DT_FLOAT
    }
  }
  attr {
    key: "transpose_a"
    value {
      b: true
    }
  }
  attr {
    key: "transpose_b"
    value {
      b: false
    }
  }
}
node {
  name: "optimizer/gradients/layer_2/to_gates/i_w_m_grad/tuple/group_deps"
  op: "NoOp"
  input: "^optimizer/gradients/layer_2/to_gates/i_w_m_grad/MatMul"
  input: "^optimizer/gradients/layer_2/to_gates/i_w_m_grad/MatMul_1"
}
node {
  name: "optimizer/gradients/layer_2/to_gates/i_w_m_grad/tuple/control_dependency"
  op: "Identity"
  input: "optimizer/gradients/layer_2/to_gates/i_w_m_grad/MatMul"
  input: "^optimizer/gradients/layer_2/to_gates/i_w_m_grad/tuple/group_deps"
  attr {
    key: "T"
    value {
      type: DT_FLOAT
    }
  }
  attr {
    key: "_class"
    value {
      list {
        s: "loc:@optimizer/gradients/layer_2/to_gates/i_w_m_grad/MatMul"
      }
    }
  }
}
node {
  name: "optimizer/gradients/layer_2/to_gates/i_w_m_grad/tuple/control_dependency_1"
  op: "Identity"
  input: "optimizer/gradients/layer_2/to_gates/i_w_m_grad/MatMul_1"
  input: "^optimizer/gradients/layer_2/to_gates/i_w_m_grad/tuple/group_deps"
  attr {
    key: "T"
    value {
      type: DT_FLOAT
    }
  }
  attr {
    key: "_class"
    value {
      list {
        s: "loc:@optimizer/gradients/layer_2/to_gates/i_w_m_grad/MatMul_1"
      }
    }
  }
}
node {
  name: "optimizer/gradients/layer_2/to_gates/g_w_m_grad/MatMul"
  op: "MatMul"
  input: "optimizer/gradients/layer_2/to_gates/g_b_a_grad/tuple/control_dependency"
  input: "layer_2/weights_and_biases/gate_weight/read"
  attr {
    key: "T"
    value {
      type: DT_FLOAT
    }
  }
  attr {
    key: "transpose_a"
    value {
      b: false
    }
  }
  attr {
    key: "transpose_b"
    value {
      b: true
    }
  }
}
node {
  name: "optimizer/gradients/layer_2/to_gates/g_w_m_grad/MatMul_1"
  op: "MatMul"
  input: "layer_2/to_gates/input_concat"
  input: "optimizer/gradients/layer_2/to_gates/g_b_a_grad/tuple/control_dependency"
  attr {
    key: "T"
    value {
      type: DT_FLOAT
    }
  }
  attr {
    key: "transpose_a"
    value {
      b: true
    }
  }
  attr {
    key: "transpose_b"
    value {
      b: false
    }
  }
}
node {
  name: "optimizer/gradients/layer_2/to_gates/g_w_m_grad/tuple/group_deps"
  op: "NoOp"
  input: "^optimizer/gradients/layer_2/to_gates/g_w_m_grad/MatMul"
  input: "^optimizer/gradients/layer_2/to_gates/g_w_m_grad/MatMul_1"
}
node {
  name: "optimizer/gradients/layer_2/to_gates/g_w_m_grad/tuple/control_dependency"
  op: "Identity"
  input: "optimizer/gradients/layer_2/to_gates/g_w_m_grad/MatMul"
  input: "^optimizer/gradients/layer_2/to_gates/g_w_m_grad/tuple/group_deps"
  attr {
    key: "T"
    value {
      type: DT_FLOAT
    }
  }
  attr {
    key: "_class"
    value {
      list {
        s: "loc:@optimizer/gradients/layer_2/to_gates/g_w_m_grad/MatMul"
      }
    }
  }
}
node {
  name: "optimizer/gradients/layer_2/to_gates/g_w_m_grad/tuple/control_dependency_1"
  op: "Identity"
  input: "optimizer/gradients/layer_2/to_gates/g_w_m_grad/MatMul_1"
  input: "^optimizer/gradients/layer_2/to_gates/g_w_m_grad/tuple/group_deps"
  attr {
    key: "T"
    value {
      type: DT_FLOAT
    }
  }
  attr {
    key: "_class"
    value {
      list {
        s: "loc:@optimizer/gradients/layer_2/to_gates/g_w_m_grad/MatMul_1"
      }
    }
  }
}
node {
  name: "optimizer/gradients/layer_2/to_gates/f_w_m_grad/MatMul"
  op: "MatMul"
  input: "optimizer/gradients/layer_2/to_gates/f_b_a_grad/tuple/control_dependency"
  input: "layer_2/weights_and_biases/forget_weight/read"
  attr {
    key: "T"
    value {
      type: DT_FLOAT
    }
  }
  attr {
    key: "transpose_a"
    value {
      b: false
    }
  }
  attr {
    key: "transpose_b"
    value {
      b: true
    }
  }
}
node {
  name: "optimizer/gradients/layer_2/to_gates/f_w_m_grad/MatMul_1"
  op: "MatMul"
  input: "layer_2/to_gates/input_concat"
  input: "optimizer/gradients/layer_2/to_gates/f_b_a_grad/tuple/control_dependency"
  attr {
    key: "T"
    value {
      type: DT_FLOAT
    }
  }
  attr {
    key: "transpose_a"
    value {
      b: true
    }
  }
  attr {
    key: "transpose_b"
    value {
      b: false
    }
  }
}
node {
  name: "optimizer/gradients/layer_2/to_gates/f_w_m_grad/tuple/group_deps"
  op: "NoOp"
  input: "^optimizer/gradients/layer_2/to_gates/f_w_m_grad/MatMul"
  input: "^optimizer/gradients/layer_2/to_gates/f_w_m_grad/MatMul_1"
}
node {
  name: "optimizer/gradients/layer_2/to_gates/f_w_m_grad/tuple/control_dependency"
  op: "Identity"
  input: "optimizer/gradients/layer_2/to_gates/f_w_m_grad/MatMul"
  input: "^optimizer/gradients/layer_2/to_gates/f_w_m_grad/tuple/group_deps"
  attr {
    key: "T"
    value {
      type: DT_FLOAT
    }
  }
  attr {
    key: "_class"
    value {
      list {
        s: "loc:@optimizer/gradients/layer_2/to_gates/f_w_m_grad/MatMul"
      }
    }
  }
}
node {
  name: "optimizer/gradients/layer_2/to_gates/f_w_m_grad/tuple/control_dependency_1"
  op: "Identity"
  input: "optimizer/gradients/layer_2/to_gates/f_w_m_grad/MatMul_1"
  input: "^optimizer/gradients/layer_2/to_gates/f_w_m_grad/tuple/group_deps"
  attr {
    key: "T"
    value {
      type: DT_FLOAT
    }
  }
  attr {
    key: "_class"
    value {
      list {
        s: "loc:@optimizer/gradients/layer_2/to_gates/f_w_m_grad/MatMul_1"
      }
    }
  }
}
node {
  name: "optimizer/gradients/AddN"
  op: "AddN"
  input: "optimizer/gradients/layer_2/to_gates/o_w_m_grad/tuple/control_dependency"
  input: "optimizer/gradients/layer_2/to_gates/i_w_m_grad/tuple/control_dependency"
  input: "optimizer/gradients/layer_2/to_gates/g_w_m_grad/tuple/control_dependency"
  input: "optimizer/gradients/layer_2/to_gates/f_w_m_grad/tuple/control_dependency"
  attr {
    key: "N"
    value {
      i: 4
    }
  }
  attr {
    key: "T"
    value {
      type: DT_FLOAT
    }
  }
  attr {
    key: "_class"
    value {
      list {
        s: "loc:@optimizer/gradients/layer_2/to_gates/o_w_m_grad/MatMul"
      }
    }
  }
}
node {
  name: "optimizer/gradients/layer_2/to_gates/input_concat_grad/Rank"
  op: "Const"
  attr {
    key: "dtype"
    value {
      type: DT_INT32
    }
  }
  attr {
    key: "value"
    value {
      tensor {
        dtype: DT_INT32
        tensor_shape {
        }
        int_val: 2
      }
    }
  }
}
node {
  name: "optimizer/gradients/layer_2/to_gates/input_concat_grad/mod"
  op: "FloorMod"
  input: "layer_2/to_gates/input_concat/axis"
  input: "optimizer/gradients/layer_2/to_gates/input_concat_grad/Rank"
  attr {
    key: "T"
    value {
      type: DT_INT32
    }
  }
}
node {
  name: "optimizer/gradients/layer_2/to_gates/input_concat_grad/Shape"
  op: "Const"
  attr {
    key: "dtype"
    value {
      type: DT_INT32
    }
  }
  attr {
    key: "value"
    value {
      tensor {
        dtype: DT_INT32
        tensor_shape {
          dim {
            size: 2
          }
        }
        tensor_content: "\001\000\000\000\001\000\000\000"
      }
    }
  }
}
node {
  name: "optimizer/gradients/layer_2/to_gates/input_concat_grad/Shape_1"
  op: "Const"
  attr {
    key: "dtype"
    value {
      type: DT_INT32
    }
  }
  attr {
    key: "value"
    value {
      tensor {
        dtype: DT_INT32
        tensor_shape {
          dim {
            size: 2
          }
        }
        tensor_content: "\001\000\000\000\031\000\000\000"
      }
    }
  }
}
node {
  name: "optimizer/gradients/layer_2/to_gates/input_concat_grad/ConcatOffset"
  op: "ConcatOffset"
  input: "optimizer/gradients/layer_2/to_gates/input_concat_grad/mod"
  input: "optimizer/gradients/layer_2/to_gates/input_concat_grad/Shape"
  input: "optimizer/gradients/layer_2/to_gates/input_concat_grad/Shape_1"
  attr {
    key: "N"
    value {
      i: 2
    }
  }
}
node {
  name: "optimizer/gradients/layer_2/to_gates/input_concat_grad/Slice"
  op: "Slice"
  input: "optimizer/gradients/AddN"
  input: "optimizer/gradients/layer_2/to_gates/input_concat_grad/ConcatOffset"
  input: "optimizer/gradients/layer_2/to_gates/input_concat_grad/Shape"
  attr {
    key: "Index"
    value {
      type: DT_INT32
    }
  }
  attr {
    key: "T"
    value {
      type: DT_FLOAT
    }
  }
}
node {
  name: "optimizer/gradients/layer_2/to_gates/input_concat_grad/Slice_1"
  op: "Slice"
  input: "optimizer/gradients/AddN"
  input: "optimizer/gradients/layer_2/to_gates/input_concat_grad/ConcatOffset:1"
  input: "optimizer/gradients/layer_2/to_gates/input_concat_grad/Shape_1"
  attr {
    key: "Index"
    value {
      type: DT_INT32
    }
  }
  attr {
    key: "T"
    value {
      type: DT_FLOAT
    }
  }
}
node {
  name: "optimizer/gradients/layer_2/to_gates/input_concat_grad/tuple/group_deps"
  op: "NoOp"
  input: "^optimizer/gradients/layer_2/to_gates/input_concat_grad/Slice"
  input: "^optimizer/gradients/layer_2/to_gates/input_concat_grad/Slice_1"
}
node {
  name: "optimizer/gradients/layer_2/to_gates/input_concat_grad/tuple/control_dependency"
  op: "Identity"
  input: "optimizer/gradients/layer_2/to_gates/input_concat_grad/Slice"
  input: "^optimizer/gradients/layer_2/to_gates/input_concat_grad/tuple/group_deps"
  attr {
    key: "T"
    value {
      type: DT_FLOAT
    }
  }
  attr {
    key: "_class"
    value {
      list {
        s: "loc:@optimizer/gradients/layer_2/to_gates/input_concat_grad/Slice"
      }
    }
  }
}
node {
  name: "optimizer/gradients/layer_2/to_gates/input_concat_grad/tuple/control_dependency_1"
  op: "Identity"
  input: "optimizer/gradients/layer_2/to_gates/input_concat_grad/Slice_1"
  input: "^optimizer/gradients/layer_2/to_gates/input_concat_grad/tuple/group_deps"
  attr {
    key: "T"
    value {
      type: DT_FLOAT
    }
  }
  attr {
    key: "_class"
    value {
      list {
        s: "loc:@optimizer/gradients/layer_2/to_gates/input_concat_grad/Slice_1"
      }
    }
  }
}
node {
  name: "optimizer/gradients/layer_1/output_gate/output_grad/ReluGrad"
  op: "ReluGrad"
  input: "optimizer/gradients/layer_2/to_gates/input_concat_grad/tuple/control_dependency"
  input: "layer_1/output_gate/output"
  attr {
    key: "T"
    value {
      type: DT_FLOAT
    }
  }
}
node {
  name: "optimizer/gradients/layer_1/output_gate/BHTO_b_a_grad/tuple/group_deps"
  op: "NoOp"
  input: "^optimizer/gradients/layer_1/output_gate/output_grad/ReluGrad"
}
node {
  name: "optimizer/gradients/layer_1/output_gate/BHTO_b_a_grad/tuple/control_dependency"
  op: "Identity"
  input: "optimizer/gradients/layer_1/output_gate/output_grad/ReluGrad"
  input: "^optimizer/gradients/layer_1/output_gate/BHTO_b_a_grad/tuple/group_deps"
  attr {
    key: "T"
    value {
      type: DT_FLOAT
    }
  }
  attr {
    key: "_class"
    value {
      list {
        s: "loc:@optimizer/gradients/layer_1/output_gate/output_grad/ReluGrad"
      }
    }
  }
}
node {
  name: "optimizer/gradients/layer_1/output_gate/BHTO_b_a_grad/tuple/control_dependency_1"
  op: "Identity"
  input: "optimizer/gradients/layer_1/output_gate/output_grad/ReluGrad"
  input: "^optimizer/gradients/layer_1/output_gate/BHTO_b_a_grad/tuple/group_deps"
  attr {
    key: "T"
    value {
      type: DT_FLOAT
    }
  }
  attr {
    key: "_class"
    value {
      list {
        s: "loc:@optimizer/gradients/layer_1/output_gate/output_grad/ReluGrad"
      }
    }
  }
}
node {
  name: "optimizer/gradients/layer_1/output_gate/WHTO_w_m_grad/MatMul"
  op: "MatMul"
  input: "optimizer/gradients/layer_1/output_gate/BHTO_b_a_grad/tuple/control_dependency"
  input: "layer_1/weights_and_biases/outwards_propagating_weight/read"
  attr {
    key: "T"
    value {
      type: DT_FLOAT
    }
  }
  attr {
    key: "transpose_a"
    value {
      b: false
    }
  }
  attr {
    key: "transpose_b"
    value {
      b: true
    }
  }
}
node {
  name: "optimizer/gradients/layer_1/output_gate/WHTO_w_m_grad/MatMul_1"
  op: "MatMul"
  input: "layer_1/output_gate/next_hidden"
  input: "optimizer/gradients/layer_1/output_gate/BHTO_b_a_grad/tuple/control_dependency"
  attr {
    key: "T"
    value {
      type: DT_FLOAT
    }
  }
  attr {
    key: "transpose_a"
    value {
      b: true
    }
  }
  attr {
    key: "transpose_b"
    value {
      b: false
    }
  }
}
node {
  name: "optimizer/gradients/layer_1/output_gate/WHTO_w_m_grad/tuple/group_deps"
  op: "NoOp"
  input: "^optimizer/gradients/layer_1/output_gate/WHTO_w_m_grad/MatMul"
  input: "^optimizer/gradients/layer_1/output_gate/WHTO_w_m_grad/MatMul_1"
}
node {
  name: "optimizer/gradients/layer_1/output_gate/WHTO_w_m_grad/tuple/control_dependency"
  op: "Identity"
  input: "optimizer/gradients/layer_1/output_gate/WHTO_w_m_grad/MatMul"
  input: "^optimizer/gradients/layer_1/output_gate/WHTO_w_m_grad/tuple/group_deps"
  attr {
    key: "T"
    value {
      type: DT_FLOAT
    }
  }
  attr {
    key: "_class"
    value {
      list {
        s: "loc:@optimizer/gradients/layer_1/output_gate/WHTO_w_m_grad/MatMul"
      }
    }
  }
}
node {
  name: "optimizer/gradients/layer_1/output_gate/WHTO_w_m_grad/tuple/control_dependency_1"
  op: "Identity"
  input: "optimizer/gradients/layer_1/output_gate/WHTO_w_m_grad/MatMul_1"
  input: "^optimizer/gradients/layer_1/output_gate/WHTO_w_m_grad/tuple/group_deps"
  attr {
    key: "T"
    value {
      type: DT_FLOAT
    }
  }
  attr {
    key: "_class"
    value {
      list {
        s: "loc:@optimizer/gradients/layer_1/output_gate/WHTO_w_m_grad/MatMul_1"
      }
    }
  }
}
node {
  name: "optimizer/gradients/layer_1/output_gate/next_hidden_grad/Mul"
  op: "Mul"
  input: "optimizer/gradients/layer_1/output_gate/WHTO_w_m_grad/tuple/control_dependency"
  input: "layer_1/output_gate/output_presquashing"
  attr {
    key: "T"
    value {
      type: DT_FLOAT
    }
  }
}
node {
  name: "optimizer/gradients/layer_1/output_gate/next_hidden_grad/Mul_1"
  op: "Mul"
  input: "optimizer/gradients/layer_1/output_gate/WHTO_w_m_grad/tuple/control_dependency"
  input: "layer_1/non-linearity/sigmoid_output"
  attr {
    key: "T"
    value {
      type: DT_FLOAT
    }
  }
}
node {
  name: "optimizer/gradients/layer_1/output_gate/next_hidden_grad/tuple/group_deps"
  op: "NoOp"
  input: "^optimizer/gradients/layer_1/output_gate/next_hidden_grad/Mul"
  input: "^optimizer/gradients/layer_1/output_gate/next_hidden_grad/Mul_1"
}
node {
  name: "optimizer/gradients/layer_1/output_gate/next_hidden_grad/tuple/control_dependency"
  op: "Identity"
  input: "optimizer/gradients/layer_1/output_gate/next_hidden_grad/Mul"
  input: "^optimizer/gradients/layer_1/output_gate/next_hidden_grad/tuple/group_deps"
  attr {
    key: "T"
    value {
      type: DT_FLOAT
    }
  }
  attr {
    key: "_class"
    value {
      list {
        s: "loc:@optimizer/gradients/layer_1/output_gate/next_hidden_grad/Mul"
      }
    }
  }
}
node {
  name: "optimizer/gradients/layer_1/output_gate/next_hidden_grad/tuple/control_dependency_1"
  op: "Identity"
  input: "optimizer/gradients/layer_1/output_gate/next_hidden_grad/Mul_1"
  input: "^optimizer/gradients/layer_1/output_gate/next_hidden_grad/tuple/group_deps"
  attr {
    key: "T"
    value {
      type: DT_FLOAT
    }
  }
  attr {
    key: "_class"
    value {
      list {
        s: "loc:@optimizer/gradients/layer_1/output_gate/next_hidden_grad/Mul_1"
      }
    }
  }
}
node {
  name: "optimizer/gradients/layer_1/non-linearity/sigmoid_output_grad/SigmoidGrad"
  op: "SigmoidGrad"
  input: "layer_1/non-linearity/sigmoid_output"
  input: "optimizer/gradients/layer_1/output_gate/next_hidden_grad/tuple/control_dependency"
  attr {
    key: "T"
    value {
      type: DT_FLOAT
    }
  }
}
node {
  name: "optimizer/gradients/layer_1/output_gate/output_presquashing_grad/TanhGrad"
  op: "TanhGrad"
  input: "layer_1/output_gate/output_presquashing"
  input: "optimizer/gradients/layer_1/output_gate/next_hidden_grad/tuple/control_dependency_1"
  attr {
    key: "T"
    value {
      type: DT_FLOAT
    }
  }
}
node {
  name: "optimizer/gradients/layer_1/to_gates/o_b_a_grad/tuple/group_deps"
  op: "NoOp"
  input: "^optimizer/gradients/layer_1/non-linearity/sigmoid_output_grad/SigmoidGrad"
}
node {
  name: "optimizer/gradients/layer_1/to_gates/o_b_a_grad/tuple/control_dependency"
  op: "Identity"
  input: "optimizer/gradients/layer_1/non-linearity/sigmoid_output_grad/SigmoidGrad"
  input: "^optimizer/gradients/layer_1/to_gates/o_b_a_grad/tuple/group_deps"
  attr {
    key: "T"
    value {
      type: DT_FLOAT
    }
  }
  attr {
    key: "_class"
    value {
      list {
        s: "loc:@optimizer/gradients/layer_1/non-linearity/sigmoid_output_grad/SigmoidGrad"
      }
    }
  }
}
node {
  name: "optimizer/gradients/layer_1/to_gates/o_b_a_grad/tuple/control_dependency_1"
  op: "Identity"
  input: "optimizer/gradients/layer_1/non-linearity/sigmoid_output_grad/SigmoidGrad"
  input: "^optimizer/gradients/layer_1/to_gates/o_b_a_grad/tuple/group_deps"
  attr {
    key: "T"
    value {
      type: DT_FLOAT
    }
  }
  attr {
    key: "_class"
    value {
      list {
        s: "loc:@optimizer/gradients/layer_1/non-linearity/sigmoid_output_grad/SigmoidGrad"
      }
    }
  }
}
node {
  name: "optimizer/gradients/layer_1/suggestion_node/input_and_gate_gating_grad/tuple/group_deps"
  op: "NoOp"
  input: "^optimizer/gradients/layer_1/output_gate/output_presquashing_grad/TanhGrad"
}
node {
  name: "optimizer/gradients/layer_1/suggestion_node/input_and_gate_gating_grad/tuple/control_dependency"
  op: "Identity"
  input: "optimizer/gradients/layer_1/output_gate/output_presquashing_grad/TanhGrad"
  input: "^optimizer/gradients/layer_1/suggestion_node/input_and_gate_gating_grad/tuple/group_deps"
  attr {
    key: "T"
    value {
      type: DT_FLOAT
    }
  }
  attr {
    key: "_class"
    value {
      list {
        s: "loc:@optimizer/gradients/layer_1/output_gate/output_presquashing_grad/TanhGrad"
      }
    }
  }
}
node {
  name: "optimizer/gradients/layer_1/suggestion_node/input_and_gate_gating_grad/tuple/control_dependency_1"
  op: "Identity"
  input: "optimizer/gradients/layer_1/output_gate/output_presquashing_grad/TanhGrad"
  input: "^optimizer/gradients/layer_1/suggestion_node/input_and_gate_gating_grad/tuple/group_deps"
  attr {
    key: "T"
    value {
      type: DT_FLOAT
    }
  }
  attr {
    key: "_class"
    value {
      list {
        s: "loc:@optimizer/gradients/layer_1/output_gate/output_presquashing_grad/TanhGrad"
      }
    }
  }
}
node {
  name: "optimizer/gradients/layer_1/to_gates/o_w_m_grad/MatMul"
  op: "MatMul"
  input: "optimizer/gradients/layer_1/to_gates/o_b_a_grad/tuple/control_dependency"
  input: "layer_1/weights_and_biases/output_weight/read"
  attr {
    key: "T"
    value {
      type: DT_FLOAT
    }
  }
  attr {
    key: "transpose_a"
    value {
      b: false
    }
  }
  attr {
    key: "transpose_b"
    value {
      b: true
    }
  }
}
node {
  name: "optimizer/gradients/layer_1/to_gates/o_w_m_grad/MatMul_1"
  op: "MatMul"
  input: "layer_1/to_gates/input_concat"
  input: "optimizer/gradients/layer_1/to_gates/o_b_a_grad/tuple/control_dependency"
  attr {
    key: "T"
    value {
      type: DT_FLOAT
    }
  }
  attr {
    key: "transpose_a"
    value {
      b: true
    }
  }
  attr {
    key: "transpose_b"
    value {
      b: false
    }
  }
}
node {
  name: "optimizer/gradients/layer_1/to_gates/o_w_m_grad/tuple/group_deps"
  op: "NoOp"
  input: "^optimizer/gradients/layer_1/to_gates/o_w_m_grad/MatMul"
  input: "^optimizer/gradients/layer_1/to_gates/o_w_m_grad/MatMul_1"
}
node {
  name: "optimizer/gradients/layer_1/to_gates/o_w_m_grad/tuple/control_dependency"
  op: "Identity"
  input: "optimizer/gradients/layer_1/to_gates/o_w_m_grad/MatMul"
  input: "^optimizer/gradients/layer_1/to_gates/o_w_m_grad/tuple/group_deps"
  attr {
    key: "T"
    value {
      type: DT_FLOAT
    }
  }
  attr {
    key: "_class"
    value {
      list {
        s: "loc:@optimizer/gradients/layer_1/to_gates/o_w_m_grad/MatMul"
      }
    }
  }
}
node {
  name: "optimizer/gradients/layer_1/to_gates/o_w_m_grad/tuple/control_dependency_1"
  op: "Identity"
  input: "optimizer/gradients/layer_1/to_gates/o_w_m_grad/MatMul_1"
  input: "^optimizer/gradients/layer_1/to_gates/o_w_m_grad/tuple/group_deps"
  attr {
    key: "T"
    value {
      type: DT_FLOAT
    }
  }
  attr {
    key: "_class"
    value {
      list {
        s: "loc:@optimizer/gradients/layer_1/to_gates/o_w_m_grad/MatMul_1"
      }
    }
  }
}
node {
  name: "optimizer/gradients/layer_1/suggestion_node/input_determiner_grad/Mul"
  op: "Mul"
  input: "optimizer/gradients/layer_1/suggestion_node/input_and_gate_gating_grad/tuple/control_dependency"
  input: "layer_1/non-linearity/tanh_gate"
  attr {
    key: "T"
    value {
      type: DT_FLOAT
    }
  }
}
node {
  name: "optimizer/gradients/layer_1/suggestion_node/input_determiner_grad/Mul_1"
  op: "Mul"
  input: "optimizer/gradients/layer_1/suggestion_node/input_and_gate_gating_grad/tuple/control_dependency"
  input: "layer_1/non-linearity/sigmoid_input"
  attr {
    key: "T"
    value {
      type: DT_FLOAT
    }
  }
}
node {
  name: "optimizer/gradients/layer_1/suggestion_node/input_determiner_grad/tuple/group_deps"
  op: "NoOp"
  input: "^optimizer/gradients/layer_1/suggestion_node/input_determiner_grad/Mul"
  input: "^optimizer/gradients/layer_1/suggestion_node/input_determiner_grad/Mul_1"
}
node {
  name: "optimizer/gradients/layer_1/suggestion_node/input_determiner_grad/tuple/control_dependency"
  op: "Identity"
  input: "optimizer/gradients/layer_1/suggestion_node/input_determiner_grad/Mul"
  input: "^optimizer/gradients/layer_1/suggestion_node/input_determiner_grad/tuple/group_deps"
  attr {
    key: "T"
    value {
      type: DT_FLOAT
    }
  }
  attr {
    key: "_class"
    value {
      list {
        s: "loc:@optimizer/gradients/layer_1/suggestion_node/input_determiner_grad/Mul"
      }
    }
  }
}
node {
  name: "optimizer/gradients/layer_1/suggestion_node/input_determiner_grad/tuple/control_dependency_1"
  op: "Identity"
  input: "optimizer/gradients/layer_1/suggestion_node/input_determiner_grad/Mul_1"
  input: "^optimizer/gradients/layer_1/suggestion_node/input_determiner_grad/tuple/group_deps"
  attr {
    key: "T"
    value {
      type: DT_FLOAT
    }
  }
  attr {
    key: "_class"
    value {
      list {
        s: "loc:@optimizer/gradients/layer_1/suggestion_node/input_determiner_grad/Mul_1"
      }
    }
  }
}
node {
  name: "optimizer/gradients/layer_1/forget_gate/forget_gating_grad/Mul"
  op: "Mul"
  input: "optimizer/gradients/layer_1/suggestion_node/input_and_gate_gating_grad/tuple/control_dependency_1"
  input: "layer_1/placeholders/last_cell"
  attr {
    key: "T"
    value {
      type: DT_FLOAT
    }
  }
}
node {
  name: "optimizer/gradients/layer_1/forget_gate/forget_gating_grad/Mul_1"
  op: "Mul"
  input: "optimizer/gradients/layer_1/suggestion_node/input_and_gate_gating_grad/tuple/control_dependency_1"
  input: "layer_1/non-linearity/sigmoid_forget"
  attr {
    key: "T"
    value {
      type: DT_FLOAT
    }
  }
}
node {
  name: "optimizer/gradients/layer_1/forget_gate/forget_gating_grad/tuple/group_deps"
  op: "NoOp"
  input: "^optimizer/gradients/layer_1/forget_gate/forget_gating_grad/Mul"
  input: "^optimizer/gradients/layer_1/forget_gate/forget_gating_grad/Mul_1"
}
node {
  name: "optimizer/gradients/layer_1/forget_gate/forget_gating_grad/tuple/control_dependency"
  op: "Identity"
  input: "optimizer/gradients/layer_1/forget_gate/forget_gating_grad/Mul"
  input: "^optimizer/gradients/layer_1/forget_gate/forget_gating_grad/tuple/group_deps"
  attr {
    key: "T"
    value {
      type: DT_FLOAT
    }
  }
  attr {
    key: "_class"
    value {
      list {
        s: "loc:@optimizer/gradients/layer_1/forget_gate/forget_gating_grad/Mul"
      }
    }
  }
}
node {
  name: "optimizer/gradients/layer_1/forget_gate/forget_gating_grad/tuple/control_dependency_1"
  op: "Identity"
  input: "optimizer/gradients/layer_1/forget_gate/forget_gating_grad/Mul_1"
  input: "^optimizer/gradients/layer_1/forget_gate/forget_gating_grad/tuple/group_deps"
  attr {
    key: "T"
    value {
      type: DT_FLOAT
    }
  }
  attr {
    key: "_class"
    value {
      list {
        s: "loc:@optimizer/gradients/layer_1/forget_gate/forget_gating_grad/Mul_1"
      }
    }
  }
}
node {
  name: "optimizer/gradients/layer_1/non-linearity/sigmoid_input_grad/SigmoidGrad"
  op: "SigmoidGrad"
  input: "layer_1/non-linearity/sigmoid_input"
  input: "optimizer/gradients/layer_1/suggestion_node/input_determiner_grad/tuple/control_dependency"
  attr {
    key: "T"
    value {
      type: DT_FLOAT
    }
  }
}
node {
  name: "optimizer/gradients/layer_1/non-linearity/tanh_gate_grad/TanhGrad"
  op: "TanhGrad"
  input: "layer_1/non-linearity/tanh_gate"
  input: "optimizer/gradients/layer_1/suggestion_node/input_determiner_grad/tuple/control_dependency_1"
  attr {
    key: "T"
    value {
      type: DT_FLOAT
    }
  }
}
node {
  name: "optimizer/gradients/layer_1/non-linearity/sigmoid_forget_grad/SigmoidGrad"
  op: "SigmoidGrad"
  input: "layer_1/non-linearity/sigmoid_forget"
  input: "optimizer/gradients/layer_1/forget_gate/forget_gating_grad/tuple/control_dependency"
  attr {
    key: "T"
    value {
      type: DT_FLOAT
    }
  }
}
node {
  name: "optimizer/gradients/layer_1/to_gates/i_b_a_grad/tuple/group_deps"
  op: "NoOp"
  input: "^optimizer/gradients/layer_1/non-linearity/sigmoid_input_grad/SigmoidGrad"
}
node {
  name: "optimizer/gradients/layer_1/to_gates/i_b_a_grad/tuple/control_dependency"
  op: "Identity"
  input: "optimizer/gradients/layer_1/non-linearity/sigmoid_input_grad/SigmoidGrad"
  input: "^optimizer/gradients/layer_1/to_gates/i_b_a_grad/tuple/group_deps"
  attr {
    key: "T"
    value {
      type: DT_FLOAT
    }
  }
  attr {
    key: "_class"
    value {
      list {
        s: "loc:@optimizer/gradients/layer_1/non-linearity/sigmoid_input_grad/SigmoidGrad"
      }
    }
  }
}
node {
  name: "optimizer/gradients/layer_1/to_gates/i_b_a_grad/tuple/control_dependency_1"
  op: "Identity"
  input: "optimizer/gradients/layer_1/non-linearity/sigmoid_input_grad/SigmoidGrad"
  input: "^optimizer/gradients/layer_1/to_gates/i_b_a_grad/tuple/group_deps"
  attr {
    key: "T"
    value {
      type: DT_FLOAT
    }
  }
  attr {
    key: "_class"
    value {
      list {
        s: "loc:@optimizer/gradients/layer_1/non-linearity/sigmoid_input_grad/SigmoidGrad"
      }
    }
  }
}
node {
  name: "optimizer/gradients/layer_1/to_gates/g_b_a_grad/tuple/group_deps"
  op: "NoOp"
  input: "^optimizer/gradients/layer_1/non-linearity/tanh_gate_grad/TanhGrad"
}
node {
  name: "optimizer/gradients/layer_1/to_gates/g_b_a_grad/tuple/control_dependency"
  op: "Identity"
  input: "optimizer/gradients/layer_1/non-linearity/tanh_gate_grad/TanhGrad"
  input: "^optimizer/gradients/layer_1/to_gates/g_b_a_grad/tuple/group_deps"
  attr {
    key: "T"
    value {
      type: DT_FLOAT
    }
  }
  attr {
    key: "_class"
    value {
      list {
        s: "loc:@optimizer/gradients/layer_1/non-linearity/tanh_gate_grad/TanhGrad"
      }
    }
  }
}
node {
  name: "optimizer/gradients/layer_1/to_gates/g_b_a_grad/tuple/control_dependency_1"
  op: "Identity"
  input: "optimizer/gradients/layer_1/non-linearity/tanh_gate_grad/TanhGrad"
  input: "^optimizer/gradients/layer_1/to_gates/g_b_a_grad/tuple/group_deps"
  attr {
    key: "T"
    value {
      type: DT_FLOAT
    }
  }
  attr {
    key: "_class"
    value {
      list {
        s: "loc:@optimizer/gradients/layer_1/non-linearity/tanh_gate_grad/TanhGrad"
      }
    }
  }
}
node {
  name: "optimizer/gradients/layer_1/to_gates/f_b_a_grad/tuple/group_deps"
  op: "NoOp"
  input: "^optimizer/gradients/layer_1/non-linearity/sigmoid_forget_grad/SigmoidGrad"
}
node {
  name: "optimizer/gradients/layer_1/to_gates/f_b_a_grad/tuple/control_dependency"
  op: "Identity"
  input: "optimizer/gradients/layer_1/non-linearity/sigmoid_forget_grad/SigmoidGrad"
  input: "^optimizer/gradients/layer_1/to_gates/f_b_a_grad/tuple/group_deps"
  attr {
    key: "T"
    value {
      type: DT_FLOAT
    }
  }
  attr {
    key: "_class"
    value {
      list {
        s: "loc:@optimizer/gradients/layer_1/non-linearity/sigmoid_forget_grad/SigmoidGrad"
      }
    }
  }
}
node {
  name: "optimizer/gradients/layer_1/to_gates/f_b_a_grad/tuple/control_dependency_1"
  op: "Identity"
  input: "optimizer/gradients/layer_1/non-linearity/sigmoid_forget_grad/SigmoidGrad"
  input: "^optimizer/gradients/layer_1/to_gates/f_b_a_grad/tuple/group_deps"
  attr {
    key: "T"
    value {
      type: DT_FLOAT
    }
  }
  attr {
    key: "_class"
    value {
      list {
        s: "loc:@optimizer/gradients/layer_1/non-linearity/sigmoid_forget_grad/SigmoidGrad"
      }
    }
  }
}
node {
  name: "optimizer/gradients/layer_1/to_gates/i_w_m_grad/MatMul"
  op: "MatMul"
  input: "optimizer/gradients/layer_1/to_gates/i_b_a_grad/tuple/control_dependency"
  input: "layer_1/weights_and_biases/input_weight/read"
  attr {
    key: "T"
    value {
      type: DT_FLOAT
    }
  }
  attr {
    key: "transpose_a"
    value {
      b: false
    }
  }
  attr {
    key: "transpose_b"
    value {
      b: true
    }
  }
}
node {
  name: "optimizer/gradients/layer_1/to_gates/i_w_m_grad/MatMul_1"
  op: "MatMul"
  input: "layer_1/to_gates/input_concat"
  input: "optimizer/gradients/layer_1/to_gates/i_b_a_grad/tuple/control_dependency"
  attr {
    key: "T"
    value {
      type: DT_FLOAT
    }
  }
  attr {
    key: "transpose_a"
    value {
      b: true
    }
  }
  attr {
    key: "transpose_b"
    value {
      b: false
    }
  }
}
node {
  name: "optimizer/gradients/layer_1/to_gates/i_w_m_grad/tuple/group_deps"
  op: "NoOp"
  input: "^optimizer/gradients/layer_1/to_gates/i_w_m_grad/MatMul"
  input: "^optimizer/gradients/layer_1/to_gates/i_w_m_grad/MatMul_1"
}
node {
  name: "optimizer/gradients/layer_1/to_gates/i_w_m_grad/tuple/control_dependency"
  op: "Identity"
  input: "optimizer/gradients/layer_1/to_gates/i_w_m_grad/MatMul"
  input: "^optimizer/gradients/layer_1/to_gates/i_w_m_grad/tuple/group_deps"
  attr {
    key: "T"
    value {
      type: DT_FLOAT
    }
  }
  attr {
    key: "_class"
    value {
      list {
        s: "loc:@optimizer/gradients/layer_1/to_gates/i_w_m_grad/MatMul"
      }
    }
  }
}
node {
  name: "optimizer/gradients/layer_1/to_gates/i_w_m_grad/tuple/control_dependency_1"
  op: "Identity"
  input: "optimizer/gradients/layer_1/to_gates/i_w_m_grad/MatMul_1"
  input: "^optimizer/gradients/layer_1/to_gates/i_w_m_grad/tuple/group_deps"
  attr {
    key: "T"
    value {
      type: DT_FLOAT
    }
  }
  attr {
    key: "_class"
    value {
      list {
        s: "loc:@optimizer/gradients/layer_1/to_gates/i_w_m_grad/MatMul_1"
      }
    }
  }
}
node {
  name: "optimizer/gradients/layer_1/to_gates/g_w_m_grad/MatMul"
  op: "MatMul"
  input: "optimizer/gradients/layer_1/to_gates/g_b_a_grad/tuple/control_dependency"
  input: "layer_1/weights_and_biases/gate_weight/read"
  attr {
    key: "T"
    value {
      type: DT_FLOAT
    }
  }
  attr {
    key: "transpose_a"
    value {
      b: false
    }
  }
  attr {
    key: "transpose_b"
    value {
      b: true
    }
  }
}
node {
  name: "optimizer/gradients/layer_1/to_gates/g_w_m_grad/MatMul_1"
  op: "MatMul"
  input: "layer_1/to_gates/input_concat"
  input: "optimizer/gradients/layer_1/to_gates/g_b_a_grad/tuple/control_dependency"
  attr {
    key: "T"
    value {
      type: DT_FLOAT
    }
  }
  attr {
    key: "transpose_a"
    value {
      b: true
    }
  }
  attr {
    key: "transpose_b"
    value {
      b: false
    }
  }
}
node {
  name: "optimizer/gradients/layer_1/to_gates/g_w_m_grad/tuple/group_deps"
  op: "NoOp"
  input: "^optimizer/gradients/layer_1/to_gates/g_w_m_grad/MatMul"
  input: "^optimizer/gradients/layer_1/to_gates/g_w_m_grad/MatMul_1"
}
node {
  name: "optimizer/gradients/layer_1/to_gates/g_w_m_grad/tuple/control_dependency"
  op: "Identity"
  input: "optimizer/gradients/layer_1/to_gates/g_w_m_grad/MatMul"
  input: "^optimizer/gradients/layer_1/to_gates/g_w_m_grad/tuple/group_deps"
  attr {
    key: "T"
    value {
      type: DT_FLOAT
    }
  }
  attr {
    key: "_class"
    value {
      list {
        s: "loc:@optimizer/gradients/layer_1/to_gates/g_w_m_grad/MatMul"
      }
    }
  }
}
node {
  name: "optimizer/gradients/layer_1/to_gates/g_w_m_grad/tuple/control_dependency_1"
  op: "Identity"
  input: "optimizer/gradients/layer_1/to_gates/g_w_m_grad/MatMul_1"
  input: "^optimizer/gradients/layer_1/to_gates/g_w_m_grad/tuple/group_deps"
  attr {
    key: "T"
    value {
      type: DT_FLOAT
    }
  }
  attr {
    key: "_class"
    value {
      list {
        s: "loc:@optimizer/gradients/layer_1/to_gates/g_w_m_grad/MatMul_1"
      }
    }
  }
}
node {
  name: "optimizer/gradients/layer_1/to_gates/f_w_m_grad/MatMul"
  op: "MatMul"
  input: "optimizer/gradients/layer_1/to_gates/f_b_a_grad/tuple/control_dependency"
  input: "layer_1/weights_and_biases/forget_weight/read"
  attr {
    key: "T"
    value {
      type: DT_FLOAT
    }
  }
  attr {
    key: "transpose_a"
    value {
      b: false
    }
  }
  attr {
    key: "transpose_b"
    value {
      b: true
    }
  }
}
node {
  name: "optimizer/gradients/layer_1/to_gates/f_w_m_grad/MatMul_1"
  op: "MatMul"
  input: "layer_1/to_gates/input_concat"
  input: "optimizer/gradients/layer_1/to_gates/f_b_a_grad/tuple/control_dependency"
  attr {
    key: "T"
    value {
      type: DT_FLOAT
    }
  }
  attr {
    key: "transpose_a"
    value {
      b: true
    }
  }
  attr {
    key: "transpose_b"
    value {
      b: false
    }
  }
}
node {
  name: "optimizer/gradients/layer_1/to_gates/f_w_m_grad/tuple/group_deps"
  op: "NoOp"
  input: "^optimizer/gradients/layer_1/to_gates/f_w_m_grad/MatMul"
  input: "^optimizer/gradients/layer_1/to_gates/f_w_m_grad/MatMul_1"
}
node {
  name: "optimizer/gradients/layer_1/to_gates/f_w_m_grad/tuple/control_dependency"
  op: "Identity"
  input: "optimizer/gradients/layer_1/to_gates/f_w_m_grad/MatMul"
  input: "^optimizer/gradients/layer_1/to_gates/f_w_m_grad/tuple/group_deps"
  attr {
    key: "T"
    value {
      type: DT_FLOAT
    }
  }
  attr {
    key: "_class"
    value {
      list {
        s: "loc:@optimizer/gradients/layer_1/to_gates/f_w_m_grad/MatMul"
      }
    }
  }
}
node {
  name: "optimizer/gradients/layer_1/to_gates/f_w_m_grad/tuple/control_dependency_1"
  op: "Identity"
  input: "optimizer/gradients/layer_1/to_gates/f_w_m_grad/MatMul_1"
  input: "^optimizer/gradients/layer_1/to_gates/f_w_m_grad/tuple/group_deps"
  attr {
    key: "T"
    value {
      type: DT_FLOAT
    }
  }
  attr {
    key: "_class"
    value {
      list {
        s: "loc:@optimizer/gradients/layer_1/to_gates/f_w_m_grad/MatMul_1"
      }
    }
  }
}
node {
  name: "optimizer/beta1_power/initial_value"
  op: "Const"
  attr {
    key: "_class"
    value {
      list {
        s: "loc:@layer_1/weights_and_biases/forget_bias"
      }
    }
  }
  attr {
    key: "dtype"
    value {
      type: DT_FLOAT
    }
  }
  attr {
    key: "value"
    value {
      tensor {
        dtype: DT_FLOAT
        tensor_shape {
        }
        float_val: 0.8999999761581421
      }
    }
  }
}
node {
  name: "optimizer/beta1_power"
  op: "VariableV2"
  attr {
    key: "_class"
    value {
      list {
        s: "loc:@layer_1/weights_and_biases/forget_bias"
      }
    }
  }
  attr {
    key: "container"
    value {
      s: ""
    }
  }
  attr {
    key: "dtype"
    value {
      type: DT_FLOAT
    }
  }
  attr {
    key: "shape"
    value {
      shape {
      }
    }
  }
  attr {
    key: "shared_name"
    value {
      s: ""
    }
  }
}
node {
  name: "optimizer/beta1_power/Assign"
  op: "Assign"
  input: "optimizer/beta1_power"
  input: "optimizer/beta1_power/initial_value"
  attr {
    key: "T"
    value {
      type: DT_FLOAT
    }
  }
  attr {
    key: "_class"
    value {
      list {
        s: "loc:@layer_1/weights_and_biases/forget_bias"
      }
    }
  }
  attr {
    key: "use_locking"
    value {
      b: true
    }
  }
  attr {
    key: "validate_shape"
    value {
      b: true
    }
  }
}
node {
  name: "optimizer/beta1_power/read"
  op: "Identity"
  input: "optimizer/beta1_power"
  attr {
    key: "T"
    value {
      type: DT_FLOAT
    }
  }
  attr {
    key: "_class"
    value {
      list {
        s: "loc:@layer_1/weights_and_biases/forget_bias"
      }
    }
  }
}
node {
  name: "optimizer/beta2_power/initial_value"
  op: "Const"
  attr {
    key: "_class"
    value {
      list {
        s: "loc:@layer_1/weights_and_biases/forget_bias"
      }
    }
  }
  attr {
    key: "dtype"
    value {
      type: DT_FLOAT
    }
  }
  attr {
    key: "value"
    value {
      tensor {
        dtype: DT_FLOAT
        tensor_shape {
        }
        float_val: 0.9990000128746033
      }
    }
  }
}
node {
  name: "optimizer/beta2_power"
  op: "VariableV2"
  attr {
    key: "_class"
    value {
      list {
        s: "loc:@layer_1/weights_and_biases/forget_bias"
      }
    }
  }
  attr {
    key: "container"
    value {
      s: ""
    }
  }
  attr {
    key: "dtype"
    value {
      type: DT_FLOAT
    }
  }
  attr {
    key: "shape"
    value {
      shape {
      }
    }
  }
  attr {
    key: "shared_name"
    value {
      s: ""
    }
  }
}
node {
  name: "optimizer/beta2_power/Assign"
  op: "Assign"
  input: "optimizer/beta2_power"
  input: "optimizer/beta2_power/initial_value"
  attr {
    key: "T"
    value {
      type: DT_FLOAT
    }
  }
  attr {
    key: "_class"
    value {
      list {
        s: "loc:@layer_1/weights_and_biases/forget_bias"
      }
    }
  }
  attr {
    key: "use_locking"
    value {
      b: true
    }
  }
  attr {
    key: "validate_shape"
    value {
      b: true
    }
  }
}
node {
  name: "optimizer/beta2_power/read"
  op: "Identity"
  input: "optimizer/beta2_power"
  attr {
    key: "T"
    value {
      type: DT_FLOAT
    }
  }
  attr {
    key: "_class"
    value {
      list {
        s: "loc:@layer_1/weights_and_biases/forget_bias"
      }
    }
  }
}
node {
  name: "layer_1/weights_and_biases/forget_weight/Adam/Initializer/zeros"
  op: "Const"
  attr {
    key: "_class"
    value {
      list {
        s: "loc:@layer_1/weights_and_biases/forget_weight"
      }
    }
  }
  attr {
    key: "dtype"
    value {
      type: DT_FLOAT
    }
  }
  attr {
    key: "value"
    value {
      tensor {
        dtype: DT_FLOAT
        tensor_shape {
          dim {
            size: 26
          }
          dim {
            size: 25
          }
        }
        float_val: 0.0
      }
    }
  }
}
node {
  name: "layer_1/weights_and_biases/forget_weight/Adam"
  op: "VariableV2"
  attr {
    key: "_class"
    value {
      list {
        s: "loc:@layer_1/weights_and_biases/forget_weight"
      }
    }
  }
  attr {
    key: "container"
    value {
      s: ""
    }
  }
  attr {
    key: "dtype"
    value {
      type: DT_FLOAT
    }
  }
  attr {
    key: "shape"
    value {
      shape {
        dim {
          size: 26
        }
        dim {
          size: 25
        }
      }
    }
  }
  attr {
    key: "shared_name"
    value {
      s: ""
    }
  }
}
node {
  name: "layer_1/weights_and_biases/forget_weight/Adam/Assign"
  op: "Assign"
  input: "layer_1/weights_and_biases/forget_weight/Adam"
  input: "layer_1/weights_and_biases/forget_weight/Adam/Initializer/zeros"
  attr {
    key: "T"
    value {
      type: DT_FLOAT
    }
  }
  attr {
    key: "_class"
    value {
      list {
        s: "loc:@layer_1/weights_and_biases/forget_weight"
      }
    }
  }
  attr {
    key: "use_locking"
    value {
      b: true
    }
  }
  attr {
    key: "validate_shape"
    value {
      b: true
    }
  }
}
node {
  name: "layer_1/weights_and_biases/forget_weight/Adam/read"
  op: "Identity"
  input: "layer_1/weights_and_biases/forget_weight/Adam"
  attr {
    key: "T"
    value {
      type: DT_FLOAT
    }
  }
  attr {
    key: "_class"
    value {
      list {
        s: "loc:@layer_1/weights_and_biases/forget_weight"
      }
    }
  }
}
node {
  name: "layer_1/weights_and_biases/forget_weight/Adam_1/Initializer/zeros"
  op: "Const"
  attr {
    key: "_class"
    value {
      list {
        s: "loc:@layer_1/weights_and_biases/forget_weight"
      }
    }
  }
  attr {
    key: "dtype"
    value {
      type: DT_FLOAT
    }
  }
  attr {
    key: "value"
    value {
      tensor {
        dtype: DT_FLOAT
        tensor_shape {
          dim {
            size: 26
          }
          dim {
            size: 25
          }
        }
        float_val: 0.0
      }
    }
  }
}
node {
  name: "layer_1/weights_and_biases/forget_weight/Adam_1"
  op: "VariableV2"
  attr {
    key: "_class"
    value {
      list {
        s: "loc:@layer_1/weights_and_biases/forget_weight"
      }
    }
  }
  attr {
    key: "container"
    value {
      s: ""
    }
  }
  attr {
    key: "dtype"
    value {
      type: DT_FLOAT
    }
  }
  attr {
    key: "shape"
    value {
      shape {
        dim {
          size: 26
        }
        dim {
          size: 25
        }
      }
    }
  }
  attr {
    key: "shared_name"
    value {
      s: ""
    }
  }
}
node {
  name: "layer_1/weights_and_biases/forget_weight/Adam_1/Assign"
  op: "Assign"
  input: "layer_1/weights_and_biases/forget_weight/Adam_1"
  input: "layer_1/weights_and_biases/forget_weight/Adam_1/Initializer/zeros"
  attr {
    key: "T"
    value {
      type: DT_FLOAT
    }
  }
  attr {
    key: "_class"
    value {
      list {
        s: "loc:@layer_1/weights_and_biases/forget_weight"
      }
    }
  }
  attr {
    key: "use_locking"
    value {
      b: true
    }
  }
  attr {
    key: "validate_shape"
    value {
      b: true
    }
  }
}
node {
  name: "layer_1/weights_and_biases/forget_weight/Adam_1/read"
  op: "Identity"
  input: "layer_1/weights_and_biases/forget_weight/Adam_1"
  attr {
    key: "T"
    value {
      type: DT_FLOAT
    }
  }
  attr {
    key: "_class"
    value {
      list {
        s: "loc:@layer_1/weights_and_biases/forget_weight"
      }
    }
  }
}
node {
  name: "layer_1/weights_and_biases/output_weight/Adam/Initializer/zeros"
  op: "Const"
  attr {
    key: "_class"
    value {
      list {
        s: "loc:@layer_1/weights_and_biases/output_weight"
      }
    }
  }
  attr {
    key: "dtype"
    value {
      type: DT_FLOAT
    }
  }
  attr {
    key: "value"
    value {
      tensor {
        dtype: DT_FLOAT
        tensor_shape {
          dim {
            size: 26
          }
          dim {
            size: 25
          }
        }
        float_val: 0.0
      }
    }
  }
}
node {
  name: "layer_1/weights_and_biases/output_weight/Adam"
  op: "VariableV2"
  attr {
    key: "_class"
    value {
      list {
        s: "loc:@layer_1/weights_and_biases/output_weight"
      }
    }
  }
  attr {
    key: "container"
    value {
      s: ""
    }
  }
  attr {
    key: "dtype"
    value {
      type: DT_FLOAT
    }
  }
  attr {
    key: "shape"
    value {
      shape {
        dim {
          size: 26
        }
        dim {
          size: 25
        }
      }
    }
  }
  attr {
    key: "shared_name"
    value {
      s: ""
    }
  }
}
node {
  name: "layer_1/weights_and_biases/output_weight/Adam/Assign"
  op: "Assign"
  input: "layer_1/weights_and_biases/output_weight/Adam"
  input: "layer_1/weights_and_biases/output_weight/Adam/Initializer/zeros"
  attr {
    key: "T"
    value {
      type: DT_FLOAT
    }
  }
  attr {
    key: "_class"
    value {
      list {
        s: "loc:@layer_1/weights_and_biases/output_weight"
      }
    }
  }
  attr {
    key: "use_locking"
    value {
      b: true
    }
  }
  attr {
    key: "validate_shape"
    value {
      b: true
    }
  }
}
node {
  name: "layer_1/weights_and_biases/output_weight/Adam/read"
  op: "Identity"
  input: "layer_1/weights_and_biases/output_weight/Adam"
  attr {
    key: "T"
    value {
      type: DT_FLOAT
    }
  }
  attr {
    key: "_class"
    value {
      list {
        s: "loc:@layer_1/weights_and_biases/output_weight"
      }
    }
  }
}
node {
  name: "layer_1/weights_and_biases/output_weight/Adam_1/Initializer/zeros"
  op: "Const"
  attr {
    key: "_class"
    value {
      list {
        s: "loc:@layer_1/weights_and_biases/output_weight"
      }
    }
  }
  attr {
    key: "dtype"
    value {
      type: DT_FLOAT
    }
  }
  attr {
    key: "value"
    value {
      tensor {
        dtype: DT_FLOAT
        tensor_shape {
          dim {
            size: 26
          }
          dim {
            size: 25
          }
        }
        float_val: 0.0
      }
    }
  }
}
node {
  name: "layer_1/weights_and_biases/output_weight/Adam_1"
  op: "VariableV2"
  attr {
    key: "_class"
    value {
      list {
        s: "loc:@layer_1/weights_and_biases/output_weight"
      }
    }
  }
  attr {
    key: "container"
    value {
      s: ""
    }
  }
  attr {
    key: "dtype"
    value {
      type: DT_FLOAT
    }
  }
  attr {
    key: "shape"
    value {
      shape {
        dim {
          size: 26
        }
        dim {
          size: 25
        }
      }
    }
  }
  attr {
    key: "shared_name"
    value {
      s: ""
    }
  }
}
node {
  name: "layer_1/weights_and_biases/output_weight/Adam_1/Assign"
  op: "Assign"
  input: "layer_1/weights_and_biases/output_weight/Adam_1"
  input: "layer_1/weights_and_biases/output_weight/Adam_1/Initializer/zeros"
  attr {
    key: "T"
    value {
      type: DT_FLOAT
    }
  }
  attr {
    key: "_class"
    value {
      list {
        s: "loc:@layer_1/weights_and_biases/output_weight"
      }
    }
  }
  attr {
    key: "use_locking"
    value {
      b: true
    }
  }
  attr {
    key: "validate_shape"
    value {
      b: true
    }
  }
}
node {
  name: "layer_1/weights_and_biases/output_weight/Adam_1/read"
  op: "Identity"
  input: "layer_1/weights_and_biases/output_weight/Adam_1"
  attr {
    key: "T"
    value {
      type: DT_FLOAT
    }
  }
  attr {
    key: "_class"
    value {
      list {
        s: "loc:@layer_1/weights_and_biases/output_weight"
      }
    }
  }
}
node {
  name: "layer_1/weights_and_biases/gate_weight/Adam/Initializer/zeros"
  op: "Const"
  attr {
    key: "_class"
    value {
      list {
        s: "loc:@layer_1/weights_and_biases/gate_weight"
      }
    }
  }
  attr {
    key: "dtype"
    value {
      type: DT_FLOAT
    }
  }
  attr {
    key: "value"
    value {
      tensor {
        dtype: DT_FLOAT
        tensor_shape {
          dim {
            size: 26
          }
          dim {
            size: 25
          }
        }
        float_val: 0.0
      }
    }
  }
}
node {
  name: "layer_1/weights_and_biases/gate_weight/Adam"
  op: "VariableV2"
  attr {
    key: "_class"
    value {
      list {
        s: "loc:@layer_1/weights_and_biases/gate_weight"
      }
    }
  }
  attr {
    key: "container"
    value {
      s: ""
    }
  }
  attr {
    key: "dtype"
    value {
      type: DT_FLOAT
    }
  }
  attr {
    key: "shape"
    value {
      shape {
        dim {
          size: 26
        }
        dim {
          size: 25
        }
      }
    }
  }
  attr {
    key: "shared_name"
    value {
      s: ""
    }
  }
}
node {
  name: "layer_1/weights_and_biases/gate_weight/Adam/Assign"
  op: "Assign"
  input: "layer_1/weights_and_biases/gate_weight/Adam"
  input: "layer_1/weights_and_biases/gate_weight/Adam/Initializer/zeros"
  attr {
    key: "T"
    value {
      type: DT_FLOAT
    }
  }
  attr {
    key: "_class"
    value {
      list {
        s: "loc:@layer_1/weights_and_biases/gate_weight"
      }
    }
  }
  attr {
    key: "use_locking"
    value {
      b: true
    }
  }
  attr {
    key: "validate_shape"
    value {
      b: true
    }
  }
}
node {
  name: "layer_1/weights_and_biases/gate_weight/Adam/read"
  op: "Identity"
  input: "layer_1/weights_and_biases/gate_weight/Adam"
  attr {
    key: "T"
    value {
      type: DT_FLOAT
    }
  }
  attr {
    key: "_class"
    value {
      list {
        s: "loc:@layer_1/weights_and_biases/gate_weight"
      }
    }
  }
}
node {
  name: "layer_1/weights_and_biases/gate_weight/Adam_1/Initializer/zeros"
  op: "Const"
  attr {
    key: "_class"
    value {
      list {
        s: "loc:@layer_1/weights_and_biases/gate_weight"
      }
    }
  }
  attr {
    key: "dtype"
    value {
      type: DT_FLOAT
    }
  }
  attr {
    key: "value"
    value {
      tensor {
        dtype: DT_FLOAT
        tensor_shape {
          dim {
            size: 26
          }
          dim {
            size: 25
          }
        }
        float_val: 0.0
      }
    }
  }
}
node {
  name: "layer_1/weights_and_biases/gate_weight/Adam_1"
  op: "VariableV2"
  attr {
    key: "_class"
    value {
      list {
        s: "loc:@layer_1/weights_and_biases/gate_weight"
      }
    }
  }
  attr {
    key: "container"
    value {
      s: ""
    }
  }
  attr {
    key: "dtype"
    value {
      type: DT_FLOAT
    }
  }
  attr {
    key: "shape"
    value {
      shape {
        dim {
          size: 26
        }
        dim {
          size: 25
        }
      }
    }
  }
  attr {
    key: "shared_name"
    value {
      s: ""
    }
  }
}
node {
  name: "layer_1/weights_and_biases/gate_weight/Adam_1/Assign"
  op: "Assign"
  input: "layer_1/weights_and_biases/gate_weight/Adam_1"
  input: "layer_1/weights_and_biases/gate_weight/Adam_1/Initializer/zeros"
  attr {
    key: "T"
    value {
      type: DT_FLOAT
    }
  }
  attr {
    key: "_class"
    value {
      list {
        s: "loc:@layer_1/weights_and_biases/gate_weight"
      }
    }
  }
  attr {
    key: "use_locking"
    value {
      b: true
    }
  }
  attr {
    key: "validate_shape"
    value {
      b: true
    }
  }
}
node {
  name: "layer_1/weights_and_biases/gate_weight/Adam_1/read"
  op: "Identity"
  input: "layer_1/weights_and_biases/gate_weight/Adam_1"
  attr {
    key: "T"
    value {
      type: DT_FLOAT
    }
  }
  attr {
    key: "_class"
    value {
      list {
        s: "loc:@layer_1/weights_and_biases/gate_weight"
      }
    }
  }
}
node {
  name: "layer_1/weights_and_biases/input_weight/Adam/Initializer/zeros"
  op: "Const"
  attr {
    key: "_class"
    value {
      list {
        s: "loc:@layer_1/weights_and_biases/input_weight"
      }
    }
  }
  attr {
    key: "dtype"
    value {
      type: DT_FLOAT
    }
  }
  attr {
    key: "value"
    value {
      tensor {
        dtype: DT_FLOAT
        tensor_shape {
          dim {
            size: 26
          }
          dim {
            size: 25
          }
        }
        float_val: 0.0
      }
    }
  }
}
node {
  name: "layer_1/weights_and_biases/input_weight/Adam"
…
  input: "layer_2/weights_and_biases/forget_weight/Adam"
  input: "layer_2/weights_and_biases/forget_weight/Adam_1"
  input: "layer_2/weights_and_biases/gate_bias"
  input: "layer_2/weights_and_biases/gate_bias/Adam"
  input: "layer_2/weights_and_biases/gate_bias/Adam_1"
  input: "layer_2/weights_and_biases/gate_weight"
  input: "layer_2/weights_and_biases/gate_weight/Adam"
  input: "layer_2/weights_and_biases/gate_weight/Adam_1"
  input: "layer_2/weights_and_biases/input_bias"
  input: "layer_2/weights_and_biases/input_bias/Adam"
  input: "layer_2/weights_and_biases/input_bias/Adam_1"
  input: "layer_2/weights_and_biases/input_weight"
  input: "layer_2/weights_and_biases/input_weight/Adam"
  input: "layer_2/weights_and_biases/input_weight/Adam_1"
  input: "layer_2/weights_and_biases/output_bias"
  input: "layer_2/weights_and_biases/output_bias/Adam"
  input: "layer_2/weights_and_biases/output_bias/Adam_1"
  input: "layer_2/weights_and_biases/output_weight"
  input: "layer_2/weights_and_biases/output_weight/Adam"
  input: "layer_2/weights_and_biases/output_weight/Adam_1"
  input: "layer_2/weights_and_biases/outwards_propagating_bias"
  input: "layer_2/weights_and_biases/outwards_propagating_bias/Adam"
  input: "layer_2/weights_and_biases/outwards_propagating_bias/Adam_1"
  input: "layer_2/weights_and_biases/outwards_propagating_weight"
  input: "layer_2/weights_and_biases/outwards_propagating_weight/Adam"
  input: "layer_2/weights_and_biases/outwards_propagating_weight/Adam_1"
  input: "optimizer/beta1_power"
  input: "optimizer/beta2_power"
  attr {
    key: "dtypes"
    value {
      list {
        type: DT_FLOAT
        type: DT_FLOAT
        type: DT_FLOAT
        type: DT_FLOAT
        type: DT_FLOAT
        type: DT_FLOAT
        type: DT_FLOAT
        type: DT_FLOAT
        type: DT_FLOAT
        type: DT_FLOAT
        type: DT_FLOAT
        type: DT_FLOAT
        type: DT_FLOAT
        type: DT_FLOAT
        type: DT_FLOAT
        type: DT_FLOAT
        type: DT_FLOAT
        type: DT_FLOAT
        type: DT_FLOAT
        type: DT_FLOAT
        type: DT_FLOAT
        type: DT_FLOAT
        type: DT_FLOAT
        type: DT_FLOAT
        type: DT_FLOAT
        type: DT_FLOAT
        type: DT_FLOAT
        type: DT_FLOAT
        type: DT_FLOAT
        type: DT_FLOAT
        type: DT_FLOAT
        type: DT_FLOAT
        type: DT_FLOAT
        type: DT_FLOAT
        type: DT_FLOAT
        type: DT_FLOAT
        type: DT_FLOAT
        type: DT_FLOAT
        type: DT_FLOAT
        type: DT_FLOAT
        type: DT_FLOAT
        type: DT_FLOAT
        type: DT_FLOAT
        type: DT_FLOAT
        type: DT_FLOAT
        type: DT_FLOAT
        type: DT_FLOAT
        type: DT_FLOAT
        type: DT_FLOAT
        type: DT_FLOAT
        type: DT_FLOAT
        type: DT_FLOAT
        type: DT_FLOAT
        type: DT_FLOAT
        type: DT_FLOAT
        type: DT_FLOAT
        type: DT_FLOAT
        type: DT_FLOAT
        type: DT_FLOAT
        type: DT_FLOAT
        type: DT_FLOAT
        type: DT_FLOAT
      }
    }
  }
}
node {
  name: "summaries_and_saver/save/control_dependency"
  op: "Identity"
  input: "summaries_and_saver/save/Const"
  input: "^summaries_and_saver/save/SaveV2"
  attr {
    key: "T"
    value {
      type: DT_STRING
    }
  }
  attr {
    key: "_class"
    value {
      list {
        s: "loc:@summaries_and_saver/save/Const"
      }
    }
  }
}
node {
  name: "summaries_and_saver/save/RestoreV2/tensor_names"
  op: "Const"
  device: "/device:CPU:0"
  attr {
    key: "dtype"
    value {
      type: DT_STRING
    }
  }
  attr {
    key: "value"
    value {
      tensor {
        dtype: DT_STRING
        tensor_shape {
          dim {
            size: 62
          }
        }
        string_val: "layer_1/weights_and_biases/forget_bias"
        string_val: "layer_1/weights_and_biases/forget_bias/Adam"
        string_val: "layer_1/weights_and_biases/forget_bias/Adam_1"
        string_val: "layer_1/weights_and_biases/forget_weight"
        string_val: "layer_1/weights_and_biases/forget_weight/Adam"
        string_val: "layer_1/weights_and_biases/forget_weight/Adam_1"
        string_val: "layer_1/weights_and_biases/gate_bias"
        string_val: "layer_1/weights_and_biases/gate_bias/Adam"
        string_val: "layer_1/weights_and_biases/gate_bias/Adam_1"
        string_val: "layer_1/weights_and_biases/gate_weight"
        string_val: "layer_1/weights_and_biases/gate_weight/Adam"
        string_val: "layer_1/weights_and_biases/gate_weight/Adam_1"
        string_val: "layer_1/weights_and_biases/input_bias"
        string_val: "layer_1/weights_and_biases/input_bias/Adam"
        string_val: "layer_1/weights_and_biases/input_bias/Adam_1"
        string_val: "layer_1/weights_and_biases/input_weight"
        string_val: "layer_1/weights_and_biases/input_weight/Adam"
        string_val: "layer_1/weights_and_biases/input_weight/Adam_1"
        string_val: "layer_1/weights_and_biases/output_bias"
        string_val: "layer_1/weights_and_biases/output_bias/Adam"
        string_val: "layer_1/weights_and_biases/output_bias/Adam_1"
        string_val: "layer_1/weights_and_biases/output_weight"
        string_val: "layer_1/weights_and_biases/output_weight/Adam"
        string_val: "layer_1/weights_and_biases/output_weight/Adam_1"
        string_val: "layer_1/weights_and_biases/outwards_propagating_bias"
        string_val: "layer_1/weights_and_biases/outwards_propagating_bias/Adam"
        string_val: "layer_1/weights_and_biases/outwards_propagating_bias/Adam_1"
        string_val: "layer_1/weights_and_biases/outwards_propagating_weight"
        string_val: "layer_1/weights_and_biases/outwards_propagating_weight/Adam"
        string_val: "layer_1/weights_and_biases/outwards_propagating_weight/Adam_1"
        string_val: "layer_2/weights_and_biases/forget_bias"
        string_val: "layer_2/weights_and_biases/forget_bias/Adam"
        string_val: "layer_2/weights_and_biases/forget_bias/Adam_1"
        string_val: "layer_2/weights_and_biases/forget_weight"
        string_val: "layer_2/weights_and_biases/forget_weight/Adam"
        string_val: "layer_2/weights_and_biases/forget_weight/Adam_1"
        string_val: "layer_2/weights_and_biases/gate_bias"
        string_val: "layer_2/weights_and_biases/gate_bias/Adam"
        string_val: "layer_2/weights_and_biases/gate_bias/Adam_1"
        string_val: "layer_2/weights_and_biases/gate_weight"
        string_val: "layer_2/weights_and_biases/gate_weight/Adam"
        string_val: "layer_2/weights_and_biases/gate_weight/Adam_1"
        string_val: "layer_2/weights_and_biases/input_bias"
        string_val: "layer_2/weights_and_biases/input_bias/Adam"
        string_val: "layer_2/weights_and_biases/input_bias/Adam_1"
        string_val: "layer_2/weights_and_biases/input_weight"
        string_val: "layer_2/weights_and_biases/input_weight/Adam"
        string_val: "layer_2/weights_and_biases/input_weight/Adam_1"
        string_val: "layer_2/weights_and_biases/output_bias"
        string_val: "layer_2/weights_and_biases/output_bias/Adam"
        string_val: "layer_2/weights_and_biases/output_bias/Adam_1"
        string_val: "layer_2/weights_and_biases/output_weight"
        string_val: "layer_2/weights_and_biases/output_weight/Adam"
        string_val: "layer_2/weights_and_biases/output_weight/Adam_1"
        string_val: "layer_2/weights_and_biases/outwards_propagating_bias"
        string_val: "layer_2/weights_and_biases/outwards_propagating_bias/Adam"
        string_val: "layer_2/weights_and_biases/outwards_propagating_bias/Adam_1"
        string_val: "layer_2/weights_and_biases/outwards_propagating_weight"
        string_val: "layer_2/weights_and_biases/outwards_propagating_weight/Adam"
        string_val: "layer_2/weights_and_biases/outwards_propagating_weight/Adam_1"
        string_val: "optimizer/beta1_power"
        string_val: "optimizer/beta2_power"
      }
    }
  }
}
node {
  name: "summaries_and_saver/save/RestoreV2/shape_and_slices"
  op: "Const"
  device: "/device:CPU:0"
  attr {
    key: "dtype"
    value {
      type: DT_STRING
    }
  }
  attr {
    key: "value"
    value {
      tensor {
        dtype: DT_STRING
        tensor_shape {
          dim {
            size: 62
          }
        }
        string_val: ""
        string_val: ""
        string_val: ""
        string_val: ""
        string_val: ""
        string_val: ""
        string_val: ""
        string_val: ""
        string_val: ""
        string_val: ""
        string_val: ""
        string_val: ""
        string_val: ""
        string_val: ""
        string_val: ""
        string_val: ""
        string_val: ""
        string_val: ""
        string_val: ""
        string_val: ""
        string_val: ""
        string_val: ""
        string_val: ""
        string_val: ""
        string_val: ""
        string_val: ""
        string_val: ""
        string_val: ""
        string_val: ""
        string_val: ""
        string_val: ""
        string_val: ""
        string_val: ""
        string_val: ""
        string_val: ""
        string_val: ""
        string_val: ""
        string_val: ""
        string_val: ""
        string_val: ""
        string_val: ""
        string_val: ""
        string_val: ""
        string_val: ""
        string_val: ""
        string_val: ""
        string_val: ""
        string_val: ""
        string_val: ""
        string_val: ""
        string_val: ""
        string_val: ""
        string_val: ""
        string_val: ""
        string_val: ""
        string_val: ""
        string_val: ""
        string_val: ""
        string_val: ""
        string_val: ""
        string_val: ""
        string_val: ""
      }
    }
  }
}
node {
  name: "summaries_and_saver/save/RestoreV2"
  op: "RestoreV2"
  input: "summaries_and_saver/save/Const"
  input: "summaries_and_saver/save/RestoreV2/tensor_names"
  input: "summaries_and_saver/save/RestoreV2/shape_and_slices"
  device: "/device:CPU:0"
  attr {
    key: "dtypes"
    value {
      list {
        type: DT_FLOAT
        type: DT_FLOAT
        type: DT_FLOAT
        type: DT_FLOAT
        type: DT_FLOAT
        type: DT_FLOAT
        type: DT_FLOAT
        type: DT_FLOAT
        type: DT_FLOAT
        type: DT_FLOAT
        type: DT_FLOAT
        type: DT_FLOAT
        type: DT_FLOAT
        type: DT_FLOAT
        type: DT_FLOAT
        type: DT_FLOAT
        type: DT_FLOAT
        type: DT_FLOAT
        type: DT_FLOAT
        type: DT_FLOAT
        type: DT_FLOAT
        type: DT_FLOAT
        type: DT_FLOAT
        type: DT_FLOAT
        type: DT_FLOAT
        type: DT_FLOAT
        type: DT_FLOAT
        type: DT_FLOAT
        type: DT_FLOAT
        type: DT_FLOAT
        type: DT_FLOAT
        type: DT_FLOAT
        type: DT_FLOAT
        type: DT_FLOAT
        type: DT_FLOAT
        type: DT_FLOAT
        type: DT_FLOAT
        type: DT_FLOAT
        type: DT_FLOAT
        type: DT_FLOAT
        type: DT_FLOAT
        type: DT_FLOAT
        type: DT_FLOAT
        type: DT_FLOAT
        type: DT_FLOAT
        type: DT_FLOAT
        type: DT_FLOAT
        type: DT_FLOAT
        type: DT_FLOAT
        type: DT_FLOAT
        type: DT_FLOAT
        type: DT_FLOAT
        type: DT_FLOAT
        type: DT_FLOAT
        type: DT_FLOAT
        type: DT_FLOAT
        type: DT_FLOAT
        type: DT_FLOAT
        type: DT_FLOAT
        type: DT_FLOAT
        type: DT_FLOAT
        type: DT_FLOAT
      }
    }
  }
}
node {
  name: "summaries_and_saver/save/Assign"
  op: "Assign"
  input: "layer_1/weights_and_biases/forget_bias"
  input: "summaries_and_saver/save/RestoreV2"
  attr {
    key: "T"
    value {
      type: DT_FLOAT
    }
  }
  attr {
    key: "_class"
    value {
      list {
        s: "loc:@layer_1/weights_and_biases/forget_bias"
      }
    }
  }
  attr {
    key: "use_locking"
    value {
      b: true
    }
  }
  attr {
    key: "validate_shape"
    value {
      b: true
    }
  }
}
node {
  name: "summaries_and_saver/save/Assign_1"
  op: "Assign"
  input: "layer_1/weights_and_biases/forget_bias/Adam"
  input: "summaries_and_saver/save/RestoreV2:1"
  attr {
    key: "T"
    value {
      type: DT_FLOAT
    }
  }
  attr {
    key: "_class"
    value {
      list {
        s: "loc:@layer_1/weights_and_biases/forget_bias"
      }
    }
  }
  attr {
    key: "use_locking"
    value {
      b: true
    }
  }
  attr {
    key: "validate_shape"
    value {
      b: true
    }
  }
}
node {
  name: "summaries_and_saver/save/Assign_2"
  op: "Assign"
  input: "layer_1/weights_and_biases/forget_bias/Adam_1"
  input: "summaries_and_saver/save/RestoreV2:2"
  attr {
    key: "T"
    value {
      type: DT_FLOAT
    }
  }
  attr {
    key: "_class"
    value {
      list {
        s: "loc:@layer_1/weights_and_biases/forget_bias"
      }
    }
  }
  attr {
    key: "use_locking"
    value {
      b: true
    }
  }
  attr {
    key: "validate_shape"
    value {
      b: true
    }
  }
}
node {
  name: "summaries_and_saver/save/Assign_3"
  op: "Assign"
  input: "layer_1/weights_and_biases/forget_weight"
  input: "summaries_and_saver/save/RestoreV2:3"
  attr {
    key: "T"
    value {
      type: DT_FLOAT
    }
  }
  attr {
    key: "_class"
    value {
      list {
        s: "loc:@layer_1/weights_and_biases/forget_weight"
      }
    }
  }
  attr {
    key: "use_locking"
    value {
      b: true
    }
  }
  attr {
    key: "validate_shape"
    value {
      b: true
    }
  }
}
node {
  name: "summaries_and_saver/save/Assign_4"
  op: "Assign"
  input: "layer_1/weights_and_biases/forget_weight/Adam"
  input: "summaries_and_saver/save/RestoreV2:4"
  attr {
    key: "T"
    value {
      type: DT_FLOAT
    }
  }
  attr {
    key: "_class"
    value {
      list {
        s: "loc:@layer_1/weights_and_biases/forget_weight"
      }
    }
  }
  attr {
    key: "use_locking"
    value {
      b: true
    }
  }
  attr {
    key: "validate_shape"
    value {
      b: true
    }
  }
}
node {
  name: "summaries_and_saver/save/Assign_5"
  op: "Assign"
  input: "layer_1/weights_and_biases/forget_weight/Adam_1"
  input: "summaries_and_saver/save/RestoreV2:5"
  attr {
    key: "T"
    value {
      type: DT_FLOAT
    }
  }
  attr {
    key: "_class"
    value {
      list {
        s: "loc:@layer_1/weights_and_biases/forget_weight"
      }
    }
  }
  attr {
    key: "use_locking"
    value {
      b: true
    }
  }
  attr {
    key: "validate_shape"
    value {
      b: true
    }
  }
}
node {
  name: "summaries_and_saver/save/Assign_6"
  op: "Assign"
  input: "layer_1/weights_and_biases/gate_bias"
  input: "summaries_and_saver/save/RestoreV2:6"
  attr {
    key: "T"
    value {
      type: DT_FLOAT
    }
  }
  attr {
    key: "_class"
    value {
      list {
        s: "loc:@layer_1/weights_and_biases/gate_bias"
      }
    }
  }
  attr {
    key: "use_locking"
    value {
      b: true
    }
  }
  attr {
    key: "validate_shape"
    value {
      b: true
    }
  }
}
node {
  name: "summaries_and_saver/save/Assign_7"
  op: "Assign"
  input: "layer_1/weights_and_biases/gate_bias/Adam"
  input: "summaries_and_saver/save/RestoreV2:7"
  attr {
    key: "T"
    value {
      type: DT_FLOAT
    }
  }
  attr {
    key: "_class"
    value {
      list {
        s: "loc:@layer_1/weights_and_biases/gate_bias"
      }
    }
  }
  attr {
    key: "use_locking"
    value {
      b: true
    }
  }
  attr {
    key: "validate_shape"
    value {
      b: true
    }
  }
}
node {
  name: "summaries_and_saver/save/Assign_8"
  op: "Assign"
  input: "layer_1/weights_and_biases/gate_bias/Adam_1"
  input: "summaries_and_saver/save/RestoreV2:8"
  attr {
    key: "T"
    value {
      type: DT_FLOAT
    }
  }
  attr {
    key: "_class"
    value {
      list {
        s: "loc:@layer_1/weights_and_biases/gate_bias"
      }
    }
  }
  attr {
    key: "use_locking"
    value {
      b: true
    }
  }
  attr {
    key: "validate_shape"
    value {
      b: true
    }
  }
}
node {
  name: "summaries_and_saver/save/Assign_9"
  op: "Assign"
  input: "layer_1/weights_and_biases/gate_weight"
  input: "summaries_and_saver/save/RestoreV2:9"
  attr {
    key: "T"
    value {
      type: DT_FLOAT
    }
  }
  attr {
    key: "_class"
    value {
      list {
        s: "loc:@layer_1/weights_and_biases/gate_weight"
      }
    }
  }
  attr {
    key: "use_locking"
    value {
      b: true
    }
  }
  attr {
    key: "validate_shape"
    value {
      b: true
    }
  }
}
node {
  name: "summaries_and_saver/save/Assign_10"
  op: "Assign"
  input: "layer_1/weights_and_biases/gate_weight/Adam"
  input: "summaries_and_saver/save/RestoreV2:10"
  attr {
    key: "T"
    value {
      type: DT_FLOAT
    }
  }
  attr {
    key: "_class"
    value {
      list {
        s: "loc:@layer_1/weights_and_biases/gate_weight"
      }
    }
  }
  attr {
    key: "use_locking"
    value {
      b: true
    }
  }
  attr {
    key: "validate_shape"
    value {
      b: true
    }
  }
}
node {
  name: "summaries_and_saver/save/Assign_11"
  op: "Assign"
  input: "layer_1/weights_and_biases/gate_weight/Adam_1"
  input: "summaries_and_saver/save/RestoreV2:11"
  attr {
    key: "T"
    value {
      type: DT_FLOAT
    }
  }
  attr {
    key: "_class"
    value {
      list {
        s: "loc:@layer_1/weights_and_biases/gate_weight"
      }
    }
  }
  attr {
    key: "use_locking"
    value {
      b: true
    }
  }
  attr {
    key: "validate_shape"
    value {
      b: true
    }
  }
}
node {
  name: "summaries_and_saver/save/Assign_12"
  op: "Assign"
  input: "layer_1/weights_and_biases/input_bias"
  input: "summaries_and_saver/save/RestoreV2:12"
  attr {
    key: "T"
    value {
      type: DT_FLOAT
    }
  }
  attr {
    key: "_class"
    value {
      list {
        s: "loc:@layer_1/weights_and_biases/input_bias"
      }
    }
  }
  attr {
    key: "use_locking"
    value {
      b: true
    }
  }
  attr {
    key: "validate_shape"
    value {
      b: true
    }
  }
}
node {
  name: "summaries_and_saver/save/Assign_13"
  op: "Assign"
  input: "layer_1/weights_and_biases/input_bias/Adam"
  input: "summaries_and_saver/save/RestoreV2:13"
  attr {
    key: "T"
    value {
      type: DT_FLOAT
    }
  }
  attr {
    key: "_class"
    value {
      list {
        s: "loc:@layer_1/weights_and_biases/input_bias"
      }
    }
  }
  attr {
    key: "use_locking"
    value {
      b: true
    }
  }
  attr {
    key: "validate_shape"
    value {
      b: true
    }
  }
}
node {
  name: "summaries_and_saver/save/Assign_14"
  op: "Assign"
  input: "layer_1/weights_and_biases/input_bias/Adam_1"
  input: "summaries_and_saver/save/RestoreV2:14"
  attr {
    key: "T"
    value {
      type: DT_FLOAT
    }
  }
  attr {
    key: "_class"
    value {
      list {
        s: "loc:@layer_1/weights_and_biases/input_bias"
      }
    }
  }
  attr {
    key: "use_locking"
    value {
      b: true
    }
  }
  attr {
    key: "validate_shape"
    value {
      b: true
    }
  }
}
node {
  name: "summaries_and_saver/save/Assign_15"
  op: "Assign"
  input: "layer_1/weights_and_biases/input_weight"
  input: "summaries_and_saver/save/RestoreV2:15"
  attr {
    key: "T"
    value {
      type: DT_FLOAT
    }
  }
  attr {
    key: "_class"
    value {
      list {
        s: "loc:@layer_1/weights_and_biases/input_weight"
      }
    }
  }
  attr {
    key: "use_locking"
    value {
      b: true
    }
  }
  attr {
    key: "validate_shape"
    value {
      b: true
    }
  }
}
node {
  name: "summaries_and_saver/save/Assign_16"
  op: "Assign"
  input: "layer_1/weights_and_biases/input_weight/Adam"
  input: "summaries_and_saver/save/RestoreV2:16"
  attr {
    key: "T"
    value {
      type: DT_FLOAT
    }
  }
  attr {
    key: "_class"
    value {
      list {
        s: "loc:@layer_1/weights_and_biases/input_weight"
      }
    }
  }
  attr {
    key: "use_locking"
    value {
      b: true
    }
  }
  attr {
    key: "validate_shape"
    value {
      b: true
    }
  }
}
node {
  name: "summaries_and_saver/save/Assign_17"
  op: "Assign"
  input: "layer_1/weights_and_biases/input_weight/Adam_1"
  input: "summaries_and_saver/save/RestoreV2:17"
  attr {
    key: "T"
    value {
      type: DT_FLOAT
    }
  }
  attr {
    key: "_class"
    value {
      list {
        s: "loc:@layer_1/weights_and_biases/input_weight"
      }
    }
  }
  attr {
    key: "use_locking"
    value {
      b: true
    }
  }
  attr {
    key: "validate_shape"
    value {
      b: true
    }
  }
}
node {
  name: "summaries_and_saver/save/Assign_18"
  op: "Assign"
  input: "layer_1/weights_and_biases/output_bias"
  input: "summaries_and_saver/save/RestoreV2:18"
  attr {
    key: "T"
    value {
      type: DT_FLOAT
    }
  }
  attr {
    key: "_class"
    value {
      list {
        s: "loc:@layer_1/weights_and_biases/output_bias"
      }
    }
  }
  attr {
    key: "use_locking"
    value {
      b: true
    }
  }
  attr {
    key: "validate_shape"
    value {
      b: true
    }
  }
}
node {
  name: "summaries_and_saver/save/Assign_19"
  op: "Assign"
  input: "layer_1/weights_and_biases/output_bias/Adam"
  input: "summaries_and_saver/save/RestoreV2:19"
  attr {
    key: "T"
    value {
      type: DT_FLOAT
    }
  }
  attr {
    key: "_class"
    value {
      list {
        s: "loc:@layer_1/weights_and_biases/output_bias"
      }
    }
  }
  attr {
    key: "use_locking"
    value {
      b: true
    }
  }
  attr {
    key: "validate_shape"
    value {
      b: true
    }
  }
}
node {
  name: "summaries_and_saver/save/Assign_20"
  op: "Assign"
  input: "layer_1/weights_and_biases/output_bias/Adam_1"
  input: "summaries_and_saver/save/RestoreV2:20"
  attr {
    key: "T"
    value {
      type: DT_FLOAT
    }
  }
  attr {
    key: "_class"
    value {
      list {
        s: "loc:@layer_1/weights_and_biases/output_bias"
      }
    }
  }
  attr {
    key: "use_locking"
    value {
      b: true
    }
  }
  attr {
    key: "validate_shape"
    value {
      b: true
    }
  }
}
node {
  name: "summaries_and_saver/save/Assign_21"
  op: "Assign"
  input: "layer_1/weights_and_biases/output_weight"
  input: "summaries_and_saver/save/RestoreV2:21"
  attr {
    key: "T"
    value {
      type: DT_FLOAT
    }
  }
  attr {
    key: "_class"
    value {
      list {
        s: "loc:@layer_1/weights_and_biases/output_weight"
      }
    }
  }
  attr {
    key: "use_locking"
    value {
      b: true
    }
  }
  attr {
    key: "validate_shape"
    value {
      b: true
    }
  }
}
node {
  name: "summaries_and_saver/save/Assign_22"
  op: "Assign"
  input: "layer_1/weights_and_biases/output_weight/Adam"
  input: "summaries_and_saver/save/RestoreV2:22"
  attr {
    key: "T"
    value {
      type: DT_FLOAT
    }
  }
  attr {
    key: "_class"
    value {
      list {
        s: "loc:@layer_1/weights_and_biases/output_weight"
      }
    }
  }
  attr {
    key: "use_locking"
    value {
      b: true
    }
  }
  attr {
    key: "validate_shape"
    value {
      b: true
    }
  }
}
node {
  name: "summaries_and_saver/save/Assign_23"
  op: "Assign"
  input: "layer_1/weights_and_biases/output_weight/Adam_1"
  input: "summaries_and_saver/save/RestoreV2:23"
  attr {
    key: "T"
    value {
      type: DT_FLOAT
    }
  }
  attr {
    key: "_class"
    value {
      list {
        s: "loc:@layer_1/weights_and_biases/output_weight"
      }
    }
  }
  attr {
    key: "use_locking"
    value {
      b: true
    }
  }
  attr {
    key: "validate_shape"
    value {
      b: true
    }
  }
}
node {
  name: "summaries_and_saver/save/Assign_24"
  op: "Assign"
  input: "layer_1/weights_and_biases/outwards_propagating_bias"
  input: "summaries_and_saver/save/RestoreV2:24"
  attr {
    key: "T"
    value {
      type: DT_FLOAT
    }
  }
  attr {
    key: "_class"
    value {
      list {
        s: "loc:@layer_1/weights_and_biases/outwards_propagating_bias"
      }
    }
  }
  attr {
    key: "use_locking"
    value {
      b: true
    }
  }
  attr {
    key: "validate_shape"
    value {
      b: true
    }
  }
}
node {
  name: "summaries_and_saver/save/Assign_25"
  op: "Assign"
  input: "layer_1/weights_and_biases/outwards_propagating_bias/Adam"
  input: "summaries_and_saver/save/RestoreV2:25"
  attr {
    key: "T"
    value {
      type: DT_FLOAT
    }
  }
  attr {
    key: "_class"
    value {
      list {
        s: "loc:@layer_1/weights_and_biases/outwards_propagating_bias"
      }
    }
  }
  attr {
    key: "use_locking"
    value {
      b: true
    }
  }
  attr {
    key: "validate_shape"
    value {
      b: true
    }
  }
}
node {
  name: "summaries_and_saver/save/Assign_26"
  op: "Assign"
  input: "layer_1/weights_and_biases/outwards_propagating_bias/Adam_1"
  input: "summaries_and_saver/save/RestoreV2:26"
  attr {
    key: "T"
    value {
      type: DT_FLOAT
    }
  }
  attr {
    key: "_class"
    value {
      list {
        s: "loc:@layer_1/weights_and_biases/outwards_propagating_bias"
      }
    }
  }
  attr {
    key: "use_locking"
    value {
      b: true
    }
  }
  attr {
    key: "validate_shape"
    value {
      b: true
    }
  }
}
node {
  name: "summaries_and_saver/save/Assign_27"
  op: "Assign"
  input: "layer_1/weights_and_biases/outwards_propagating_weight"
  input: "summaries_and_saver/save/RestoreV2:27"
  attr {
    key: "T"
    value {
      type: DT_FLOAT
    }
  }
  attr {
    key: "_class"
    value {
      list {
        s: "loc:@layer_1/weights_and_biases/outwards_propagating_weight"
      }
    }
  }
  attr {
    key: "use_locking"
    value {
      b: true
    }
  }
  attr {
    key: "validate_shape"
    value {
      b: true
    }
  }
}
node {
  name: "summaries_and_saver/save/Assign_28"
  op: "Assign"
  input: "layer_1/weights_and_biases/outwards_propagating_weight/Adam"
  input: "summaries_and_saver/save/RestoreV2:28"
  attr {
    key: "T"
    value {
      type: DT_FLOAT
    }
  }
  attr {
    key: "_class"
    value {
      list {
        s: "loc:@layer_1/weights_and_biases/outwards_propagating_weight"
      }
    }
  }
  attr {
    key: "use_locking"
    value {
      b: true
    }
  }
  attr {
    key: "validate_shape"
    value {
      b: true
    }
  }
}
node {
  name: "summaries_and_saver/save/Assign_29"
  op: "Assign"
  input: "layer_1/weights_and_biases/outwards_propagating_weight/Adam_1"
  input: "summaries_and_saver/save/RestoreV2:29"
  attr {
    key: "T"
    value {
      type: DT_FLOAT
    }
  }
  attr {
    key: "_class"
    value {
      list {
        s: "loc:@layer_1/weights_and_biases/outwards_propagating_weight"
      }
    }
  }
  attr {
    key: "use_locking"
    value {
      b: true
    }
  }
  attr {
    key: "validate_shape"
    value {
      b: true
    }
  }
}
node {
  name: "summaries_and_saver/save/Assign_30"
  op: "Assign"
  input: "layer_2/weights_and_biases/forget_bias"
  input: "summaries_and_saver/save/RestoreV2:30"
  attr {
    key: "T"
    value {
      type: DT_FLOAT
    }
  }
  attr {
    key: "_class"
    value {
      list {
        s: "loc:@layer_2/weights_and_biases/forget_bias"
      }
    }
  }
  attr {
    key: "use_locking"
    value {
      b: true
    }
  }
  attr {
    key: "validate_shape"
    value {
      b: true
    }
  }
}
node {
  name: "summaries_and_saver/save/Assign_31"
  op: "Assign"
  input: "layer_2/weights_and_biases/forget_bias/Adam"
  input: "summaries_and_saver/save/RestoreV2:31"
  attr {
    key: "T"
    value {
      type: DT_FLOAT
    }
  }
  attr {
    key: "_class"
    value {
      list {
        s: "loc:@layer_2/weights_and_biases/forget_bias"
      }
    }
  }
  attr {
    key: "use_locking"
    value {
      b: true
    }
  }
  attr {
    key: "validate_shape"
    value {
      b: true
    }
  }
}
node {
  name: "summaries_and_saver/save/Assign_32"
  op: "Assign"
  input: "layer_2/weights_and_biases/forget_bias/Adam_1"
  input: "summaries_and_saver/save/RestoreV2:32"
  attr {
    key: "T"
    value {
      type: DT_FLOAT
    }
  }
  attr {
    key: "_class"
    value {
      list {
        s: "loc:@layer_2/weights_and_biases/forget_bias"
      }
    }
  }
  attr {
    key: "use_locking"
    value {
      b: true
    }
  }
  attr {
    key: "validate_shape"
    value {
      b: true
    }
  }
}
node {
  name: "summaries_and_saver/save/Assign_33"
  op: "Assign"
  input: "layer_2/weights_and_biases/forget_weight"
  input: "summaries_and_saver/save/RestoreV2:33"
  attr {
    key: "T"
    value {
      type: DT_FLOAT
    }
  }
  attr {
    key: "_class"
    value {
      list {
        s: "loc:@layer_2/weights_and_biases/forget_weight"
      }
    }
  }
  attr {
    key: "use_locking"
    value {
      b: true
    }
  }
  attr {
    key: "validate_shape"
    value {
      b: true
    }
  }
}
node {
  name: "summaries_and_saver/save/Assign_34"
  op: "Assign"
  input: "layer_2/weights_and_biases/forget_weight/Adam"
  input: "summaries_and_saver/save/RestoreV2:34"
  attr {
    key: "T"
    value {
      type: DT_FLOAT
    }
  }
  attr {
    key: "_class"
    value {
      list {
        s: "loc:@layer_2/weights_and_biases/forget_weight"
      }
    }
  }
  attr {
    key: "use_locking"
    value {
      b: true
    }
  }
  attr {
    key: "validate_shape"
    value {
      b: true
    }
  }
}
node {
  name: "summaries_and_saver/save/Assign_35"
  op: "Assign"
  input: "layer_2/weights_and_biases/forget_weight/Adam_1"
  input: "summaries_and_saver/save/RestoreV2:35"
  attr {
    key: "T"
    value {
      type: DT_FLOAT
    }
  }
  attr {
    key: "_class"
    value {
      list {
        s: "loc:@layer_2/weights_and_biases/forget_weight"
      }
    }
  }
  attr {
    key: "use_locking"
    value {
      b: true
    }
  }
  attr {
    key: "validate_shape"
    value {
      b: true
    }
  }
}
node {
  name: "summaries_and_saver/save/Assign_36"
  op: "Assign"
  input: "layer_2/weights_and_biases/gate_bias"
  input: "summaries_and_saver/save/RestoreV2:36"
  attr {
    key: "T"
    value {
      type: DT_FLOAT
    }
  }
  attr {
    key: "_class"
    value {
      list {
        s: "loc:@layer_2/weights_and_biases/gate_bias"
      }
    }
  }
  attr {
    key: "use_locking"
    value {
      b: true
    }
  }
  attr {
    key: "validate_shape"
    value {
      b: true
    }
  }
}
node {
  name: "summaries_and_saver/save/Assign_37"
  op: "Assign"
  input: "layer_2/weights_and_biases/gate_bias/Adam"
  input: "summaries_and_saver/save/RestoreV2:37"
  attr {
    key: "T"
    value {
      type: DT_FLOAT
    }
  }
  attr {
    key: "_class"
    value {
      list {
        s: "loc:@layer_2/weights_and_biases/gate_bias"
      }
    }
  }
  attr {
    key: "use_locking"
    value {
      b: true
    }
  }
  attr {
    key: "validate_shape"
    value {
      b: true
    }
  }
}
node {
  name: "summaries_and_saver/save/Assign_38"
  op: "Assign"
  input: "layer_2/weights_and_biases/gate_bias/Adam_1"
  input: "summaries_and_saver/save/RestoreV2:38"
  attr {
    key: "T"
    value {
      type: DT_FLOAT
    }
  }
  attr {
    key: "_class"
    value {
      list {
        s: "loc:@layer_2/weights_and_biases/gate_bias"
      }
    }
  }
  attr {
    key: "use_locking"
    value {
      b: true
    }
  }
  attr {
    key: "validate_shape"
    value {
      b: true
    }
  }
}
node {
  name: "summaries_and_saver/save/Assign_39"
  op: "Assign"
  input: "layer_2/weights_and_biases/gate_weight"
  input: "summaries_and_saver/save/RestoreV2:39"
  attr {
    key: "T"
    value {
      type: DT_FLOAT
    }
  }
  attr {
    key: "_class"
    value {
      list {
        s: "loc:@layer_2/weights_and_biases/gate_weight"
      }
    }
  }
  attr {
    key: "use_locking"
    value {
      b: true
    }
  }
  attr {
    key: "validate_shape"
    value {
      b: true
    }
  }
}
node {
  name: "summaries_and_saver/save/Assign_40"
  op: "Assign"
  input: "layer_2/weights_and_biases/gate_weight/Adam"
  input: "summaries_and_saver/save/RestoreV2:40"
  attr {
    key: "T"
    value {
      type: DT_FLOAT
    }
  }
  attr {
    key: "_class"
    value {
      list {
        s: "loc:@layer_2/weights_and_biases/gate_weight"
      }
    }
  }
  attr {
    key: "use_locking"
    value {
      b: true
    }
  }
  attr {
    key: "validate_shape"
    value {
      b: true
    }
  }
}
node {
  name: "summaries_and_saver/save/Assign_41"
  op: "Assign"
  input: "layer_2/weights_and_biases/gate_weight/Adam_1"
  input: "summaries_and_saver/save/RestoreV2:41"
  attr {
    key: "T"
    value {
      type: DT_FLOAT
    }
  }
  attr {
    key: "_class"
    value {
      list {
        s: "loc:@layer_2/weights_and_biases/gate_weight"
      }
    }
  }
  attr {
    key: "use_locking"
    value {
      b: true
    }
  }
  attr {
    key: "validate_shape"
    value {
      b: true
    }
  }
}
node {
  name: "summaries_and_saver/save/Assign_42"
  op: "Assign"
  input: "layer_2/weights_and_biases/input_bias"
  input: "summaries_and_saver/save/RestoreV2:42"
  attr {
    key: "T"
    value {
      type: DT_FLOAT
    }
  }
  attr {
    key: "_class"
    value {
      list {
        s: "loc:@layer_2/weights_and_biases/input_bias"
      }
    }
  }
  attr {
    key: "use_locking"
    value {
      b: true
    }
  }
  attr {
    key: "validate_shape"
    value {
      b: true
    }
  }
}
node {
  name: "summaries_and_saver/save/Assign_43"
  op: "Assign"
  input: "layer_2/weights_and_biases/input_bias/Adam"
  input: "summaries_and_saver/save/RestoreV2:43"
  attr {
    key: "T"
    value {
      type: DT_FLOAT
    }
  }
  attr {
    key: "_class"
    value {
      list {
        s: "loc:@layer_2/weights_and_biases/input_bias"
      }
    }
  }
  attr {
    key: "use_locking"
    value {
      b: true
    }
  }
  attr {
    key: "validate_shape"
    value {
      b: true
    }
  }
}
node {
  name: "summaries_and_saver/save/Assign_44"
  op: "Assign"
  input: "layer_2/weights_and_biases/input_bias/Adam_1"
  input: "summaries_and_saver/save/RestoreV2:44"
  attr {
    key: "T"
    value {
      type: DT_FLOAT
    }
  }
  attr {
    key: "_class"
    value {
      list {
        s: "loc:@layer_2/weights_and_biases/input_bias"
      }
    }
  }
  attr {
    key: "use_locking"
    value {
      b: true
    }
  }
  attr {
    key: "validate_shape"
    value {
      b: true
    }
  }
}
node {
  name: "summaries_and_saver/save/Assign_45"
  op: "Assign"
  input: "layer_2/weights_and_biases/input_weight"
  input: "summaries_and_saver/save/RestoreV2:45"
  attr {
    key: "T"
    value {
      type: DT_FLOAT
    }
  }
  attr {
    key: "_class"
    value {
      list {
        s: "loc:@layer_2/weights_and_biases/input_weight"
      }
    }
  }
  attr {
    key: "use_locking"
    value {
      b: true
    }
  }
  attr {
    key: "validate_shape"
    value {
      b: true
    }
  }
}
node {
  name: "summaries_and_saver/save/Assign_46"
  op: "Assign"
  input: "layer_2/weights_and_biases/input_weight/Adam"
  input: "summaries_and_saver/save/RestoreV2:46"
  attr {
    key: "T"
    value {
      type: DT_FLOAT
    }
  }
  attr {
    key: "_class"
    value {
      list {
        s: "loc:@layer_2/weights_and_biases/input_weight"
      }
    }
  }
  attr {
    key: "use_locking"
    value {
      b: true
    }
  }
  attr {
    key: "validate_shape"
    value {
      b: true
    }
  }
}
node {
  name: "summaries_and_saver/save/Assign_47"
  op: "Assign"
  input: "layer_2/weights_and_biases/input_weight/Adam_1"
  input: "summaries_and_saver/save/RestoreV2:47"
  attr {
    key: "T"
    value {
      type: DT_FLOAT
    }
  }
  attr {
    key: "_class"
    value {
      list {
        s: "loc:@layer_2/weights_and_biases/input_weight"
      }
    }
  }
  attr {
    key: "use_locking"
    value {
      b: true
    }
  }
  attr {
    key: "validate_shape"
    value {
      b: true
    }
  }
}
node {
  name: "summaries_and_saver/save/Assign_48"
  op: "Assign"
  input: "layer_2/weights_and_biases/output_bias"
  input: "summaries_and_saver/save/RestoreV2:48"
  attr {
    key: "T"
    value {
      type: DT_FLOAT
    }
  }
  attr {
    key: "_class"
    value {
      list {
        s: "loc:@layer_2/weights_and_biases/output_bias"
      }
    }
  }
  attr {
    key: "use_locking"
    value {
      b: true
    }
  }
  attr {
    key: "validate_shape"
    value {
      b: true
    }
  }
}
node {
  name: "summaries_and_saver/save/Assign_49"
  op: "Assign"
  input: "layer_2/weights_and_biases/output_bias/Adam"
  input: "summaries_and_saver/save/RestoreV2:49"
  attr {
    key: "T"
    value {
      type: DT_FLOAT
    }
  }
  attr {
    key: "_class"
    value {
      list {
        s: "loc:@layer_2/weights_and_biases/output_bias"
      }
    }
  }
  attr {
    key: "use_locking"
    value {
      b: true
    }
  }
  attr {
    key: "validate_shape"
    value {
      b: true
    }
  }
}
node {
  name: "summaries_and_saver/save/Assign_50"
  op: "Assign"
  input: "layer_2/weights_and_biases/output_bias/Adam_1"
  input: "summaries_and_saver/save/RestoreV2:50"
  attr {
    key: "T"
    value {
      type: DT_FLOAT
    }
  }
  attr {
    key: "_class"
    value {
      list {
        s: "loc:@layer_2/weights_and_biases/output_bias"
      }
    }
  }
  attr {
    key: "use_locking"
    value {
      b: true
    }
  }
  attr {
    key: "validate_shape"
    value {
      b: true
    }
  }
}
node {
  name: "summaries_and_saver/save/Assign_51"
  op: "Assign"
  input: "layer_2/weights_and_biases/output_weight"
  input: "summaries_and_saver/save/RestoreV2:51"
  attr {
    key: "T"
    value {
      type: DT_FLOAT
    }
  }
  attr {
    key: "_class"
    value {
      list {
        s: "loc:@layer_2/weights_and_biases/output_weight"
      }
    }
  }
  attr {
    key: "use_locking"
    value {
      b: true
    }
  }
  attr {
    key: "validate_shape"
    value {
      b: true
    }
  }
}
node {
  name: "summaries_and_saver/save/Assign_52"
  op: "Assign"
  input: "layer_2/weights_and_biases/output_weight/Adam"
  input: "summaries_and_saver/save/RestoreV2:52"
  attr {
    key: "T"
    value {
      type: DT_FLOAT
    }
  }
  attr {
    key: "_class"
    value {
      list {
        s: "loc:@layer_2/weights_and_biases/output_weight"
      }
    }
  }
  attr {
    key: "use_locking"
    value {
      b: true
    }
  }
  attr {
    key: "validate_shape"
    value {
      b: true
    }
  }
}
node {
  name: "summaries_and_saver/save/Assign_53"
  op: "Assign"
  input: "layer_2/weights_and_biases/output_weight/Adam_1"
  input: "summaries_and_saver/save/RestoreV2:53"
  attr {
    key: "T"
    value {
      type: DT_FLOAT
    }
  }
  attr {
    key: "_class"
    value {
      list {
        s: "loc:@layer_2/weights_and_biases/output_weight"
      }
    }
  }
  attr {
    key: "use_locking"
    value {
      b: true
    }
  }
  attr {
    key: "validate_shape"
    value {
      b: true
    }
  }
}
node {
  name: "summaries_and_saver/save/Assign_54"
  op: "Assign"
  input: "layer_2/weights_and_biases/outwards_propagating_bias"
  input: "summaries_and_saver/save/RestoreV2:54"
  attr {
    key: "T"
    value {
      type: DT_FLOAT
    }
  }
  attr {
    key: "_class"
    value {
      list {
        s: "loc:@layer_2/weights_and_biases/outwards_propagating_bias"
      }
    }
  }
  attr {
    key: "use_locking"
    value {
      b: true
    }
  }
  attr {
    key: "validate_shape"
    value {
      b: true
    }
  }
}
node {
  name: "summaries_and_saver/save/Assign_55"
  op: "Assign"
  input: "layer_2/weights_and_biases/outwards_propagating_bias/Adam"
  input: "summaries_and_saver/save/RestoreV2:55"
  attr {
    key: "T"
    value {
      type: DT_FLOAT
    }
  }
  attr {
    key: "_class"
    value {
      list {
        s: "loc:@layer_2/weights_and_biases/outwards_propagating_bias"
      }
    }
  }
  attr {
    key: "use_locking"
    value {
      b: true
    }
  }
  attr {
    key: "validate_shape"
    value {
      b: true
    }
  }
}
node {
  name: "summaries_and_saver/save/Assign_56"
  op: "Assign"
  input: "layer_2/weights_and_biases/outwards_propagating_bias/Adam_1"
  input: "summaries_and_saver/save/RestoreV2:56"
  attr {
    key: "T"
    value {
      type: DT_FLOAT
    }
  }
  attr {
    key: "_class"
    value {
      list {
        s: "loc:@layer_2/weights_and_biases/outwards_propagating_bias"
      }
    }
  }
  attr {
    key: "use_locking"
    value {
      b: true
    }
  }
  attr {
    key: "validate_shape"
    value {
      b: true
    }
  }
}
node {
  name: "summaries_and_saver/save/Assign_57"
  op: "Assign"
  input: "layer_2/weights_and_biases/outwards_propagating_weight"
  input: "summaries_and_saver/save/RestoreV2:57"
  attr {
    key: "T"
    value {
      type: DT_FLOAT
    }
  }
  attr {
    key: "_class"
    value {
      list {
        s: "loc:@layer_2/weights_and_biases/outwards_propagating_weight"
      }
    }
  }
  attr {
    key: "use_locking"
    value {
      b: true
    }
  }
  attr {
    key: "validate_shape"
    value {
      b: true
    }
  }
}
node {
  name: "summaries_and_saver/save/Assign_58"
  op: "Assign"
  input: "layer_2/weights_and_biases/outwards_propagating_weight/Adam"
  input: "summaries_and_saver/save/RestoreV2:58"
  attr {
    key: "T"
    value {
      type: DT_FLOAT
    }
  }
  attr {
    key: "_class"
    value {
      list {
        s: "loc:@layer_2/weights_and_biases/outwards_propagating_weight"
      }
    }
  }
  attr {
    key: "use_locking"
    value {
      b: true
    }
  }
  attr {
    key: "validate_shape"
    value {
      b: true
    }
  }
}
node {
  name: "summaries_and_saver/save/Assign_59"
  op: "Assign"
  input: "layer_2/weights_and_biases/outwards_propagating_weight/Adam_1"
  input: "summaries_and_saver/save/RestoreV2:59"
  attr {
    key: "T"
    value {
      type: DT_FLOAT
    }
  }
  attr {
    key: "_class"
    value {
      list {
        s: "loc:@layer_2/weights_and_biases/outwards_propagating_weight"
      }
    }
  }
  attr {
    key: "use_locking"
    value {
      b: true
    }
  }
  attr {
    key: "validate_shape"
    value {
      b: true
    }
  }
}
node {
  name: "summaries_and_saver/save/Assign_60"
  op: "Assign"
  input: "optimizer/beta1_power"
  input: "summaries_and_saver/save/RestoreV2:60"
  attr {
    key: "T"
    value {
      type: DT_FLOAT
    }
  }
  attr {
    key: "_class"
    value {
      list {
        s: "loc:@layer_1/weights_and_biases/forget_bias"
      }
    }
  }
  attr {
    key: "use_locking"
    value {
      b: true
    }
  }
  attr {
    key: "validate_shape"
    value {
      b: true
    }
  }
}
node {
  name: "summaries_and_saver/save/Assign_61"
  op: "Assign"
  input: "optimizer/beta2_power"
  input: "summaries_and_saver/save/RestoreV2:61"
  attr {
    key: "T"
    value {
      type: DT_FLOAT
    }
  }
  attr {
    key: "_class"
    value {
      list {
        s: "loc:@layer_1/weights_and_biases/forget_bias"
      }
    }
  }
  attr {
    key: "use_locking"
    value {
      b: true
    }
  }
  attr {
    key: "validate_shape"
    value {
      b: true
    }
  }
}
node {
  name: "summaries_and_saver/save/restore_all"
  op: "NoOp"
  input: "^summaries_and_saver/save/Assign"
  input: "^summaries_and_saver/save/Assign_1"
  input: "^summaries_and_saver/save/Assign_10"
  input: "^summaries_and_saver/save/Assign_11"
  input: "^summaries_and_saver/save/Assign_12"
  input: "^summaries_and_saver/save/Assign_13"
  input: "^summaries_and_saver/save/Assign_14"
  input: "^summaries_and_saver/save/Assign_15"
  input: "^summaries_and_saver/save/Assign_16"
  input: "^summaries_and_saver/save/Assign_17"
  input: "^summaries_and_saver/save/Assign_18"
  input: "^summaries_and_saver/save/Assign_19"
  input: "^summaries_and_saver/save/Assign_2"
  input: "^summaries_and_saver/save/Assign_20"
  input: "^summaries_and_saver/save/Assign_21"
  input: "^summaries_and_saver/save/Assign_22"
  input: "^summaries_and_saver/save/Assign_23"
  input: "^summaries_and_saver/save/Assign_24"
  input: "^summaries_and_saver/save/Assign_25"
  input: "^summaries_and_saver/save/Assign_26"
  input: "^summaries_and_saver/save/Assign_27"
  input: "^summaries_and_saver/save/Assign_28"
  input: "^summaries_and_saver/save/Assign_29"
  input: "^summaries_and_saver/save/Assign_3"
  input: "^summaries_and_saver/save/Assign_30"
  input: "^summaries_and_saver/save/Assign_31"
  input: "^summaries_and_saver/save/Assign_32"
  input: "^summaries_and_saver/save/Assign_33"
  input: "^summaries_and_saver/save/Assign_34"
  input: "^summaries_and_saver/save/Assign_35"
  input: "^summaries_and_saver/save/Assign_36"
  input: "^summaries_and_saver/save/Assign_37"
  input: "^summaries_and_saver/save/Assign_38"
  input: "^summaries_and_saver/save/Assign_39"
  input: "^summaries_and_saver/save/Assign_4"
  input: "^summaries_and_saver/save/Assign_40"
  input: "^summaries_and_saver/save/Assign_41"
  input: "^summaries_and_saver/save/Assign_42"
  input: "^summaries_and_saver/save/Assign_43"
  input: "^summaries_and_saver/save/Assign_44"
  input: "^summaries_and_saver/save/Assign_45"
  input: "^summaries_and_saver/save/Assign_46"
  input: "^summaries_and_saver/save/Assign_47"
  input: "^summaries_and_saver/save/Assign_48"
  input: "^summaries_and_saver/save/Assign_49"
  input: "^summaries_and_saver/save/Assign_5"
  input: "^summaries_and_saver/save/Assign_50"
  input: "^summaries_and_saver/save/Assign_51"
  input: "^summaries_and_saver/save/Assign_52"
  input: "^summaries_and_saver/save/Assign_53"
  input: "^summaries_and_saver/save/Assign_54"
  input: "^summaries_and_saver/save/Assign_55"
  input: "^summaries_and_saver/save/Assign_56"
  input: "^summaries_and_saver/save/Assign_57"
  input: "^summaries_and_saver/save/Assign_58"
  input: "^summaries_and_saver/save/Assign_59"
  input: "^summaries_and_saver/save/Assign_6"
  input: "^summaries_and_saver/save/Assign_60"
  input: "^summaries_and_saver/save/Assign_61"
  input: "^summaries_and_saver/save/Assign_7"
  input: "^summaries_and_saver/save/Assign_8"
  input: "^summaries_and_saver/save/Assign_9"
}
node {
  name: "init"
  op: "NoOp"
  input: "^layer_1/weights_and_biases/forget_bias/Adam/Assign"
  input: "^layer_1/weights_and_biases/forget_bias/Adam_1/Assign"
  input: "^layer_1/weights_and_biases/forget_bias/Assign"
  input: "^layer_1/weights_and_biases/forget_weight/Adam/Assign"
  input: "^layer_1/weights_and_biases/forget_weight/Adam_1/Assign"
  input: "^layer_1/weights_and_biases/forget_weight/Assign"
  input: "^layer_1/weights_and_biases/gate_bias/Adam/Assign"
  input: "^layer_1/weights_and_biases/gate_bias/Adam_1/Assign"
  input: "^layer_1/weights_and_biases/gate_bias/Assign"
  input: "^layer_1/weights_and_biases/gate_weight/Adam/Assign"
  input: "^layer_1/weights_and_biases/gate_weight/Adam_1/Assign"
  input: "^layer_1/weights_and_biases/gate_weight/Assign"
  input: "^layer_1/weights_and_biases/input_bias/Adam/Assign"
  input: "^layer_1/weights_and_biases/input_bias/Adam_1/Assign"
  input: "^layer_1/weights_and_biases/input_bias/Assign"
  input: "^layer_1/weights_and_biases/input_weight/Adam/Assign"
  input: "^layer_1/weights_and_biases/input_weight/Adam_1/Assign"
  input: "^layer_1/weights_and_biases/input_weight/Assign"
  input: "^layer_1/weights_and_biases/output_bias/Adam/Assign"
  input: "^layer_1/weights_and_biases/output_bias/Adam_1/Assign"
  input: "^layer_1/weights_and_biases/output_bias/Assign"
  input: "^layer_1/weights_and_biases/output_weight/Adam/Assign"
  input: "^layer_1/weights_and_biases/output_weight/Adam_1/Assign"
  input: "^layer_1/weights_and_biases/output_weight/Assign"
  input: "^layer_1/weights_and_biases/outwards_propagating_bias/Adam/Assign"
  input: "^layer_1/weights_and_biases/outwards_propagating_bias/Adam_1/Assign"
  input: "^layer_1/weights_and_biases/outwards_propagating_bias/Assign"
  input: "^layer_1/weights_and_biases/outwards_propagating_weight/Adam/Assign"
  input: "^layer_1/weights_and_biases/outwards_propagating_weight/Adam_1/Assign"
  input: "^layer_1/weights_and_biases/outwards_propagating_weight/Assign"
  input: "^layer_2/weights_and_biases/forget_bias/Adam/Assign"
  input: "^layer_2/weights_and_biases/forget_bias/Adam_1/Assign"
  input: "^layer_2/weights_and_biases/forget_bias/Assign"
  input: "^layer_2/weights_and_biases/forget_weight/Adam/Assign"
  input: "^layer_2/weights_and_biases/forget_weight/Adam_1/Assign"
  input: "^layer_2/weights_and_biases/forget_weight/Assign"
  input: "^layer_2/weights_and_biases/gate_bias/Adam/Assign"
  input: "^layer_2/weights_and_biases/gate_bias/Adam_1/Assign"
  input: "^layer_2/weights_and_biases/gate_bias/Assign"
  input: "^layer_2/weights_and_biases/gate_weight/Adam/Assign"
  input: "^layer_2/weights_and_biases/gate_weight/Adam_1/Assign"
  input: "^layer_2/weights_and_biases/gate_weight/Assign"
  input: "^layer_2/weights_and_biases/input_bias/Adam/Assign"
  input: "^layer_2/weights_and_biases/input_bias/Adam_1/Assign"
  input: "^layer_2/weights_and_biases/input_bias/Assign"
  input: "^layer_2/weights_and_biases/input_weight/Adam/Assign"
  input: "^layer_2/weights_and_biases/input_weight/Adam_1/Assign"
  input: "^layer_2/weights_and_biases/input_weight/Assign"
  input: "^layer_2/weights_and_biases/output_bias/Adam/Assign"
  input: "^layer_2/weights_and_biases/output_bias/Adam_1/Assign"
  input: "^layer_2/weights_and_biases/output_bias/Assign"
  input: "^layer_2/weights_and_biases/output_weight/Adam/Assign"
  input: "^layer_2/weights_and_biases/output_weight/Adam_1/Assign"
  input: "^layer_2/weights_and_biases/output_weight/Assign"
  input: "^layer_2/weights_and_biases/outwards_propagating_bias/Adam/Assign"
  input: "^layer_2/weights_and_biases/outwards_propagating_bias/Adam_1/Assign"
  input: "^layer_2/weights_and_biases/outwards_propagating_bias/Assign"
  input: "^layer_2/weights_and_biases/outwards_propagating_weight/Adam/Assign"
  input: "^layer_2/weights_and_biases/outwards_propagating_weight/Adam_1/Assign"
  input: "^layer_2/weights_and_biases/outwards_propagating_weight/Assign"
  input: "^optimizer/beta1_power/Assign"
  input: "^optimizer/beta2_power/Assign"
}
versions {
  producer: 26
}
